{
  "nodes": [
    {
      "op": "null", 
      "name": "data", 
      "inputs": []
    }, 
    {
      "op": "null", 
      "name": "bn_data_gamma", 
      "inputs": []
    }, 
    {
      "op": "null", 
      "name": "bn_data_beta", 
      "inputs": []
    }, 
    {
      "op": "null", 
      "name": "bn_data_moving_mean", 
      "attrs": {
        "__init__": "[\"zero\", {}]", 
        "eps": "2e-05", 
        "fix_gamma": "True", 
        "momentum": "0.9", 
        "use_global_stats": "False"
      }, 
      "inputs": []
    }, 
    {
      "op": "null", 
      "name": "bn_data_moving_var", 
      "attrs": {
        "__init__": "[\"one\", {}]", 
        "eps": "2e-05", 
        "fix_gamma": "True", 
        "momentum": "0.9", 
        "use_global_stats": "False"
      }, 
      "inputs": []
    }, 
    {
      "op": "BatchNorm", 
      "name": "bn_data", 
      "attrs": {
        "eps": "2e-05", 
        "fix_gamma": "True", 
        "momentum": "0.9", 
        "use_global_stats": "False"
      }, 
      "inputs": [[0, 0, 0], [1, 0, 0], [2, 0, 0], [3, 0, 0], [4, 0, 0]]
    }, 
    {
      "op": "null", 
      "name": "conv0_weight", 
      "inputs": []
    }, 
    {
      "op": "Convolution", 
      "name": "conv0", 
      "attrs": {
        "cudnn_off": "False", 
        "cudnn_tune": "limited_workspace", 
        "dilate": "(1,1)", 
        "kernel": "(7,7)", 
        "no_bias": "True", 
        "num_filter": "64", 
        "num_group": "1", 
        "pad": "(3,3)", 
        "stride": "(2,2)", 
        "workspace": "512"
      }, 
      "inputs": [[5, 0, 0], [6, 0, 0]]
    }, 
    {
      "op": "null", 
      "name": "bn0_gamma", 
      "inputs": []
    }, 
    {
      "op": "null", 
      "name": "bn0_beta", 
      "inputs": []
    }, 
    {
      "op": "null", 
      "name": "bn0_moving_mean", 
      "attrs": {
        "__init__": "[\"zero\", {}]", 
        "eps": "2e-05", 
        "fix_gamma": "False", 
        "momentum": "0.9", 
        "use_global_stats": "False"
      }, 
      "inputs": []
    }, 
    {
      "op": "null", 
      "name": "bn0_moving_var", 
      "attrs": {
        "__init__": "[\"one\", {}]", 
        "eps": "2e-05", 
        "fix_gamma": "False", 
        "momentum": "0.9", 
        "use_global_stats": "False"
      }, 
      "inputs": []
    }, 
    {
      "op": "BatchNorm", 
      "name": "bn0", 
      "attrs": {
        "eps": "2e-05", 
        "fix_gamma": "False", 
        "momentum": "0.9", 
        "use_global_stats": "False"
      }, 
      "inputs": [[7, 0, 0], [8, 0, 0], [9, 0, 0], [10, 0, 0], [11, 0, 0]]
    }, 
    {
      "op": "Activation", 
      "name": "relu0", 
      "attrs": {"act_type": "relu"}, 
      "inputs": [[12, 0, 0]]
    }, 
    {
      "op": "min", 
      "name": "relu0_min", 
      "inputs": [[13, 0, 0]]
    }, 
    {
      "op": "max", 
      "name": "relu0_max", 
      "inputs": [[13, 0, 0]]
    }, 
    {
      "op": "_contrib_quantize", 
      "name": "relu0_quantize", 
      "attrs": {"out_type": "uint8"}, 
      "inputs": [[13, 0, 0], [14, 0, 0], [15, 0, 0]]
    }, 
    {
      "op": "_contrib_quantized_pooling", 
      "name": "quantized_pooling0", 
      "attrs": {
        "global_pool": "False", 
        "kernel": "(3,3)", 
        "pad": "(1,1)", 
        "pool_type": "max", 
        "pooling_convention": "valid", 
        "stride": "(2,2)"
      }, 
      "inputs": [[16, 0, 0], [16, 1, 0], [16, 2, 0]]
    }, 
    {
      "op": "_contrib_dequantize", 
      "name": "pooling0_dequantize", 
      "inputs": [[17, 0, 0], [17, 1, 0], [17, 2, 0]]
    }, 
    {
      "op": "null", 
      "name": "stage1_unit1_bn1_gamma", 
      "inputs": []
    }, 
    {
      "op": "null", 
      "name": "stage1_unit1_bn1_beta", 
      "inputs": []
    }, 
    {
      "op": "null", 
      "name": "stage1_unit1_bn1_moving_mean", 
      "attrs": {
        "__init__": "[\"zero\", {}]", 
        "eps": "2e-05", 
        "fix_gamma": "False", 
        "momentum": "0.9", 
        "use_global_stats": "False"
      }, 
      "inputs": []
    }, 
    {
      "op": "null", 
      "name": "stage1_unit1_bn1_moving_var", 
      "attrs": {
        "__init__": "[\"one\", {}]", 
        "eps": "2e-05", 
        "fix_gamma": "False", 
        "momentum": "0.9", 
        "use_global_stats": "False"
      }, 
      "inputs": []
    }, 
    {
      "op": "BatchNorm", 
      "name": "stage1_unit1_bn1", 
      "attrs": {
        "eps": "2e-05", 
        "fix_gamma": "False", 
        "momentum": "0.9", 
        "use_global_stats": "False"
      }, 
      "inputs": [[18, 0, 0], [19, 0, 0], [20, 0, 0], [21, 0, 0], [22, 0, 0]]
    }, 
    {
      "op": "Activation", 
      "name": "stage1_unit1_relu1", 
      "attrs": {"act_type": "relu"}, 
      "inputs": [[23, 0, 0]]
    }, 
    {
      "op": "min", 
      "name": "stage1_unit1_relu1_min", 
      "inputs": [[24, 0, 0]]
    }, 
    {
      "op": "max", 
      "name": "stage1_unit1_relu1_max", 
      "inputs": [[24, 0, 0]]
    }, 
    {
      "op": "_contrib_quantize", 
      "name": "stage1_unit1_relu1_quantize", 
      "attrs": {"out_type": "uint8"}, 
      "inputs": [[24, 0, 0], [25, 0, 0], [26, 0, 0]]
    }, 
    {
      "op": "null", 
      "name": "stage1_unit1_conv1_weight_quantize", 
      "inputs": []
    }, 
    {
      "op": "null", 
      "name": "stage1_unit1_conv1_weight_quantize_min", 
      "inputs": []
    }, 
    {
      "op": "null", 
      "name": "stage1_unit1_conv1_weight_quantize_max", 
      "inputs": []
    }, 
    {
      "op": "_contrib_quantized_conv", 
      "name": "quantized_stage1_unit1_conv1", 
      "attrs": {
        "cudnn_off": "False", 
        "cudnn_tune": "limited_workspace", 
        "dilate": "(1,1)", 
        "kernel": "(1,1)", 
        "no_bias": "True", 
        "num_filter": "64", 
        "num_group": "1", 
        "pad": "(0,0)", 
        "stride": "(1,1)", 
        "workspace": "512"
      }, 
      "inputs": [[27, 0, 0], [28, 0, 0], [27, 1, 0], [27, 2, 0], [29, 0, 0], [30, 0, 0]]
    }, 
    {
      "op": "_contrib_requantize", 
      "name": "requantize_stage1_unit1_conv1", 
      "inputs": [[31, 0, 0], [31, 1, 0], [31, 2, 0]]
    }, 
    {
      "op": "_contrib_dequantize", 
      "name": "stage1_unit1_conv1_dequantize", 
      "inputs": [[32, 0, 0], [32, 1, 0], [32, 2, 0]]
    }, 
    {
      "op": "null", 
      "name": "stage1_unit1_bn2_gamma", 
      "inputs": []
    }, 
    {
      "op": "null", 
      "name": "stage1_unit1_bn2_beta", 
      "inputs": []
    }, 
    {
      "op": "null", 
      "name": "stage1_unit1_bn2_moving_mean", 
      "attrs": {
        "__init__": "[\"zero\", {}]", 
        "eps": "2e-05", 
        "fix_gamma": "False", 
        "momentum": "0.9", 
        "use_global_stats": "False"
      }, 
      "inputs": []
    }, 
    {
      "op": "null", 
      "name": "stage1_unit1_bn2_moving_var", 
      "attrs": {
        "__init__": "[\"one\", {}]", 
        "eps": "2e-05", 
        "fix_gamma": "False", 
        "momentum": "0.9", 
        "use_global_stats": "False"
      }, 
      "inputs": []
    }, 
    {
      "op": "BatchNorm", 
      "name": "stage1_unit1_bn2", 
      "attrs": {
        "eps": "2e-05", 
        "fix_gamma": "False", 
        "momentum": "0.9", 
        "use_global_stats": "False"
      }, 
      "inputs": [[33, 0, 0], [34, 0, 0], [35, 0, 0], [36, 0, 0], [37, 0, 0]]
    }, 
    {
      "op": "Activation", 
      "name": "stage1_unit1_relu2", 
      "attrs": {"act_type": "relu"}, 
      "inputs": [[38, 0, 0]]
    }, 
    {
      "op": "min", 
      "name": "stage1_unit1_relu2_min", 
      "inputs": [[39, 0, 0]]
    }, 
    {
      "op": "max", 
      "name": "stage1_unit1_relu2_max", 
      "inputs": [[39, 0, 0]]
    }, 
    {
      "op": "_contrib_quantize", 
      "name": "stage1_unit1_relu2_quantize", 
      "attrs": {"out_type": "uint8"}, 
      "inputs": [[39, 0, 0], [40, 0, 0], [41, 0, 0]]
    }, 
    {
      "op": "null", 
      "name": "stage1_unit1_conv2_weight_quantize", 
      "inputs": []
    }, 
    {
      "op": "null", 
      "name": "stage1_unit1_conv2_weight_quantize_min", 
      "inputs": []
    }, 
    {
      "op": "null", 
      "name": "stage1_unit1_conv2_weight_quantize_max", 
      "inputs": []
    }, 
    {
      "op": "_contrib_quantized_conv", 
      "name": "quantized_stage1_unit1_conv2", 
      "attrs": {
        "cudnn_off": "False", 
        "cudnn_tune": "limited_workspace", 
        "dilate": "(1,1)", 
        "kernel": "(3,3)", 
        "no_bias": "True", 
        "num_filter": "64", 
        "num_group": "1", 
        "pad": "(1,1)", 
        "stride": "(1,1)", 
        "workspace": "512"
      }, 
      "inputs": [[42, 0, 0], [43, 0, 0], [42, 1, 0], [42, 2, 0], [44, 0, 0], [45, 0, 0]]
    }, 
    {
      "op": "_contrib_requantize", 
      "name": "requantize_stage1_unit1_conv2", 
      "inputs": [[46, 0, 0], [46, 1, 0], [46, 2, 0]]
    }, 
    {
      "op": "_contrib_dequantize", 
      "name": "stage1_unit1_conv2_dequantize", 
      "inputs": [[47, 0, 0], [47, 1, 0], [47, 2, 0]]
    }, 
    {
      "op": "null", 
      "name": "stage1_unit1_bn3_gamma", 
      "inputs": []
    }, 
    {
      "op": "null", 
      "name": "stage1_unit1_bn3_beta", 
      "inputs": []
    }, 
    {
      "op": "null", 
      "name": "stage1_unit1_bn3_moving_mean", 
      "attrs": {
        "__init__": "[\"zero\", {}]", 
        "eps": "2e-05", 
        "fix_gamma": "False", 
        "momentum": "0.9", 
        "use_global_stats": "False"
      }, 
      "inputs": []
    }, 
    {
      "op": "null", 
      "name": "stage1_unit1_bn3_moving_var", 
      "attrs": {
        "__init__": "[\"one\", {}]", 
        "eps": "2e-05", 
        "fix_gamma": "False", 
        "momentum": "0.9", 
        "use_global_stats": "False"
      }, 
      "inputs": []
    }, 
    {
      "op": "BatchNorm", 
      "name": "stage1_unit1_bn3", 
      "attrs": {
        "eps": "2e-05", 
        "fix_gamma": "False", 
        "momentum": "0.9", 
        "use_global_stats": "False"
      }, 
      "inputs": [[48, 0, 0], [49, 0, 0], [50, 0, 0], [51, 0, 0], [52, 0, 0]]
    }, 
    {
      "op": "Activation", 
      "name": "stage1_unit1_relu3", 
      "attrs": {"act_type": "relu"}, 
      "inputs": [[53, 0, 0]]
    }, 
    {
      "op": "min", 
      "name": "stage1_unit1_relu3_min", 
      "inputs": [[54, 0, 0]]
    }, 
    {
      "op": "max", 
      "name": "stage1_unit1_relu3_max", 
      "inputs": [[54, 0, 0]]
    }, 
    {
      "op": "_contrib_quantize", 
      "name": "stage1_unit1_relu3_quantize", 
      "attrs": {"out_type": "uint8"}, 
      "inputs": [[54, 0, 0], [55, 0, 0], [56, 0, 0]]
    }, 
    {
      "op": "null", 
      "name": "stage1_unit1_conv3_weight_quantize", 
      "inputs": []
    }, 
    {
      "op": "null", 
      "name": "stage1_unit1_conv3_weight_quantize_min", 
      "inputs": []
    }, 
    {
      "op": "null", 
      "name": "stage1_unit1_conv3_weight_quantize_max", 
      "inputs": []
    }, 
    {
      "op": "_contrib_quantized_conv", 
      "name": "quantized_stage1_unit1_conv3", 
      "attrs": {
        "cudnn_off": "False", 
        "cudnn_tune": "limited_workspace", 
        "dilate": "(1,1)", 
        "kernel": "(1,1)", 
        "no_bias": "True", 
        "num_filter": "256", 
        "num_group": "1", 
        "pad": "(0,0)", 
        "stride": "(1,1)", 
        "workspace": "512"
      }, 
      "inputs": [[57, 0, 0], [58, 0, 0], [57, 1, 0], [57, 2, 0], [59, 0, 0], [60, 0, 0]]
    }, 
    {
      "op": "_contrib_requantize", 
      "name": "requantize_stage1_unit1_conv3", 
      "inputs": [[61, 0, 0], [61, 1, 0], [61, 2, 0]]
    }, 
    {
      "op": "_contrib_dequantize", 
      "name": "stage1_unit1_conv3_dequantize", 
      "inputs": [[62, 0, 0], [62, 1, 0], [62, 2, 0]]
    }, 
    {
      "op": "null", 
      "name": "stage1_unit1_sc_weight_quantize", 
      "inputs": []
    }, 
    {
      "op": "null", 
      "name": "stage1_unit1_sc_weight_quantize_min", 
      "inputs": []
    }, 
    {
      "op": "null", 
      "name": "stage1_unit1_sc_weight_quantize_max", 
      "inputs": []
    }, 
    {
      "op": "_contrib_quantized_conv", 
      "name": "quantized_stage1_unit1_sc", 
      "attrs": {
        "cudnn_off": "False", 
        "cudnn_tune": "limited_workspace", 
        "dilate": "(1,1)", 
        "kernel": "(1,1)", 
        "no_bias": "True", 
        "num_filter": "256", 
        "num_group": "1", 
        "pad": "(0,0)", 
        "stride": "(1,1)", 
        "workspace": "512"
      }, 
      "inputs": [[27, 0, 0], [64, 0, 0], [27, 1, 0], [27, 2, 0], [65, 0, 0], [66, 0, 0]]
    }, 
    {
      "op": "_contrib_requantize", 
      "name": "requantize_stage1_unit1_sc", 
      "inputs": [[67, 0, 0], [67, 1, 0], [67, 2, 0]]
    }, 
    {
      "op": "_contrib_dequantize", 
      "name": "stage1_unit1_sc_dequantize", 
      "inputs": [[68, 0, 0], [68, 1, 0], [68, 2, 0]]
    }, 
    {
      "op": "elemwise_add", 
      "name": "_plus0", 
      "inputs": [[63, 0, 0], [69, 0, 0]]
    }, 
    {
      "op": "null", 
      "name": "stage1_unit2_bn1_gamma", 
      "inputs": []
    }, 
    {
      "op": "null", 
      "name": "stage1_unit2_bn1_beta", 
      "inputs": []
    }, 
    {
      "op": "null", 
      "name": "stage1_unit2_bn1_moving_mean", 
      "attrs": {
        "__init__": "[\"zero\", {}]", 
        "eps": "2e-05", 
        "fix_gamma": "False", 
        "momentum": "0.9", 
        "use_global_stats": "False"
      }, 
      "inputs": []
    }, 
    {
      "op": "null", 
      "name": "stage1_unit2_bn1_moving_var", 
      "attrs": {
        "__init__": "[\"one\", {}]", 
        "eps": "2e-05", 
        "fix_gamma": "False", 
        "momentum": "0.9", 
        "use_global_stats": "False"
      }, 
      "inputs": []
    }, 
    {
      "op": "BatchNorm", 
      "name": "stage1_unit2_bn1", 
      "attrs": {
        "eps": "2e-05", 
        "fix_gamma": "False", 
        "momentum": "0.9", 
        "use_global_stats": "False"
      }, 
      "inputs": [[70, 0, 0], [71, 0, 0], [72, 0, 0], [73, 0, 0], [74, 0, 0]]
    }, 
    {
      "op": "Activation", 
      "name": "stage1_unit2_relu1", 
      "attrs": {"act_type": "relu"}, 
      "inputs": [[75, 0, 0]]
    }, 
    {
      "op": "min", 
      "name": "stage1_unit2_relu1_min", 
      "inputs": [[76, 0, 0]]
    }, 
    {
      "op": "max", 
      "name": "stage1_unit2_relu1_max", 
      "inputs": [[76, 0, 0]]
    }, 
    {
      "op": "_contrib_quantize", 
      "name": "stage1_unit2_relu1_quantize", 
      "attrs": {"out_type": "uint8"}, 
      "inputs": [[76, 0, 0], [77, 0, 0], [78, 0, 0]]
    }, 
    {
      "op": "null", 
      "name": "stage1_unit2_conv1_weight_quantize", 
      "inputs": []
    }, 
    {
      "op": "null", 
      "name": "stage1_unit2_conv1_weight_quantize_min", 
      "inputs": []
    }, 
    {
      "op": "null", 
      "name": "stage1_unit2_conv1_weight_quantize_max", 
      "inputs": []
    }, 
    {
      "op": "_contrib_quantized_conv", 
      "name": "quantized_stage1_unit2_conv1", 
      "attrs": {
        "cudnn_off": "False", 
        "cudnn_tune": "limited_workspace", 
        "dilate": "(1,1)", 
        "kernel": "(1,1)", 
        "no_bias": "True", 
        "num_filter": "64", 
        "num_group": "1", 
        "pad": "(0,0)", 
        "stride": "(1,1)", 
        "workspace": "512"
      }, 
      "inputs": [[79, 0, 0], [80, 0, 0], [79, 1, 0], [79, 2, 0], [81, 0, 0], [82, 0, 0]]
    }, 
    {
      "op": "_contrib_requantize", 
      "name": "requantize_stage1_unit2_conv1", 
      "inputs": [[83, 0, 0], [83, 1, 0], [83, 2, 0]]
    }, 
    {
      "op": "_contrib_dequantize", 
      "name": "stage1_unit2_conv1_dequantize", 
      "inputs": [[84, 0, 0], [84, 1, 0], [84, 2, 0]]
    }, 
    {
      "op": "null", 
      "name": "stage1_unit2_bn2_gamma", 
      "inputs": []
    }, 
    {
      "op": "null", 
      "name": "stage1_unit2_bn2_beta", 
      "inputs": []
    }, 
    {
      "op": "null", 
      "name": "stage1_unit2_bn2_moving_mean", 
      "attrs": {
        "__init__": "[\"zero\", {}]", 
        "eps": "2e-05", 
        "fix_gamma": "False", 
        "momentum": "0.9", 
        "use_global_stats": "False"
      }, 
      "inputs": []
    }, 
    {
      "op": "null", 
      "name": "stage1_unit2_bn2_moving_var", 
      "attrs": {
        "__init__": "[\"one\", {}]", 
        "eps": "2e-05", 
        "fix_gamma": "False", 
        "momentum": "0.9", 
        "use_global_stats": "False"
      }, 
      "inputs": []
    }, 
    {
      "op": "BatchNorm", 
      "name": "stage1_unit2_bn2", 
      "attrs": {
        "eps": "2e-05", 
        "fix_gamma": "False", 
        "momentum": "0.9", 
        "use_global_stats": "False"
      }, 
      "inputs": [[85, 0, 0], [86, 0, 0], [87, 0, 0], [88, 0, 0], [89, 0, 0]]
    }, 
    {
      "op": "Activation", 
      "name": "stage1_unit2_relu2", 
      "attrs": {"act_type": "relu"}, 
      "inputs": [[90, 0, 0]]
    }, 
    {
      "op": "min", 
      "name": "stage1_unit2_relu2_min", 
      "inputs": [[91, 0, 0]]
    }, 
    {
      "op": "max", 
      "name": "stage1_unit2_relu2_max", 
      "inputs": [[91, 0, 0]]
    }, 
    {
      "op": "_contrib_quantize", 
      "name": "stage1_unit2_relu2_quantize", 
      "attrs": {"out_type": "uint8"}, 
      "inputs": [[91, 0, 0], [92, 0, 0], [93, 0, 0]]
    }, 
    {
      "op": "null", 
      "name": "stage1_unit2_conv2_weight_quantize", 
      "inputs": []
    }, 
    {
      "op": "null", 
      "name": "stage1_unit2_conv2_weight_quantize_min", 
      "inputs": []
    }, 
    {
      "op": "null", 
      "name": "stage1_unit2_conv2_weight_quantize_max", 
      "inputs": []
    }, 
    {
      "op": "_contrib_quantized_conv", 
      "name": "quantized_stage1_unit2_conv2", 
      "attrs": {
        "cudnn_off": "False", 
        "cudnn_tune": "limited_workspace", 
        "dilate": "(1,1)", 
        "kernel": "(3,3)", 
        "no_bias": "True", 
        "num_filter": "64", 
        "num_group": "1", 
        "pad": "(1,1)", 
        "stride": "(1,1)", 
        "workspace": "512"
      }, 
      "inputs": [[94, 0, 0], [95, 0, 0], [94, 1, 0], [94, 2, 0], [96, 0, 0], [97, 0, 0]]
    }, 
    {
      "op": "_contrib_requantize", 
      "name": "requantize_stage1_unit2_conv2", 
      "inputs": [[98, 0, 0], [98, 1, 0], [98, 2, 0]]
    }, 
    {
      "op": "_contrib_dequantize", 
      "name": "stage1_unit2_conv2_dequantize", 
      "inputs": [[99, 0, 0], [99, 1, 0], [99, 2, 0]]
    }, 
    {
      "op": "null", 
      "name": "stage1_unit2_bn3_gamma", 
      "inputs": []
    }, 
    {
      "op": "null", 
      "name": "stage1_unit2_bn3_beta", 
      "inputs": []
    }, 
    {
      "op": "null", 
      "name": "stage1_unit2_bn3_moving_mean", 
      "attrs": {
        "__init__": "[\"zero\", {}]", 
        "eps": "2e-05", 
        "fix_gamma": "False", 
        "momentum": "0.9", 
        "use_global_stats": "False"
      }, 
      "inputs": []
    }, 
    {
      "op": "null", 
      "name": "stage1_unit2_bn3_moving_var", 
      "attrs": {
        "__init__": "[\"one\", {}]", 
        "eps": "2e-05", 
        "fix_gamma": "False", 
        "momentum": "0.9", 
        "use_global_stats": "False"
      }, 
      "inputs": []
    }, 
    {
      "op": "BatchNorm", 
      "name": "stage1_unit2_bn3", 
      "attrs": {
        "eps": "2e-05", 
        "fix_gamma": "False", 
        "momentum": "0.9", 
        "use_global_stats": "False"
      }, 
      "inputs": [[100, 0, 0], [101, 0, 0], [102, 0, 0], [103, 0, 0], [104, 0, 0]]
    }, 
    {
      "op": "Activation", 
      "name": "stage1_unit2_relu3", 
      "attrs": {"act_type": "relu"}, 
      "inputs": [[105, 0, 0]]
    }, 
    {
      "op": "min", 
      "name": "stage1_unit2_relu3_min", 
      "inputs": [[106, 0, 0]]
    }, 
    {
      "op": "max", 
      "name": "stage1_unit2_relu3_max", 
      "inputs": [[106, 0, 0]]
    }, 
    {
      "op": "_contrib_quantize", 
      "name": "stage1_unit2_relu3_quantize", 
      "attrs": {"out_type": "uint8"}, 
      "inputs": [[106, 0, 0], [107, 0, 0], [108, 0, 0]]
    }, 
    {
      "op": "null", 
      "name": "stage1_unit2_conv3_weight_quantize", 
      "inputs": []
    }, 
    {
      "op": "null", 
      "name": "stage1_unit2_conv3_weight_quantize_min", 
      "inputs": []
    }, 
    {
      "op": "null", 
      "name": "stage1_unit2_conv3_weight_quantize_max", 
      "inputs": []
    }, 
    {
      "op": "_contrib_quantized_conv", 
      "name": "quantized_stage1_unit2_conv3", 
      "attrs": {
        "cudnn_off": "False", 
        "cudnn_tune": "limited_workspace", 
        "dilate": "(1,1)", 
        "kernel": "(1,1)", 
        "no_bias": "True", 
        "num_filter": "256", 
        "num_group": "1", 
        "pad": "(0,0)", 
        "stride": "(1,1)", 
        "workspace": "512"
      }, 
      "inputs": [[109, 0, 0], [110, 0, 0], [109, 1, 0], [109, 2, 0], [111, 0, 0], [112, 0, 0]]
    }, 
    {
      "op": "_contrib_requantize", 
      "name": "requantize_stage1_unit2_conv3", 
      "inputs": [[113, 0, 0], [113, 1, 0], [113, 2, 0]]
    }, 
    {
      "op": "_contrib_dequantize", 
      "name": "stage1_unit2_conv3_dequantize", 
      "inputs": [[114, 0, 0], [114, 1, 0], [114, 2, 0]]
    }, 
    {
      "op": "elemwise_add", 
      "name": "_plus1", 
      "inputs": [[115, 0, 0], [70, 0, 0]]
    }, 
    {
      "op": "null", 
      "name": "stage1_unit3_bn1_gamma", 
      "inputs": []
    }, 
    {
      "op": "null", 
      "name": "stage1_unit3_bn1_beta", 
      "inputs": []
    }, 
    {
      "op": "null", 
      "name": "stage1_unit3_bn1_moving_mean", 
      "attrs": {
        "__init__": "[\"zero\", {}]", 
        "eps": "2e-05", 
        "fix_gamma": "False", 
        "momentum": "0.9", 
        "use_global_stats": "False"
      }, 
      "inputs": []
    }, 
    {
      "op": "null", 
      "name": "stage1_unit3_bn1_moving_var", 
      "attrs": {
        "__init__": "[\"one\", {}]", 
        "eps": "2e-05", 
        "fix_gamma": "False", 
        "momentum": "0.9", 
        "use_global_stats": "False"
      }, 
      "inputs": []
    }, 
    {
      "op": "BatchNorm", 
      "name": "stage1_unit3_bn1", 
      "attrs": {
        "eps": "2e-05", 
        "fix_gamma": "False", 
        "momentum": "0.9", 
        "use_global_stats": "False"
      }, 
      "inputs": [[116, 0, 0], [117, 0, 0], [118, 0, 0], [119, 0, 0], [120, 0, 0]]
    }, 
    {
      "op": "Activation", 
      "name": "stage1_unit3_relu1", 
      "attrs": {"act_type": "relu"}, 
      "inputs": [[121, 0, 0]]
    }, 
    {
      "op": "min", 
      "name": "stage1_unit3_relu1_min", 
      "inputs": [[122, 0, 0]]
    }, 
    {
      "op": "max", 
      "name": "stage1_unit3_relu1_max", 
      "inputs": [[122, 0, 0]]
    }, 
    {
      "op": "_contrib_quantize", 
      "name": "stage1_unit3_relu1_quantize", 
      "attrs": {"out_type": "uint8"}, 
      "inputs": [[122, 0, 0], [123, 0, 0], [124, 0, 0]]
    }, 
    {
      "op": "null", 
      "name": "stage1_unit3_conv1_weight_quantize", 
      "inputs": []
    }, 
    {
      "op": "null", 
      "name": "stage1_unit3_conv1_weight_quantize_min", 
      "inputs": []
    }, 
    {
      "op": "null", 
      "name": "stage1_unit3_conv1_weight_quantize_max", 
      "inputs": []
    }, 
    {
      "op": "_contrib_quantized_conv", 
      "name": "quantized_stage1_unit3_conv1", 
      "attrs": {
        "cudnn_off": "False", 
        "cudnn_tune": "limited_workspace", 
        "dilate": "(1,1)", 
        "kernel": "(1,1)", 
        "no_bias": "True", 
        "num_filter": "64", 
        "num_group": "1", 
        "pad": "(0,0)", 
        "stride": "(1,1)", 
        "workspace": "512"
      }, 
      "inputs": [[125, 0, 0], [126, 0, 0], [125, 1, 0], [125, 2, 0], [127, 0, 0], [128, 0, 0]]
    }, 
    {
      "op": "_contrib_requantize", 
      "name": "requantize_stage1_unit3_conv1", 
      "inputs": [[129, 0, 0], [129, 1, 0], [129, 2, 0]]
    }, 
    {
      "op": "_contrib_dequantize", 
      "name": "stage1_unit3_conv1_dequantize", 
      "inputs": [[130, 0, 0], [130, 1, 0], [130, 2, 0]]
    }, 
    {
      "op": "null", 
      "name": "stage1_unit3_bn2_gamma", 
      "inputs": []
    }, 
    {
      "op": "null", 
      "name": "stage1_unit3_bn2_beta", 
      "inputs": []
    }, 
    {
      "op": "null", 
      "name": "stage1_unit3_bn2_moving_mean", 
      "attrs": {
        "__init__": "[\"zero\", {}]", 
        "eps": "2e-05", 
        "fix_gamma": "False", 
        "momentum": "0.9", 
        "use_global_stats": "False"
      }, 
      "inputs": []
    }, 
    {
      "op": "null", 
      "name": "stage1_unit3_bn2_moving_var", 
      "attrs": {
        "__init__": "[\"one\", {}]", 
        "eps": "2e-05", 
        "fix_gamma": "False", 
        "momentum": "0.9", 
        "use_global_stats": "False"
      }, 
      "inputs": []
    }, 
    {
      "op": "BatchNorm", 
      "name": "stage1_unit3_bn2", 
      "attrs": {
        "eps": "2e-05", 
        "fix_gamma": "False", 
        "momentum": "0.9", 
        "use_global_stats": "False"
      }, 
      "inputs": [[131, 0, 0], [132, 0, 0], [133, 0, 0], [134, 0, 0], [135, 0, 0]]
    }, 
    {
      "op": "Activation", 
      "name": "stage1_unit3_relu2", 
      "attrs": {"act_type": "relu"}, 
      "inputs": [[136, 0, 0]]
    }, 
    {
      "op": "min", 
      "name": "stage1_unit3_relu2_min", 
      "inputs": [[137, 0, 0]]
    }, 
    {
      "op": "max", 
      "name": "stage1_unit3_relu2_max", 
      "inputs": [[137, 0, 0]]
    }, 
    {
      "op": "_contrib_quantize", 
      "name": "stage1_unit3_relu2_quantize", 
      "attrs": {"out_type": "uint8"}, 
      "inputs": [[137, 0, 0], [138, 0, 0], [139, 0, 0]]
    }, 
    {
      "op": "null", 
      "name": "stage1_unit3_conv2_weight_quantize", 
      "inputs": []
    }, 
    {
      "op": "null", 
      "name": "stage1_unit3_conv2_weight_quantize_min", 
      "inputs": []
    }, 
    {
      "op": "null", 
      "name": "stage1_unit3_conv2_weight_quantize_max", 
      "inputs": []
    }, 
    {
      "op": "_contrib_quantized_conv", 
      "name": "quantized_stage1_unit3_conv2", 
      "attrs": {
        "cudnn_off": "False", 
        "cudnn_tune": "limited_workspace", 
        "dilate": "(1,1)", 
        "kernel": "(3,3)", 
        "no_bias": "True", 
        "num_filter": "64", 
        "num_group": "1", 
        "pad": "(1,1)", 
        "stride": "(1,1)", 
        "workspace": "512"
      }, 
      "inputs": [[140, 0, 0], [141, 0, 0], [140, 1, 0], [140, 2, 0], [142, 0, 0], [143, 0, 0]]
    }, 
    {
      "op": "_contrib_requantize", 
      "name": "requantize_stage1_unit3_conv2", 
      "inputs": [[144, 0, 0], [144, 1, 0], [144, 2, 0]]
    }, 
    {
      "op": "_contrib_dequantize", 
      "name": "stage1_unit3_conv2_dequantize", 
      "inputs": [[145, 0, 0], [145, 1, 0], [145, 2, 0]]
    }, 
    {
      "op": "null", 
      "name": "stage1_unit3_bn3_gamma", 
      "inputs": []
    }, 
    {
      "op": "null", 
      "name": "stage1_unit3_bn3_beta", 
      "inputs": []
    }, 
    {
      "op": "null", 
      "name": "stage1_unit3_bn3_moving_mean", 
      "attrs": {
        "__init__": "[\"zero\", {}]", 
        "eps": "2e-05", 
        "fix_gamma": "False", 
        "momentum": "0.9", 
        "use_global_stats": "False"
      }, 
      "inputs": []
    }, 
    {
      "op": "null", 
      "name": "stage1_unit3_bn3_moving_var", 
      "attrs": {
        "__init__": "[\"one\", {}]", 
        "eps": "2e-05", 
        "fix_gamma": "False", 
        "momentum": "0.9", 
        "use_global_stats": "False"
      }, 
      "inputs": []
    }, 
    {
      "op": "BatchNorm", 
      "name": "stage1_unit3_bn3", 
      "attrs": {
        "eps": "2e-05", 
        "fix_gamma": "False", 
        "momentum": "0.9", 
        "use_global_stats": "False"
      }, 
      "inputs": [[146, 0, 0], [147, 0, 0], [148, 0, 0], [149, 0, 0], [150, 0, 0]]
    }, 
    {
      "op": "Activation", 
      "name": "stage1_unit3_relu3", 
      "attrs": {"act_type": "relu"}, 
      "inputs": [[151, 0, 0]]
    }, 
    {
      "op": "min", 
      "name": "stage1_unit3_relu3_min", 
      "inputs": [[152, 0, 0]]
    }, 
    {
      "op": "max", 
      "name": "stage1_unit3_relu3_max", 
      "inputs": [[152, 0, 0]]
    }, 
    {
      "op": "_contrib_quantize", 
      "name": "stage1_unit3_relu3_quantize", 
      "attrs": {"out_type": "uint8"}, 
      "inputs": [[152, 0, 0], [153, 0, 0], [154, 0, 0]]
    }, 
    {
      "op": "null", 
      "name": "stage1_unit3_conv3_weight_quantize", 
      "inputs": []
    }, 
    {
      "op": "null", 
      "name": "stage1_unit3_conv3_weight_quantize_min", 
      "inputs": []
    }, 
    {
      "op": "null", 
      "name": "stage1_unit3_conv3_weight_quantize_max", 
      "inputs": []
    }, 
    {
      "op": "_contrib_quantized_conv", 
      "name": "quantized_stage1_unit3_conv3", 
      "attrs": {
        "cudnn_off": "False", 
        "cudnn_tune": "limited_workspace", 
        "dilate": "(1,1)", 
        "kernel": "(1,1)", 
        "no_bias": "True", 
        "num_filter": "256", 
        "num_group": "1", 
        "pad": "(0,0)", 
        "stride": "(1,1)", 
        "workspace": "512"
      }, 
      "inputs": [[155, 0, 0], [156, 0, 0], [155, 1, 0], [155, 2, 0], [157, 0, 0], [158, 0, 0]]
    }, 
    {
      "op": "_contrib_requantize", 
      "name": "requantize_stage1_unit3_conv3", 
      "inputs": [[159, 0, 0], [159, 1, 0], [159, 2, 0]]
    }, 
    {
      "op": "_contrib_dequantize", 
      "name": "stage1_unit3_conv3_dequantize", 
      "inputs": [[160, 0, 0], [160, 1, 0], [160, 2, 0]]
    }, 
    {
      "op": "elemwise_add", 
      "name": "_plus2", 
      "inputs": [[161, 0, 0], [116, 0, 0]]
    }, 
    {
      "op": "null", 
      "name": "stage2_unit1_bn1_gamma", 
      "inputs": []
    }, 
    {
      "op": "null", 
      "name": "stage2_unit1_bn1_beta", 
      "inputs": []
    }, 
    {
      "op": "null", 
      "name": "stage2_unit1_bn1_moving_mean", 
      "attrs": {
        "__init__": "[\"zero\", {}]", 
        "eps": "2e-05", 
        "fix_gamma": "False", 
        "momentum": "0.9", 
        "use_global_stats": "False"
      }, 
      "inputs": []
    }, 
    {
      "op": "null", 
      "name": "stage2_unit1_bn1_moving_var", 
      "attrs": {
        "__init__": "[\"one\", {}]", 
        "eps": "2e-05", 
        "fix_gamma": "False", 
        "momentum": "0.9", 
        "use_global_stats": "False"
      }, 
      "inputs": []
    }, 
    {
      "op": "BatchNorm", 
      "name": "stage2_unit1_bn1", 
      "attrs": {
        "eps": "2e-05", 
        "fix_gamma": "False", 
        "momentum": "0.9", 
        "use_global_stats": "False"
      }, 
      "inputs": [[162, 0, 0], [163, 0, 0], [164, 0, 0], [165, 0, 0], [166, 0, 0]]
    }, 
    {
      "op": "Activation", 
      "name": "stage2_unit1_relu1", 
      "attrs": {"act_type": "relu"}, 
      "inputs": [[167, 0, 0]]
    }, 
    {
      "op": "min", 
      "name": "stage2_unit1_relu1_min", 
      "inputs": [[168, 0, 0]]
    }, 
    {
      "op": "max", 
      "name": "stage2_unit1_relu1_max", 
      "inputs": [[168, 0, 0]]
    }, 
    {
      "op": "_contrib_quantize", 
      "name": "stage2_unit1_relu1_quantize", 
      "attrs": {"out_type": "uint8"}, 
      "inputs": [[168, 0, 0], [169, 0, 0], [170, 0, 0]]
    }, 
    {
      "op": "null", 
      "name": "stage2_unit1_conv1_weight_quantize", 
      "inputs": []
    }, 
    {
      "op": "null", 
      "name": "stage2_unit1_conv1_weight_quantize_min", 
      "inputs": []
    }, 
    {
      "op": "null", 
      "name": "stage2_unit1_conv1_weight_quantize_max", 
      "inputs": []
    }, 
    {
      "op": "_contrib_quantized_conv", 
      "name": "quantized_stage2_unit1_conv1", 
      "attrs": {
        "cudnn_off": "False", 
        "cudnn_tune": "limited_workspace", 
        "dilate": "(1,1)", 
        "kernel": "(1,1)", 
        "no_bias": "True", 
        "num_filter": "128", 
        "num_group": "1", 
        "pad": "(0,0)", 
        "stride": "(1,1)", 
        "workspace": "512"
      }, 
      "inputs": [[171, 0, 0], [172, 0, 0], [171, 1, 0], [171, 2, 0], [173, 0, 0], [174, 0, 0]]
    }, 
    {
      "op": "_contrib_requantize", 
      "name": "requantize_stage2_unit1_conv1", 
      "inputs": [[175, 0, 0], [175, 1, 0], [175, 2, 0]]
    }, 
    {
      "op": "_contrib_dequantize", 
      "name": "stage2_unit1_conv1_dequantize", 
      "inputs": [[176, 0, 0], [176, 1, 0], [176, 2, 0]]
    }, 
    {
      "op": "null", 
      "name": "stage2_unit1_bn2_gamma", 
      "inputs": []
    }, 
    {
      "op": "null", 
      "name": "stage2_unit1_bn2_beta", 
      "inputs": []
    }, 
    {
      "op": "null", 
      "name": "stage2_unit1_bn2_moving_mean", 
      "attrs": {
        "__init__": "[\"zero\", {}]", 
        "eps": "2e-05", 
        "fix_gamma": "False", 
        "momentum": "0.9", 
        "use_global_stats": "False"
      }, 
      "inputs": []
    }, 
    {
      "op": "null", 
      "name": "stage2_unit1_bn2_moving_var", 
      "attrs": {
        "__init__": "[\"one\", {}]", 
        "eps": "2e-05", 
        "fix_gamma": "False", 
        "momentum": "0.9", 
        "use_global_stats": "False"
      }, 
      "inputs": []
    }, 
    {
      "op": "BatchNorm", 
      "name": "stage2_unit1_bn2", 
      "attrs": {
        "eps": "2e-05", 
        "fix_gamma": "False", 
        "momentum": "0.9", 
        "use_global_stats": "False"
      }, 
      "inputs": [[177, 0, 0], [178, 0, 0], [179, 0, 0], [180, 0, 0], [181, 0, 0]]
    }, 
    {
      "op": "Activation", 
      "name": "stage2_unit1_relu2", 
      "attrs": {"act_type": "relu"}, 
      "inputs": [[182, 0, 0]]
    }, 
    {
      "op": "min", 
      "name": "stage2_unit1_relu2_min", 
      "inputs": [[183, 0, 0]]
    }, 
    {
      "op": "max", 
      "name": "stage2_unit1_relu2_max", 
      "inputs": [[183, 0, 0]]
    }, 
    {
      "op": "_contrib_quantize", 
      "name": "stage2_unit1_relu2_quantize", 
      "attrs": {"out_type": "uint8"}, 
      "inputs": [[183, 0, 0], [184, 0, 0], [185, 0, 0]]
    }, 
    {
      "op": "null", 
      "name": "stage2_unit1_conv2_weight_quantize", 
      "inputs": []
    }, 
    {
      "op": "null", 
      "name": "stage2_unit1_conv2_weight_quantize_min", 
      "inputs": []
    }, 
    {
      "op": "null", 
      "name": "stage2_unit1_conv2_weight_quantize_max", 
      "inputs": []
    }, 
    {
      "op": "_contrib_quantized_conv", 
      "name": "quantized_stage2_unit1_conv2", 
      "attrs": {
        "cudnn_off": "False", 
        "cudnn_tune": "limited_workspace", 
        "dilate": "(1,1)", 
        "kernel": "(3,3)", 
        "no_bias": "True", 
        "num_filter": "128", 
        "num_group": "1", 
        "pad": "(1,1)", 
        "stride": "(2,2)", 
        "workspace": "512"
      }, 
      "inputs": [[186, 0, 0], [187, 0, 0], [186, 1, 0], [186, 2, 0], [188, 0, 0], [189, 0, 0]]
    }, 
    {
      "op": "_contrib_requantize", 
      "name": "requantize_stage2_unit1_conv2", 
      "inputs": [[190, 0, 0], [190, 1, 0], [190, 2, 0]]
    }, 
    {
      "op": "_contrib_dequantize", 
      "name": "stage2_unit1_conv2_dequantize", 
      "inputs": [[191, 0, 0], [191, 1, 0], [191, 2, 0]]
    }, 
    {
      "op": "null", 
      "name": "stage2_unit1_bn3_gamma", 
      "inputs": []
    }, 
    {
      "op": "null", 
      "name": "stage2_unit1_bn3_beta", 
      "inputs": []
    }, 
    {
      "op": "null", 
      "name": "stage2_unit1_bn3_moving_mean", 
      "attrs": {
        "__init__": "[\"zero\", {}]", 
        "eps": "2e-05", 
        "fix_gamma": "False", 
        "momentum": "0.9", 
        "use_global_stats": "False"
      }, 
      "inputs": []
    }, 
    {
      "op": "null", 
      "name": "stage2_unit1_bn3_moving_var", 
      "attrs": {
        "__init__": "[\"one\", {}]", 
        "eps": "2e-05", 
        "fix_gamma": "False", 
        "momentum": "0.9", 
        "use_global_stats": "False"
      }, 
      "inputs": []
    }, 
    {
      "op": "BatchNorm", 
      "name": "stage2_unit1_bn3", 
      "attrs": {
        "eps": "2e-05", 
        "fix_gamma": "False", 
        "momentum": "0.9", 
        "use_global_stats": "False"
      }, 
      "inputs": [[192, 0, 0], [193, 0, 0], [194, 0, 0], [195, 0, 0], [196, 0, 0]]
    }, 
    {
      "op": "Activation", 
      "name": "stage2_unit1_relu3", 
      "attrs": {"act_type": "relu"}, 
      "inputs": [[197, 0, 0]]
    }, 
    {
      "op": "min", 
      "name": "stage2_unit1_relu3_min", 
      "inputs": [[198, 0, 0]]
    }, 
    {
      "op": "max", 
      "name": "stage2_unit1_relu3_max", 
      "inputs": [[198, 0, 0]]
    }, 
    {
      "op": "_contrib_quantize", 
      "name": "stage2_unit1_relu3_quantize", 
      "attrs": {"out_type": "uint8"}, 
      "inputs": [[198, 0, 0], [199, 0, 0], [200, 0, 0]]
    }, 
    {
      "op": "null", 
      "name": "stage2_unit1_conv3_weight_quantize", 
      "inputs": []
    }, 
    {
      "op": "null", 
      "name": "stage2_unit1_conv3_weight_quantize_min", 
      "inputs": []
    }, 
    {
      "op": "null", 
      "name": "stage2_unit1_conv3_weight_quantize_max", 
      "inputs": []
    }, 
    {
      "op": "_contrib_quantized_conv", 
      "name": "quantized_stage2_unit1_conv3", 
      "attrs": {
        "cudnn_off": "False", 
        "cudnn_tune": "limited_workspace", 
        "dilate": "(1,1)", 
        "kernel": "(1,1)", 
        "no_bias": "True", 
        "num_filter": "512", 
        "num_group": "1", 
        "pad": "(0,0)", 
        "stride": "(1,1)", 
        "workspace": "512"
      }, 
      "inputs": [[201, 0, 0], [202, 0, 0], [201, 1, 0], [201, 2, 0], [203, 0, 0], [204, 0, 0]]
    }, 
    {
      "op": "_contrib_requantize", 
      "name": "requantize_stage2_unit1_conv3", 
      "inputs": [[205, 0, 0], [205, 1, 0], [205, 2, 0]]
    }, 
    {
      "op": "_contrib_dequantize", 
      "name": "stage2_unit1_conv3_dequantize", 
      "inputs": [[206, 0, 0], [206, 1, 0], [206, 2, 0]]
    }, 
    {
      "op": "null", 
      "name": "stage2_unit1_sc_weight_quantize", 
      "inputs": []
    }, 
    {
      "op": "null", 
      "name": "stage2_unit1_sc_weight_quantize_min", 
      "inputs": []
    }, 
    {
      "op": "null", 
      "name": "stage2_unit1_sc_weight_quantize_max", 
      "inputs": []
    }, 
    {
      "op": "_contrib_quantized_conv", 
      "name": "quantized_stage2_unit1_sc", 
      "attrs": {
        "cudnn_off": "False", 
        "cudnn_tune": "limited_workspace", 
        "dilate": "(1,1)", 
        "kernel": "(1,1)", 
        "no_bias": "True", 
        "num_filter": "512", 
        "num_group": "1", 
        "pad": "(0,0)", 
        "stride": "(2,2)", 
        "workspace": "512"
      }, 
      "inputs": [[171, 0, 0], [208, 0, 0], [171, 1, 0], [171, 2, 0], [209, 0, 0], [210, 0, 0]]
    }, 
    {
      "op": "_contrib_requantize", 
      "name": "requantize_stage2_unit1_sc", 
      "inputs": [[211, 0, 0], [211, 1, 0], [211, 2, 0]]
    }, 
    {
      "op": "_contrib_dequantize", 
      "name": "stage2_unit1_sc_dequantize", 
      "inputs": [[212, 0, 0], [212, 1, 0], [212, 2, 0]]
    }, 
    {
      "op": "elemwise_add", 
      "name": "_plus3", 
      "inputs": [[207, 0, 0], [213, 0, 0]]
    }, 
    {
      "op": "null", 
      "name": "stage2_unit2_bn1_gamma", 
      "inputs": []
    }, 
    {
      "op": "null", 
      "name": "stage2_unit2_bn1_beta", 
      "inputs": []
    }, 
    {
      "op": "null", 
      "name": "stage2_unit2_bn1_moving_mean", 
      "attrs": {
        "__init__": "[\"zero\", {}]", 
        "eps": "2e-05", 
        "fix_gamma": "False", 
        "momentum": "0.9", 
        "use_global_stats": "False"
      }, 
      "inputs": []
    }, 
    {
      "op": "null", 
      "name": "stage2_unit2_bn1_moving_var", 
      "attrs": {
        "__init__": "[\"one\", {}]", 
        "eps": "2e-05", 
        "fix_gamma": "False", 
        "momentum": "0.9", 
        "use_global_stats": "False"
      }, 
      "inputs": []
    }, 
    {
      "op": "BatchNorm", 
      "name": "stage2_unit2_bn1", 
      "attrs": {
        "eps": "2e-05", 
        "fix_gamma": "False", 
        "momentum": "0.9", 
        "use_global_stats": "False"
      }, 
      "inputs": [[214, 0, 0], [215, 0, 0], [216, 0, 0], [217, 0, 0], [218, 0, 0]]
    }, 
    {
      "op": "Activation", 
      "name": "stage2_unit2_relu1", 
      "attrs": {"act_type": "relu"}, 
      "inputs": [[219, 0, 0]]
    }, 
    {
      "op": "min", 
      "name": "stage2_unit2_relu1_min", 
      "inputs": [[220, 0, 0]]
    }, 
    {
      "op": "max", 
      "name": "stage2_unit2_relu1_max", 
      "inputs": [[220, 0, 0]]
    }, 
    {
      "op": "_contrib_quantize", 
      "name": "stage2_unit2_relu1_quantize", 
      "attrs": {"out_type": "uint8"}, 
      "inputs": [[220, 0, 0], [221, 0, 0], [222, 0, 0]]
    }, 
    {
      "op": "null", 
      "name": "stage2_unit2_conv1_weight_quantize", 
      "inputs": []
    }, 
    {
      "op": "null", 
      "name": "stage2_unit2_conv1_weight_quantize_min", 
      "inputs": []
    }, 
    {
      "op": "null", 
      "name": "stage2_unit2_conv1_weight_quantize_max", 
      "inputs": []
    }, 
    {
      "op": "_contrib_quantized_conv", 
      "name": "quantized_stage2_unit2_conv1", 
      "attrs": {
        "cudnn_off": "False", 
        "cudnn_tune": "limited_workspace", 
        "dilate": "(1,1)", 
        "kernel": "(1,1)", 
        "no_bias": "True", 
        "num_filter": "128", 
        "num_group": "1", 
        "pad": "(0,0)", 
        "stride": "(1,1)", 
        "workspace": "512"
      }, 
      "inputs": [[223, 0, 0], [224, 0, 0], [223, 1, 0], [223, 2, 0], [225, 0, 0], [226, 0, 0]]
    }, 
    {
      "op": "_contrib_requantize", 
      "name": "requantize_stage2_unit2_conv1", 
      "inputs": [[227, 0, 0], [227, 1, 0], [227, 2, 0]]
    }, 
    {
      "op": "_contrib_dequantize", 
      "name": "stage2_unit2_conv1_dequantize", 
      "inputs": [[228, 0, 0], [228, 1, 0], [228, 2, 0]]
    }, 
    {
      "op": "null", 
      "name": "stage2_unit2_bn2_gamma", 
      "inputs": []
    }, 
    {
      "op": "null", 
      "name": "stage2_unit2_bn2_beta", 
      "inputs": []
    }, 
    {
      "op": "null", 
      "name": "stage2_unit2_bn2_moving_mean", 
      "attrs": {
        "__init__": "[\"zero\", {}]", 
        "eps": "2e-05", 
        "fix_gamma": "False", 
        "momentum": "0.9", 
        "use_global_stats": "False"
      }, 
      "inputs": []
    }, 
    {
      "op": "null", 
      "name": "stage2_unit2_bn2_moving_var", 
      "attrs": {
        "__init__": "[\"one\", {}]", 
        "eps": "2e-05", 
        "fix_gamma": "False", 
        "momentum": "0.9", 
        "use_global_stats": "False"
      }, 
      "inputs": []
    }, 
    {
      "op": "BatchNorm", 
      "name": "stage2_unit2_bn2", 
      "attrs": {
        "eps": "2e-05", 
        "fix_gamma": "False", 
        "momentum": "0.9", 
        "use_global_stats": "False"
      }, 
      "inputs": [[229, 0, 0], [230, 0, 0], [231, 0, 0], [232, 0, 0], [233, 0, 0]]
    }, 
    {
      "op": "Activation", 
      "name": "stage2_unit2_relu2", 
      "attrs": {"act_type": "relu"}, 
      "inputs": [[234, 0, 0]]
    }, 
    {
      "op": "min", 
      "name": "stage2_unit2_relu2_min", 
      "inputs": [[235, 0, 0]]
    }, 
    {
      "op": "max", 
      "name": "stage2_unit2_relu2_max", 
      "inputs": [[235, 0, 0]]
    }, 
    {
      "op": "_contrib_quantize", 
      "name": "stage2_unit2_relu2_quantize", 
      "attrs": {"out_type": "uint8"}, 
      "inputs": [[235, 0, 0], [236, 0, 0], [237, 0, 0]]
    }, 
    {
      "op": "null", 
      "name": "stage2_unit2_conv2_weight_quantize", 
      "inputs": []
    }, 
    {
      "op": "null", 
      "name": "stage2_unit2_conv2_weight_quantize_min", 
      "inputs": []
    }, 
    {
      "op": "null", 
      "name": "stage2_unit2_conv2_weight_quantize_max", 
      "inputs": []
    }, 
    {
      "op": "_contrib_quantized_conv", 
      "name": "quantized_stage2_unit2_conv2", 
      "attrs": {
        "cudnn_off": "False", 
        "cudnn_tune": "limited_workspace", 
        "dilate": "(1,1)", 
        "kernel": "(3,3)", 
        "no_bias": "True", 
        "num_filter": "128", 
        "num_group": "1", 
        "pad": "(1,1)", 
        "stride": "(1,1)", 
        "workspace": "512"
      }, 
      "inputs": [[238, 0, 0], [239, 0, 0], [238, 1, 0], [238, 2, 0], [240, 0, 0], [241, 0, 0]]
    }, 
    {
      "op": "_contrib_requantize", 
      "name": "requantize_stage2_unit2_conv2", 
      "inputs": [[242, 0, 0], [242, 1, 0], [242, 2, 0]]
    }, 
    {
      "op": "_contrib_dequantize", 
      "name": "stage2_unit2_conv2_dequantize", 
      "inputs": [[243, 0, 0], [243, 1, 0], [243, 2, 0]]
    }, 
    {
      "op": "null", 
      "name": "stage2_unit2_bn3_gamma", 
      "inputs": []
    }, 
    {
      "op": "null", 
      "name": "stage2_unit2_bn3_beta", 
      "inputs": []
    }, 
    {
      "op": "null", 
      "name": "stage2_unit2_bn3_moving_mean", 
      "attrs": {
        "__init__": "[\"zero\", {}]", 
        "eps": "2e-05", 
        "fix_gamma": "False", 
        "momentum": "0.9", 
        "use_global_stats": "False"
      }, 
      "inputs": []
    }, 
    {
      "op": "null", 
      "name": "stage2_unit2_bn3_moving_var", 
      "attrs": {
        "__init__": "[\"one\", {}]", 
        "eps": "2e-05", 
        "fix_gamma": "False", 
        "momentum": "0.9", 
        "use_global_stats": "False"
      }, 
      "inputs": []
    }, 
    {
      "op": "BatchNorm", 
      "name": "stage2_unit2_bn3", 
      "attrs": {
        "eps": "2e-05", 
        "fix_gamma": "False", 
        "momentum": "0.9", 
        "use_global_stats": "False"
      }, 
      "inputs": [[244, 0, 0], [245, 0, 0], [246, 0, 0], [247, 0, 0], [248, 0, 0]]
    }, 
    {
      "op": "Activation", 
      "name": "stage2_unit2_relu3", 
      "attrs": {"act_type": "relu"}, 
      "inputs": [[249, 0, 0]]
    }, 
    {
      "op": "min", 
      "name": "stage2_unit2_relu3_min", 
      "inputs": [[250, 0, 0]]
    }, 
    {
      "op": "max", 
      "name": "stage2_unit2_relu3_max", 
      "inputs": [[250, 0, 0]]
    }, 
    {
      "op": "_contrib_quantize", 
      "name": "stage2_unit2_relu3_quantize", 
      "attrs": {"out_type": "uint8"}, 
      "inputs": [[250, 0, 0], [251, 0, 0], [252, 0, 0]]
    }, 
    {
      "op": "null", 
      "name": "stage2_unit2_conv3_weight_quantize", 
      "inputs": []
    }, 
    {
      "op": "null", 
      "name": "stage2_unit2_conv3_weight_quantize_min", 
      "inputs": []
    }, 
    {
      "op": "null", 
      "name": "stage2_unit2_conv3_weight_quantize_max", 
      "inputs": []
    }, 
    {
      "op": "_contrib_quantized_conv", 
      "name": "quantized_stage2_unit2_conv3", 
      "attrs": {
        "cudnn_off": "False", 
        "cudnn_tune": "limited_workspace", 
        "dilate": "(1,1)", 
        "kernel": "(1,1)", 
        "no_bias": "True", 
        "num_filter": "512", 
        "num_group": "1", 
        "pad": "(0,0)", 
        "stride": "(1,1)", 
        "workspace": "512"
      }, 
      "inputs": [[253, 0, 0], [254, 0, 0], [253, 1, 0], [253, 2, 0], [255, 0, 0], [256, 0, 0]]
    }, 
    {
      "op": "_contrib_requantize", 
      "name": "requantize_stage2_unit2_conv3", 
      "inputs": [[257, 0, 0], [257, 1, 0], [257, 2, 0]]
    }, 
    {
      "op": "_contrib_dequantize", 
      "name": "stage2_unit2_conv3_dequantize", 
      "inputs": [[258, 0, 0], [258, 1, 0], [258, 2, 0]]
    }, 
    {
      "op": "elemwise_add", 
      "name": "_plus4", 
      "inputs": [[259, 0, 0], [214, 0, 0]]
    }, 
    {
      "op": "null", 
      "name": "stage2_unit3_bn1_gamma", 
      "inputs": []
    }, 
    {
      "op": "null", 
      "name": "stage2_unit3_bn1_beta", 
      "inputs": []
    }, 
    {
      "op": "null", 
      "name": "stage2_unit3_bn1_moving_mean", 
      "attrs": {
        "__init__": "[\"zero\", {}]", 
        "eps": "2e-05", 
        "fix_gamma": "False", 
        "momentum": "0.9", 
        "use_global_stats": "False"
      }, 
      "inputs": []
    }, 
    {
      "op": "null", 
      "name": "stage2_unit3_bn1_moving_var", 
      "attrs": {
        "__init__": "[\"one\", {}]", 
        "eps": "2e-05", 
        "fix_gamma": "False", 
        "momentum": "0.9", 
        "use_global_stats": "False"
      }, 
      "inputs": []
    }, 
    {
      "op": "BatchNorm", 
      "name": "stage2_unit3_bn1", 
      "attrs": {
        "eps": "2e-05", 
        "fix_gamma": "False", 
        "momentum": "0.9", 
        "use_global_stats": "False"
      }, 
      "inputs": [[260, 0, 0], [261, 0, 0], [262, 0, 0], [263, 0, 0], [264, 0, 0]]
    }, 
    {
      "op": "Activation", 
      "name": "stage2_unit3_relu1", 
      "attrs": {"act_type": "relu"}, 
      "inputs": [[265, 0, 0]]
    }, 
    {
      "op": "min", 
      "name": "stage2_unit3_relu1_min", 
      "inputs": [[266, 0, 0]]
    }, 
    {
      "op": "max", 
      "name": "stage2_unit3_relu1_max", 
      "inputs": [[266, 0, 0]]
    }, 
    {
      "op": "_contrib_quantize", 
      "name": "stage2_unit3_relu1_quantize", 
      "attrs": {"out_type": "uint8"}, 
      "inputs": [[266, 0, 0], [267, 0, 0], [268, 0, 0]]
    }, 
    {
      "op": "null", 
      "name": "stage2_unit3_conv1_weight_quantize", 
      "inputs": []
    }, 
    {
      "op": "null", 
      "name": "stage2_unit3_conv1_weight_quantize_min", 
      "inputs": []
    }, 
    {
      "op": "null", 
      "name": "stage2_unit3_conv1_weight_quantize_max", 
      "inputs": []
    }, 
    {
      "op": "_contrib_quantized_conv", 
      "name": "quantized_stage2_unit3_conv1", 
      "attrs": {
        "cudnn_off": "False", 
        "cudnn_tune": "limited_workspace", 
        "dilate": "(1,1)", 
        "kernel": "(1,1)", 
        "no_bias": "True", 
        "num_filter": "128", 
        "num_group": "1", 
        "pad": "(0,0)", 
        "stride": "(1,1)", 
        "workspace": "512"
      }, 
      "inputs": [[269, 0, 0], [270, 0, 0], [269, 1, 0], [269, 2, 0], [271, 0, 0], [272, 0, 0]]
    }, 
    {
      "op": "_contrib_requantize", 
      "name": "requantize_stage2_unit3_conv1", 
      "inputs": [[273, 0, 0], [273, 1, 0], [273, 2, 0]]
    }, 
    {
      "op": "_contrib_dequantize", 
      "name": "stage2_unit3_conv1_dequantize", 
      "inputs": [[274, 0, 0], [274, 1, 0], [274, 2, 0]]
    }, 
    {
      "op": "null", 
      "name": "stage2_unit3_bn2_gamma", 
      "inputs": []
    }, 
    {
      "op": "null", 
      "name": "stage2_unit3_bn2_beta", 
      "inputs": []
    }, 
    {
      "op": "null", 
      "name": "stage2_unit3_bn2_moving_mean", 
      "attrs": {
        "__init__": "[\"zero\", {}]", 
        "eps": "2e-05", 
        "fix_gamma": "False", 
        "momentum": "0.9", 
        "use_global_stats": "False"
      }, 
      "inputs": []
    }, 
    {
      "op": "null", 
      "name": "stage2_unit3_bn2_moving_var", 
      "attrs": {
        "__init__": "[\"one\", {}]", 
        "eps": "2e-05", 
        "fix_gamma": "False", 
        "momentum": "0.9", 
        "use_global_stats": "False"
      }, 
      "inputs": []
    }, 
    {
      "op": "BatchNorm", 
      "name": "stage2_unit3_bn2", 
      "attrs": {
        "eps": "2e-05", 
        "fix_gamma": "False", 
        "momentum": "0.9", 
        "use_global_stats": "False"
      }, 
      "inputs": [[275, 0, 0], [276, 0, 0], [277, 0, 0], [278, 0, 0], [279, 0, 0]]
    }, 
    {
      "op": "Activation", 
      "name": "stage2_unit3_relu2", 
      "attrs": {"act_type": "relu"}, 
      "inputs": [[280, 0, 0]]
    }, 
    {
      "op": "min", 
      "name": "stage2_unit3_relu2_min", 
      "inputs": [[281, 0, 0]]
    }, 
    {
      "op": "max", 
      "name": "stage2_unit3_relu2_max", 
      "inputs": [[281, 0, 0]]
    }, 
    {
      "op": "_contrib_quantize", 
      "name": "stage2_unit3_relu2_quantize", 
      "attrs": {"out_type": "uint8"}, 
      "inputs": [[281, 0, 0], [282, 0, 0], [283, 0, 0]]
    }, 
    {
      "op": "null", 
      "name": "stage2_unit3_conv2_weight_quantize", 
      "inputs": []
    }, 
    {
      "op": "null", 
      "name": "stage2_unit3_conv2_weight_quantize_min", 
      "inputs": []
    }, 
    {
      "op": "null", 
      "name": "stage2_unit3_conv2_weight_quantize_max", 
      "inputs": []
    }, 
    {
      "op": "_contrib_quantized_conv", 
      "name": "quantized_stage2_unit3_conv2", 
      "attrs": {
        "cudnn_off": "False", 
        "cudnn_tune": "limited_workspace", 
        "dilate": "(1,1)", 
        "kernel": "(3,3)", 
        "no_bias": "True", 
        "num_filter": "128", 
        "num_group": "1", 
        "pad": "(1,1)", 
        "stride": "(1,1)", 
        "workspace": "512"
      }, 
      "inputs": [[284, 0, 0], [285, 0, 0], [284, 1, 0], [284, 2, 0], [286, 0, 0], [287, 0, 0]]
    }, 
    {
      "op": "_contrib_requantize", 
      "name": "requantize_stage2_unit3_conv2", 
      "inputs": [[288, 0, 0], [288, 1, 0], [288, 2, 0]]
    }, 
    {
      "op": "_contrib_dequantize", 
      "name": "stage2_unit3_conv2_dequantize", 
      "inputs": [[289, 0, 0], [289, 1, 0], [289, 2, 0]]
    }, 
    {
      "op": "null", 
      "name": "stage2_unit3_bn3_gamma", 
      "inputs": []
    }, 
    {
      "op": "null", 
      "name": "stage2_unit3_bn3_beta", 
      "inputs": []
    }, 
    {
      "op": "null", 
      "name": "stage2_unit3_bn3_moving_mean", 
      "attrs": {
        "__init__": "[\"zero\", {}]", 
        "eps": "2e-05", 
        "fix_gamma": "False", 
        "momentum": "0.9", 
        "use_global_stats": "False"
      }, 
      "inputs": []
    }, 
    {
      "op": "null", 
      "name": "stage2_unit3_bn3_moving_var", 
      "attrs": {
        "__init__": "[\"one\", {}]", 
        "eps": "2e-05", 
        "fix_gamma": "False", 
        "momentum": "0.9", 
        "use_global_stats": "False"
      }, 
      "inputs": []
    }, 
    {
      "op": "BatchNorm", 
      "name": "stage2_unit3_bn3", 
      "attrs": {
        "eps": "2e-05", 
        "fix_gamma": "False", 
        "momentum": "0.9", 
        "use_global_stats": "False"
      }, 
      "inputs": [[290, 0, 0], [291, 0, 0], [292, 0, 0], [293, 0, 0], [294, 0, 0]]
    }, 
    {
      "op": "Activation", 
      "name": "stage2_unit3_relu3", 
      "attrs": {"act_type": "relu"}, 
      "inputs": [[295, 0, 0]]
    }, 
    {
      "op": "min", 
      "name": "stage2_unit3_relu3_min", 
      "inputs": [[296, 0, 0]]
    }, 
    {
      "op": "max", 
      "name": "stage2_unit3_relu3_max", 
      "inputs": [[296, 0, 0]]
    }, 
    {
      "op": "_contrib_quantize", 
      "name": "stage2_unit3_relu3_quantize", 
      "attrs": {"out_type": "uint8"}, 
      "inputs": [[296, 0, 0], [297, 0, 0], [298, 0, 0]]
    }, 
    {
      "op": "null", 
      "name": "stage2_unit3_conv3_weight_quantize", 
      "inputs": []
    }, 
    {
      "op": "null", 
      "name": "stage2_unit3_conv3_weight_quantize_min", 
      "inputs": []
    }, 
    {
      "op": "null", 
      "name": "stage2_unit3_conv3_weight_quantize_max", 
      "inputs": []
    }, 
    {
      "op": "_contrib_quantized_conv", 
      "name": "quantized_stage2_unit3_conv3", 
      "attrs": {
        "cudnn_off": "False", 
        "cudnn_tune": "limited_workspace", 
        "dilate": "(1,1)", 
        "kernel": "(1,1)", 
        "no_bias": "True", 
        "num_filter": "512", 
        "num_group": "1", 
        "pad": "(0,0)", 
        "stride": "(1,1)", 
        "workspace": "512"
      }, 
      "inputs": [[299, 0, 0], [300, 0, 0], [299, 1, 0], [299, 2, 0], [301, 0, 0], [302, 0, 0]]
    }, 
    {
      "op": "_contrib_requantize", 
      "name": "requantize_stage2_unit3_conv3", 
      "inputs": [[303, 0, 0], [303, 1, 0], [303, 2, 0]]
    }, 
    {
      "op": "_contrib_dequantize", 
      "name": "stage2_unit3_conv3_dequantize", 
      "inputs": [[304, 0, 0], [304, 1, 0], [304, 2, 0]]
    }, 
    {
      "op": "elemwise_add", 
      "name": "_plus5", 
      "inputs": [[305, 0, 0], [260, 0, 0]]
    }, 
    {
      "op": "null", 
      "name": "stage2_unit4_bn1_gamma", 
      "inputs": []
    }, 
    {
      "op": "null", 
      "name": "stage2_unit4_bn1_beta", 
      "inputs": []
    }, 
    {
      "op": "null", 
      "name": "stage2_unit4_bn1_moving_mean", 
      "attrs": {
        "__init__": "[\"zero\", {}]", 
        "eps": "2e-05", 
        "fix_gamma": "False", 
        "momentum": "0.9", 
        "use_global_stats": "False"
      }, 
      "inputs": []
    }, 
    {
      "op": "null", 
      "name": "stage2_unit4_bn1_moving_var", 
      "attrs": {
        "__init__": "[\"one\", {}]", 
        "eps": "2e-05", 
        "fix_gamma": "False", 
        "momentum": "0.9", 
        "use_global_stats": "False"
      }, 
      "inputs": []
    }, 
    {
      "op": "BatchNorm", 
      "name": "stage2_unit4_bn1", 
      "attrs": {
        "eps": "2e-05", 
        "fix_gamma": "False", 
        "momentum": "0.9", 
        "use_global_stats": "False"
      }, 
      "inputs": [[306, 0, 0], [307, 0, 0], [308, 0, 0], [309, 0, 0], [310, 0, 0]]
    }, 
    {
      "op": "Activation", 
      "name": "stage2_unit4_relu1", 
      "attrs": {"act_type": "relu"}, 
      "inputs": [[311, 0, 0]]
    }, 
    {
      "op": "min", 
      "name": "stage2_unit4_relu1_min", 
      "inputs": [[312, 0, 0]]
    }, 
    {
      "op": "max", 
      "name": "stage2_unit4_relu1_max", 
      "inputs": [[312, 0, 0]]
    }, 
    {
      "op": "_contrib_quantize", 
      "name": "stage2_unit4_relu1_quantize", 
      "attrs": {"out_type": "uint8"}, 
      "inputs": [[312, 0, 0], [313, 0, 0], [314, 0, 0]]
    }, 
    {
      "op": "null", 
      "name": "stage2_unit4_conv1_weight_quantize", 
      "inputs": []
    }, 
    {
      "op": "null", 
      "name": "stage2_unit4_conv1_weight_quantize_min", 
      "inputs": []
    }, 
    {
      "op": "null", 
      "name": "stage2_unit4_conv1_weight_quantize_max", 
      "inputs": []
    }, 
    {
      "op": "_contrib_quantized_conv", 
      "name": "quantized_stage2_unit4_conv1", 
      "attrs": {
        "cudnn_off": "False", 
        "cudnn_tune": "limited_workspace", 
        "dilate": "(1,1)", 
        "kernel": "(1,1)", 
        "no_bias": "True", 
        "num_filter": "128", 
        "num_group": "1", 
        "pad": "(0,0)", 
        "stride": "(1,1)", 
        "workspace": "512"
      }, 
      "inputs": [[315, 0, 0], [316, 0, 0], [315, 1, 0], [315, 2, 0], [317, 0, 0], [318, 0, 0]]
    }, 
    {
      "op": "_contrib_requantize", 
      "name": "requantize_stage2_unit4_conv1", 
      "inputs": [[319, 0, 0], [319, 1, 0], [319, 2, 0]]
    }, 
    {
      "op": "_contrib_dequantize", 
      "name": "stage2_unit4_conv1_dequantize", 
      "inputs": [[320, 0, 0], [320, 1, 0], [320, 2, 0]]
    }, 
    {
      "op": "null", 
      "name": "stage2_unit4_bn2_gamma", 
      "inputs": []
    }, 
    {
      "op": "null", 
      "name": "stage2_unit4_bn2_beta", 
      "inputs": []
    }, 
    {
      "op": "null", 
      "name": "stage2_unit4_bn2_moving_mean", 
      "attrs": {
        "__init__": "[\"zero\", {}]", 
        "eps": "2e-05", 
        "fix_gamma": "False", 
        "momentum": "0.9", 
        "use_global_stats": "False"
      }, 
      "inputs": []
    }, 
    {
      "op": "null", 
      "name": "stage2_unit4_bn2_moving_var", 
      "attrs": {
        "__init__": "[\"one\", {}]", 
        "eps": "2e-05", 
        "fix_gamma": "False", 
        "momentum": "0.9", 
        "use_global_stats": "False"
      }, 
      "inputs": []
    }, 
    {
      "op": "BatchNorm", 
      "name": "stage2_unit4_bn2", 
      "attrs": {
        "eps": "2e-05", 
        "fix_gamma": "False", 
        "momentum": "0.9", 
        "use_global_stats": "False"
      }, 
      "inputs": [[321, 0, 0], [322, 0, 0], [323, 0, 0], [324, 0, 0], [325, 0, 0]]
    }, 
    {
      "op": "Activation", 
      "name": "stage2_unit4_relu2", 
      "attrs": {"act_type": "relu"}, 
      "inputs": [[326, 0, 0]]
    }, 
    {
      "op": "min", 
      "name": "stage2_unit4_relu2_min", 
      "inputs": [[327, 0, 0]]
    }, 
    {
      "op": "max", 
      "name": "stage2_unit4_relu2_max", 
      "inputs": [[327, 0, 0]]
    }, 
    {
      "op": "_contrib_quantize", 
      "name": "stage2_unit4_relu2_quantize", 
      "attrs": {"out_type": "uint8"}, 
      "inputs": [[327, 0, 0], [328, 0, 0], [329, 0, 0]]
    }, 
    {
      "op": "null", 
      "name": "stage2_unit4_conv2_weight_quantize", 
      "inputs": []
    }, 
    {
      "op": "null", 
      "name": "stage2_unit4_conv2_weight_quantize_min", 
      "inputs": []
    }, 
    {
      "op": "null", 
      "name": "stage2_unit4_conv2_weight_quantize_max", 
      "inputs": []
    }, 
    {
      "op": "_contrib_quantized_conv", 
      "name": "quantized_stage2_unit4_conv2", 
      "attrs": {
        "cudnn_off": "False", 
        "cudnn_tune": "limited_workspace", 
        "dilate": "(1,1)", 
        "kernel": "(3,3)", 
        "no_bias": "True", 
        "num_filter": "128", 
        "num_group": "1", 
        "pad": "(1,1)", 
        "stride": "(1,1)", 
        "workspace": "512"
      }, 
      "inputs": [[330, 0, 0], [331, 0, 0], [330, 1, 0], [330, 2, 0], [332, 0, 0], [333, 0, 0]]
    }, 
    {
      "op": "_contrib_requantize", 
      "name": "requantize_stage2_unit4_conv2", 
      "inputs": [[334, 0, 0], [334, 1, 0], [334, 2, 0]]
    }, 
    {
      "op": "_contrib_dequantize", 
      "name": "stage2_unit4_conv2_dequantize", 
      "inputs": [[335, 0, 0], [335, 1, 0], [335, 2, 0]]
    }, 
    {
      "op": "null", 
      "name": "stage2_unit4_bn3_gamma", 
      "inputs": []
    }, 
    {
      "op": "null", 
      "name": "stage2_unit4_bn3_beta", 
      "inputs": []
    }, 
    {
      "op": "null", 
      "name": "stage2_unit4_bn3_moving_mean", 
      "attrs": {
        "__init__": "[\"zero\", {}]", 
        "eps": "2e-05", 
        "fix_gamma": "False", 
        "momentum": "0.9", 
        "use_global_stats": "False"
      }, 
      "inputs": []
    }, 
    {
      "op": "null", 
      "name": "stage2_unit4_bn3_moving_var", 
      "attrs": {
        "__init__": "[\"one\", {}]", 
        "eps": "2e-05", 
        "fix_gamma": "False", 
        "momentum": "0.9", 
        "use_global_stats": "False"
      }, 
      "inputs": []
    }, 
    {
      "op": "BatchNorm", 
      "name": "stage2_unit4_bn3", 
      "attrs": {
        "eps": "2e-05", 
        "fix_gamma": "False", 
        "momentum": "0.9", 
        "use_global_stats": "False"
      }, 
      "inputs": [[336, 0, 0], [337, 0, 0], [338, 0, 0], [339, 0, 0], [340, 0, 0]]
    }, 
    {
      "op": "Activation", 
      "name": "stage2_unit4_relu3", 
      "attrs": {"act_type": "relu"}, 
      "inputs": [[341, 0, 0]]
    }, 
    {
      "op": "min", 
      "name": "stage2_unit4_relu3_min", 
      "inputs": [[342, 0, 0]]
    }, 
    {
      "op": "max", 
      "name": "stage2_unit4_relu3_max", 
      "inputs": [[342, 0, 0]]
    }, 
    {
      "op": "_contrib_quantize", 
      "name": "stage2_unit4_relu3_quantize", 
      "attrs": {"out_type": "uint8"}, 
      "inputs": [[342, 0, 0], [343, 0, 0], [344, 0, 0]]
    }, 
    {
      "op": "null", 
      "name": "stage2_unit4_conv3_weight_quantize", 
      "inputs": []
    }, 
    {
      "op": "null", 
      "name": "stage2_unit4_conv3_weight_quantize_min", 
      "inputs": []
    }, 
    {
      "op": "null", 
      "name": "stage2_unit4_conv3_weight_quantize_max", 
      "inputs": []
    }, 
    {
      "op": "_contrib_quantized_conv", 
      "name": "quantized_stage2_unit4_conv3", 
      "attrs": {
        "cudnn_off": "False", 
        "cudnn_tune": "limited_workspace", 
        "dilate": "(1,1)", 
        "kernel": "(1,1)", 
        "no_bias": "True", 
        "num_filter": "512", 
        "num_group": "1", 
        "pad": "(0,0)", 
        "stride": "(1,1)", 
        "workspace": "512"
      }, 
      "inputs": [[345, 0, 0], [346, 0, 0], [345, 1, 0], [345, 2, 0], [347, 0, 0], [348, 0, 0]]
    }, 
    {
      "op": "_contrib_requantize", 
      "name": "requantize_stage2_unit4_conv3", 
      "inputs": [[349, 0, 0], [349, 1, 0], [349, 2, 0]]
    }, 
    {
      "op": "_contrib_dequantize", 
      "name": "stage2_unit4_conv3_dequantize", 
      "inputs": [[350, 0, 0], [350, 1, 0], [350, 2, 0]]
    }, 
    {
      "op": "elemwise_add", 
      "name": "_plus6", 
      "inputs": [[351, 0, 0], [306, 0, 0]]
    }, 
    {
      "op": "null", 
      "name": "stage2_unit5_bn1_gamma", 
      "inputs": []
    }, 
    {
      "op": "null", 
      "name": "stage2_unit5_bn1_beta", 
      "inputs": []
    }, 
    {
      "op": "null", 
      "name": "stage2_unit5_bn1_moving_mean", 
      "attrs": {
        "__init__": "[\"zero\", {}]", 
        "eps": "2e-05", 
        "fix_gamma": "False", 
        "momentum": "0.9", 
        "use_global_stats": "False"
      }, 
      "inputs": []
    }, 
    {
      "op": "null", 
      "name": "stage2_unit5_bn1_moving_var", 
      "attrs": {
        "__init__": "[\"one\", {}]", 
        "eps": "2e-05", 
        "fix_gamma": "False", 
        "momentum": "0.9", 
        "use_global_stats": "False"
      }, 
      "inputs": []
    }, 
    {
      "op": "BatchNorm", 
      "name": "stage2_unit5_bn1", 
      "attrs": {
        "eps": "2e-05", 
        "fix_gamma": "False", 
        "momentum": "0.9", 
        "use_global_stats": "False"
      }, 
      "inputs": [[352, 0, 0], [353, 0, 0], [354, 0, 0], [355, 0, 0], [356, 0, 0]]
    }, 
    {
      "op": "Activation", 
      "name": "stage2_unit5_relu1", 
      "attrs": {"act_type": "relu"}, 
      "inputs": [[357, 0, 0]]
    }, 
    {
      "op": "min", 
      "name": "stage2_unit5_relu1_min", 
      "inputs": [[358, 0, 0]]
    }, 
    {
      "op": "max", 
      "name": "stage2_unit5_relu1_max", 
      "inputs": [[358, 0, 0]]
    }, 
    {
      "op": "_contrib_quantize", 
      "name": "stage2_unit5_relu1_quantize", 
      "attrs": {"out_type": "uint8"}, 
      "inputs": [[358, 0, 0], [359, 0, 0], [360, 0, 0]]
    }, 
    {
      "op": "null", 
      "name": "stage2_unit5_conv1_weight_quantize", 
      "inputs": []
    }, 
    {
      "op": "null", 
      "name": "stage2_unit5_conv1_weight_quantize_min", 
      "inputs": []
    }, 
    {
      "op": "null", 
      "name": "stage2_unit5_conv1_weight_quantize_max", 
      "inputs": []
    }, 
    {
      "op": "_contrib_quantized_conv", 
      "name": "quantized_stage2_unit5_conv1", 
      "attrs": {
        "cudnn_off": "False", 
        "cudnn_tune": "limited_workspace", 
        "dilate": "(1,1)", 
        "kernel": "(1,1)", 
        "no_bias": "True", 
        "num_filter": "128", 
        "num_group": "1", 
        "pad": "(0,0)", 
        "stride": "(1,1)", 
        "workspace": "512"
      }, 
      "inputs": [[361, 0, 0], [362, 0, 0], [361, 1, 0], [361, 2, 0], [363, 0, 0], [364, 0, 0]]
    }, 
    {
      "op": "_contrib_requantize", 
      "name": "requantize_stage2_unit5_conv1", 
      "inputs": [[365, 0, 0], [365, 1, 0], [365, 2, 0]]
    }, 
    {
      "op": "_contrib_dequantize", 
      "name": "stage2_unit5_conv1_dequantize", 
      "inputs": [[366, 0, 0], [366, 1, 0], [366, 2, 0]]
    }, 
    {
      "op": "null", 
      "name": "stage2_unit5_bn2_gamma", 
      "inputs": []
    }, 
    {
      "op": "null", 
      "name": "stage2_unit5_bn2_beta", 
      "inputs": []
    }, 
    {
      "op": "null", 
      "name": "stage2_unit5_bn2_moving_mean", 
      "attrs": {
        "__init__": "[\"zero\", {}]", 
        "eps": "2e-05", 
        "fix_gamma": "False", 
        "momentum": "0.9", 
        "use_global_stats": "False"
      }, 
      "inputs": []
    }, 
    {
      "op": "null", 
      "name": "stage2_unit5_bn2_moving_var", 
      "attrs": {
        "__init__": "[\"one\", {}]", 
        "eps": "2e-05", 
        "fix_gamma": "False", 
        "momentum": "0.9", 
        "use_global_stats": "False"
      }, 
      "inputs": []
    }, 
    {
      "op": "BatchNorm", 
      "name": "stage2_unit5_bn2", 
      "attrs": {
        "eps": "2e-05", 
        "fix_gamma": "False", 
        "momentum": "0.9", 
        "use_global_stats": "False"
      }, 
      "inputs": [[367, 0, 0], [368, 0, 0], [369, 0, 0], [370, 0, 0], [371, 0, 0]]
    }, 
    {
      "op": "Activation", 
      "name": "stage2_unit5_relu2", 
      "attrs": {"act_type": "relu"}, 
      "inputs": [[372, 0, 0]]
    }, 
    {
      "op": "min", 
      "name": "stage2_unit5_relu2_min", 
      "inputs": [[373, 0, 0]]
    }, 
    {
      "op": "max", 
      "name": "stage2_unit5_relu2_max", 
      "inputs": [[373, 0, 0]]
    }, 
    {
      "op": "_contrib_quantize", 
      "name": "stage2_unit5_relu2_quantize", 
      "attrs": {"out_type": "uint8"}, 
      "inputs": [[373, 0, 0], [374, 0, 0], [375, 0, 0]]
    }, 
    {
      "op": "null", 
      "name": "stage2_unit5_conv2_weight_quantize", 
      "inputs": []
    }, 
    {
      "op": "null", 
      "name": "stage2_unit5_conv2_weight_quantize_min", 
      "inputs": []
    }, 
    {
      "op": "null", 
      "name": "stage2_unit5_conv2_weight_quantize_max", 
      "inputs": []
    }, 
    {
      "op": "_contrib_quantized_conv", 
      "name": "quantized_stage2_unit5_conv2", 
      "attrs": {
        "cudnn_off": "False", 
        "cudnn_tune": "limited_workspace", 
        "dilate": "(1,1)", 
        "kernel": "(3,3)", 
        "no_bias": "True", 
        "num_filter": "128", 
        "num_group": "1", 
        "pad": "(1,1)", 
        "stride": "(1,1)", 
        "workspace": "512"
      }, 
      "inputs": [[376, 0, 0], [377, 0, 0], [376, 1, 0], [376, 2, 0], [378, 0, 0], [379, 0, 0]]
    }, 
    {
      "op": "_contrib_requantize", 
      "name": "requantize_stage2_unit5_conv2", 
      "inputs": [[380, 0, 0], [380, 1, 0], [380, 2, 0]]
    }, 
    {
      "op": "_contrib_dequantize", 
      "name": "stage2_unit5_conv2_dequantize", 
      "inputs": [[381, 0, 0], [381, 1, 0], [381, 2, 0]]
    }, 
    {
      "op": "null", 
      "name": "stage2_unit5_bn3_gamma", 
      "inputs": []
    }, 
    {
      "op": "null", 
      "name": "stage2_unit5_bn3_beta", 
      "inputs": []
    }, 
    {
      "op": "null", 
      "name": "stage2_unit5_bn3_moving_mean", 
      "attrs": {
        "__init__": "[\"zero\", {}]", 
        "eps": "2e-05", 
        "fix_gamma": "False", 
        "momentum": "0.9", 
        "use_global_stats": "False"
      }, 
      "inputs": []
    }, 
    {
      "op": "null", 
      "name": "stage2_unit5_bn3_moving_var", 
      "attrs": {
        "__init__": "[\"one\", {}]", 
        "eps": "2e-05", 
        "fix_gamma": "False", 
        "momentum": "0.9", 
        "use_global_stats": "False"
      }, 
      "inputs": []
    }, 
    {
      "op": "BatchNorm", 
      "name": "stage2_unit5_bn3", 
      "attrs": {
        "eps": "2e-05", 
        "fix_gamma": "False", 
        "momentum": "0.9", 
        "use_global_stats": "False"
      }, 
      "inputs": [[382, 0, 0], [383, 0, 0], [384, 0, 0], [385, 0, 0], [386, 0, 0]]
    }, 
    {
      "op": "Activation", 
      "name": "stage2_unit5_relu3", 
      "attrs": {"act_type": "relu"}, 
      "inputs": [[387, 0, 0]]
    }, 
    {
      "op": "min", 
      "name": "stage2_unit5_relu3_min", 
      "inputs": [[388, 0, 0]]
    }, 
    {
      "op": "max", 
      "name": "stage2_unit5_relu3_max", 
      "inputs": [[388, 0, 0]]
    }, 
    {
      "op": "_contrib_quantize", 
      "name": "stage2_unit5_relu3_quantize", 
      "attrs": {"out_type": "uint8"}, 
      "inputs": [[388, 0, 0], [389, 0, 0], [390, 0, 0]]
    }, 
    {
      "op": "null", 
      "name": "stage2_unit5_conv3_weight_quantize", 
      "inputs": []
    }, 
    {
      "op": "null", 
      "name": "stage2_unit5_conv3_weight_quantize_min", 
      "inputs": []
    }, 
    {
      "op": "null", 
      "name": "stage2_unit5_conv3_weight_quantize_max", 
      "inputs": []
    }, 
    {
      "op": "_contrib_quantized_conv", 
      "name": "quantized_stage2_unit5_conv3", 
      "attrs": {
        "cudnn_off": "False", 
        "cudnn_tune": "limited_workspace", 
        "dilate": "(1,1)", 
        "kernel": "(1,1)", 
        "no_bias": "True", 
        "num_filter": "512", 
        "num_group": "1", 
        "pad": "(0,0)", 
        "stride": "(1,1)", 
        "workspace": "512"
      }, 
      "inputs": [[391, 0, 0], [392, 0, 0], [391, 1, 0], [391, 2, 0], [393, 0, 0], [394, 0, 0]]
    }, 
    {
      "op": "_contrib_requantize", 
      "name": "requantize_stage2_unit5_conv3", 
      "inputs": [[395, 0, 0], [395, 1, 0], [395, 2, 0]]
    }, 
    {
      "op": "_contrib_dequantize", 
      "name": "stage2_unit5_conv3_dequantize", 
      "inputs": [[396, 0, 0], [396, 1, 0], [396, 2, 0]]
    }, 
    {
      "op": "elemwise_add", 
      "name": "_plus7", 
      "inputs": [[397, 0, 0], [352, 0, 0]]
    }, 
    {
      "op": "null", 
      "name": "stage2_unit6_bn1_gamma", 
      "inputs": []
    }, 
    {
      "op": "null", 
      "name": "stage2_unit6_bn1_beta", 
      "inputs": []
    }, 
    {
      "op": "null", 
      "name": "stage2_unit6_bn1_moving_mean", 
      "attrs": {
        "__init__": "[\"zero\", {}]", 
        "eps": "2e-05", 
        "fix_gamma": "False", 
        "momentum": "0.9", 
        "use_global_stats": "False"
      }, 
      "inputs": []
    }, 
    {
      "op": "null", 
      "name": "stage2_unit6_bn1_moving_var", 
      "attrs": {
        "__init__": "[\"one\", {}]", 
        "eps": "2e-05", 
        "fix_gamma": "False", 
        "momentum": "0.9", 
        "use_global_stats": "False"
      }, 
      "inputs": []
    }, 
    {
      "op": "BatchNorm", 
      "name": "stage2_unit6_bn1", 
      "attrs": {
        "eps": "2e-05", 
        "fix_gamma": "False", 
        "momentum": "0.9", 
        "use_global_stats": "False"
      }, 
      "inputs": [[398, 0, 0], [399, 0, 0], [400, 0, 0], [401, 0, 0], [402, 0, 0]]
    }, 
    {
      "op": "Activation", 
      "name": "stage2_unit6_relu1", 
      "attrs": {"act_type": "relu"}, 
      "inputs": [[403, 0, 0]]
    }, 
    {
      "op": "min", 
      "name": "stage2_unit6_relu1_min", 
      "inputs": [[404, 0, 0]]
    }, 
    {
      "op": "max", 
      "name": "stage2_unit6_relu1_max", 
      "inputs": [[404, 0, 0]]
    }, 
    {
      "op": "_contrib_quantize", 
      "name": "stage2_unit6_relu1_quantize", 
      "attrs": {"out_type": "uint8"}, 
      "inputs": [[404, 0, 0], [405, 0, 0], [406, 0, 0]]
    }, 
    {
      "op": "null", 
      "name": "stage2_unit6_conv1_weight_quantize", 
      "inputs": []
    }, 
    {
      "op": "null", 
      "name": "stage2_unit6_conv1_weight_quantize_min", 
      "inputs": []
    }, 
    {
      "op": "null", 
      "name": "stage2_unit6_conv1_weight_quantize_max", 
      "inputs": []
    }, 
    {
      "op": "_contrib_quantized_conv", 
      "name": "quantized_stage2_unit6_conv1", 
      "attrs": {
        "cudnn_off": "False", 
        "cudnn_tune": "limited_workspace", 
        "dilate": "(1,1)", 
        "kernel": "(1,1)", 
        "no_bias": "True", 
        "num_filter": "128", 
        "num_group": "1", 
        "pad": "(0,0)", 
        "stride": "(1,1)", 
        "workspace": "512"
      }, 
      "inputs": [[407, 0, 0], [408, 0, 0], [407, 1, 0], [407, 2, 0], [409, 0, 0], [410, 0, 0]]
    }, 
    {
      "op": "_contrib_requantize", 
      "name": "requantize_stage2_unit6_conv1", 
      "inputs": [[411, 0, 0], [411, 1, 0], [411, 2, 0]]
    }, 
    {
      "op": "_contrib_dequantize", 
      "name": "stage2_unit6_conv1_dequantize", 
      "inputs": [[412, 0, 0], [412, 1, 0], [412, 2, 0]]
    }, 
    {
      "op": "null", 
      "name": "stage2_unit6_bn2_gamma", 
      "inputs": []
    }, 
    {
      "op": "null", 
      "name": "stage2_unit6_bn2_beta", 
      "inputs": []
    }, 
    {
      "op": "null", 
      "name": "stage2_unit6_bn2_moving_mean", 
      "attrs": {
        "__init__": "[\"zero\", {}]", 
        "eps": "2e-05", 
        "fix_gamma": "False", 
        "momentum": "0.9", 
        "use_global_stats": "False"
      }, 
      "inputs": []
    }, 
    {
      "op": "null", 
      "name": "stage2_unit6_bn2_moving_var", 
      "attrs": {
        "__init__": "[\"one\", {}]", 
        "eps": "2e-05", 
        "fix_gamma": "False", 
        "momentum": "0.9", 
        "use_global_stats": "False"
      }, 
      "inputs": []
    }, 
    {
      "op": "BatchNorm", 
      "name": "stage2_unit6_bn2", 
      "attrs": {
        "eps": "2e-05", 
        "fix_gamma": "False", 
        "momentum": "0.9", 
        "use_global_stats": "False"
      }, 
      "inputs": [[413, 0, 0], [414, 0, 0], [415, 0, 0], [416, 0, 0], [417, 0, 0]]
    }, 
    {
      "op": "Activation", 
      "name": "stage2_unit6_relu2", 
      "attrs": {"act_type": "relu"}, 
      "inputs": [[418, 0, 0]]
    }, 
    {
      "op": "min", 
      "name": "stage2_unit6_relu2_min", 
      "inputs": [[419, 0, 0]]
    }, 
    {
      "op": "max", 
      "name": "stage2_unit6_relu2_max", 
      "inputs": [[419, 0, 0]]
    }, 
    {
      "op": "_contrib_quantize", 
      "name": "stage2_unit6_relu2_quantize", 
      "attrs": {"out_type": "uint8"}, 
      "inputs": [[419, 0, 0], [420, 0, 0], [421, 0, 0]]
    }, 
    {
      "op": "null", 
      "name": "stage2_unit6_conv2_weight_quantize", 
      "inputs": []
    }, 
    {
      "op": "null", 
      "name": "stage2_unit6_conv2_weight_quantize_min", 
      "inputs": []
    }, 
    {
      "op": "null", 
      "name": "stage2_unit6_conv2_weight_quantize_max", 
      "inputs": []
    }, 
    {
      "op": "_contrib_quantized_conv", 
      "name": "quantized_stage2_unit6_conv2", 
      "attrs": {
        "cudnn_off": "False", 
        "cudnn_tune": "limited_workspace", 
        "dilate": "(1,1)", 
        "kernel": "(3,3)", 
        "no_bias": "True", 
        "num_filter": "128", 
        "num_group": "1", 
        "pad": "(1,1)", 
        "stride": "(1,1)", 
        "workspace": "512"
      }, 
      "inputs": [[422, 0, 0], [423, 0, 0], [422, 1, 0], [422, 2, 0], [424, 0, 0], [425, 0, 0]]
    }, 
    {
      "op": "_contrib_requantize", 
      "name": "requantize_stage2_unit6_conv2", 
      "inputs": [[426, 0, 0], [426, 1, 0], [426, 2, 0]]
    }, 
    {
      "op": "_contrib_dequantize", 
      "name": "stage2_unit6_conv2_dequantize", 
      "inputs": [[427, 0, 0], [427, 1, 0], [427, 2, 0]]
    }, 
    {
      "op": "null", 
      "name": "stage2_unit6_bn3_gamma", 
      "inputs": []
    }, 
    {
      "op": "null", 
      "name": "stage2_unit6_bn3_beta", 
      "inputs": []
    }, 
    {
      "op": "null", 
      "name": "stage2_unit6_bn3_moving_mean", 
      "attrs": {
        "__init__": "[\"zero\", {}]", 
        "eps": "2e-05", 
        "fix_gamma": "False", 
        "momentum": "0.9", 
        "use_global_stats": "False"
      }, 
      "inputs": []
    }, 
    {
      "op": "null", 
      "name": "stage2_unit6_bn3_moving_var", 
      "attrs": {
        "__init__": "[\"one\", {}]", 
        "eps": "2e-05", 
        "fix_gamma": "False", 
        "momentum": "0.9", 
        "use_global_stats": "False"
      }, 
      "inputs": []
    }, 
    {
      "op": "BatchNorm", 
      "name": "stage2_unit6_bn3", 
      "attrs": {
        "eps": "2e-05", 
        "fix_gamma": "False", 
        "momentum": "0.9", 
        "use_global_stats": "False"
      }, 
      "inputs": [[428, 0, 0], [429, 0, 0], [430, 0, 0], [431, 0, 0], [432, 0, 0]]
    }, 
    {
      "op": "Activation", 
      "name": "stage2_unit6_relu3", 
      "attrs": {"act_type": "relu"}, 
      "inputs": [[433, 0, 0]]
    }, 
    {
      "op": "min", 
      "name": "stage2_unit6_relu3_min", 
      "inputs": [[434, 0, 0]]
    }, 
    {
      "op": "max", 
      "name": "stage2_unit6_relu3_max", 
      "inputs": [[434, 0, 0]]
    }, 
    {
      "op": "_contrib_quantize", 
      "name": "stage2_unit6_relu3_quantize", 
      "attrs": {"out_type": "uint8"}, 
      "inputs": [[434, 0, 0], [435, 0, 0], [436, 0, 0]]
    }, 
    {
      "op": "null", 
      "name": "stage2_unit6_conv3_weight_quantize", 
      "inputs": []
    }, 
    {
      "op": "null", 
      "name": "stage2_unit6_conv3_weight_quantize_min", 
      "inputs": []
    }, 
    {
      "op": "null", 
      "name": "stage2_unit6_conv3_weight_quantize_max", 
      "inputs": []
    }, 
    {
      "op": "_contrib_quantized_conv", 
      "name": "quantized_stage2_unit6_conv3", 
      "attrs": {
        "cudnn_off": "False", 
        "cudnn_tune": "limited_workspace", 
        "dilate": "(1,1)", 
        "kernel": "(1,1)", 
        "no_bias": "True", 
        "num_filter": "512", 
        "num_group": "1", 
        "pad": "(0,0)", 
        "stride": "(1,1)", 
        "workspace": "512"
      }, 
      "inputs": [[437, 0, 0], [438, 0, 0], [437, 1, 0], [437, 2, 0], [439, 0, 0], [440, 0, 0]]
    }, 
    {
      "op": "_contrib_requantize", 
      "name": "requantize_stage2_unit6_conv3", 
      "inputs": [[441, 0, 0], [441, 1, 0], [441, 2, 0]]
    }, 
    {
      "op": "_contrib_dequantize", 
      "name": "stage2_unit6_conv3_dequantize", 
      "inputs": [[442, 0, 0], [442, 1, 0], [442, 2, 0]]
    }, 
    {
      "op": "elemwise_add", 
      "name": "_plus8", 
      "inputs": [[443, 0, 0], [398, 0, 0]]
    }, 
    {
      "op": "null", 
      "name": "stage2_unit7_bn1_gamma", 
      "inputs": []
    }, 
    {
      "op": "null", 
      "name": "stage2_unit7_bn1_beta", 
      "inputs": []
    }, 
    {
      "op": "null", 
      "name": "stage2_unit7_bn1_moving_mean", 
      "attrs": {
        "__init__": "[\"zero\", {}]", 
        "eps": "2e-05", 
        "fix_gamma": "False", 
        "momentum": "0.9", 
        "use_global_stats": "False"
      }, 
      "inputs": []
    }, 
    {
      "op": "null", 
      "name": "stage2_unit7_bn1_moving_var", 
      "attrs": {
        "__init__": "[\"one\", {}]", 
        "eps": "2e-05", 
        "fix_gamma": "False", 
        "momentum": "0.9", 
        "use_global_stats": "False"
      }, 
      "inputs": []
    }, 
    {
      "op": "BatchNorm", 
      "name": "stage2_unit7_bn1", 
      "attrs": {
        "eps": "2e-05", 
        "fix_gamma": "False", 
        "momentum": "0.9", 
        "use_global_stats": "False"
      }, 
      "inputs": [[444, 0, 0], [445, 0, 0], [446, 0, 0], [447, 0, 0], [448, 0, 0]]
    }, 
    {
      "op": "Activation", 
      "name": "stage2_unit7_relu1", 
      "attrs": {"act_type": "relu"}, 
      "inputs": [[449, 0, 0]]
    }, 
    {
      "op": "min", 
      "name": "stage2_unit7_relu1_min", 
      "inputs": [[450, 0, 0]]
    }, 
    {
      "op": "max", 
      "name": "stage2_unit7_relu1_max", 
      "inputs": [[450, 0, 0]]
    }, 
    {
      "op": "_contrib_quantize", 
      "name": "stage2_unit7_relu1_quantize", 
      "attrs": {"out_type": "uint8"}, 
      "inputs": [[450, 0, 0], [451, 0, 0], [452, 0, 0]]
    }, 
    {
      "op": "null", 
      "name": "stage2_unit7_conv1_weight_quantize", 
      "inputs": []
    }, 
    {
      "op": "null", 
      "name": "stage2_unit7_conv1_weight_quantize_min", 
      "inputs": []
    }, 
    {
      "op": "null", 
      "name": "stage2_unit7_conv1_weight_quantize_max", 
      "inputs": []
    }, 
    {
      "op": "_contrib_quantized_conv", 
      "name": "quantized_stage2_unit7_conv1", 
      "attrs": {
        "cudnn_off": "False", 
        "cudnn_tune": "limited_workspace", 
        "dilate": "(1,1)", 
        "kernel": "(1,1)", 
        "no_bias": "True", 
        "num_filter": "128", 
        "num_group": "1", 
        "pad": "(0,0)", 
        "stride": "(1,1)", 
        "workspace": "512"
      }, 
      "inputs": [[453, 0, 0], [454, 0, 0], [453, 1, 0], [453, 2, 0], [455, 0, 0], [456, 0, 0]]
    }, 
    {
      "op": "_contrib_requantize", 
      "name": "requantize_stage2_unit7_conv1", 
      "inputs": [[457, 0, 0], [457, 1, 0], [457, 2, 0]]
    }, 
    {
      "op": "_contrib_dequantize", 
      "name": "stage2_unit7_conv1_dequantize", 
      "inputs": [[458, 0, 0], [458, 1, 0], [458, 2, 0]]
    }, 
    {
      "op": "null", 
      "name": "stage2_unit7_bn2_gamma", 
      "inputs": []
    }, 
    {
      "op": "null", 
      "name": "stage2_unit7_bn2_beta", 
      "inputs": []
    }, 
    {
      "op": "null", 
      "name": "stage2_unit7_bn2_moving_mean", 
      "attrs": {
        "__init__": "[\"zero\", {}]", 
        "eps": "2e-05", 
        "fix_gamma": "False", 
        "momentum": "0.9", 
        "use_global_stats": "False"
      }, 
      "inputs": []
    }, 
    {
      "op": "null", 
      "name": "stage2_unit7_bn2_moving_var", 
      "attrs": {
        "__init__": "[\"one\", {}]", 
        "eps": "2e-05", 
        "fix_gamma": "False", 
        "momentum": "0.9", 
        "use_global_stats": "False"
      }, 
      "inputs": []
    }, 
    {
      "op": "BatchNorm", 
      "name": "stage2_unit7_bn2", 
      "attrs": {
        "eps": "2e-05", 
        "fix_gamma": "False", 
        "momentum": "0.9", 
        "use_global_stats": "False"
      }, 
      "inputs": [[459, 0, 0], [460, 0, 0], [461, 0, 0], [462, 0, 0], [463, 0, 0]]
    }, 
    {
      "op": "Activation", 
      "name": "stage2_unit7_relu2", 
      "attrs": {"act_type": "relu"}, 
      "inputs": [[464, 0, 0]]
    }, 
    {
      "op": "min", 
      "name": "stage2_unit7_relu2_min", 
      "inputs": [[465, 0, 0]]
    }, 
    {
      "op": "max", 
      "name": "stage2_unit7_relu2_max", 
      "inputs": [[465, 0, 0]]
    }, 
    {
      "op": "_contrib_quantize", 
      "name": "stage2_unit7_relu2_quantize", 
      "attrs": {"out_type": "uint8"}, 
      "inputs": [[465, 0, 0], [466, 0, 0], [467, 0, 0]]
    }, 
    {
      "op": "null", 
      "name": "stage2_unit7_conv2_weight_quantize", 
      "inputs": []
    }, 
    {
      "op": "null", 
      "name": "stage2_unit7_conv2_weight_quantize_min", 
      "inputs": []
    }, 
    {
      "op": "null", 
      "name": "stage2_unit7_conv2_weight_quantize_max", 
      "inputs": []
    }, 
    {
      "op": "_contrib_quantized_conv", 
      "name": "quantized_stage2_unit7_conv2", 
      "attrs": {
        "cudnn_off": "False", 
        "cudnn_tune": "limited_workspace", 
        "dilate": "(1,1)", 
        "kernel": "(3,3)", 
        "no_bias": "True", 
        "num_filter": "128", 
        "num_group": "1", 
        "pad": "(1,1)", 
        "stride": "(1,1)", 
        "workspace": "512"
      }, 
      "inputs": [[468, 0, 0], [469, 0, 0], [468, 1, 0], [468, 2, 0], [470, 0, 0], [471, 0, 0]]
    }, 
    {
      "op": "_contrib_requantize", 
      "name": "requantize_stage2_unit7_conv2", 
      "inputs": [[472, 0, 0], [472, 1, 0], [472, 2, 0]]
    }, 
    {
      "op": "_contrib_dequantize", 
      "name": "stage2_unit7_conv2_dequantize", 
      "inputs": [[473, 0, 0], [473, 1, 0], [473, 2, 0]]
    }, 
    {
      "op": "null", 
      "name": "stage2_unit7_bn3_gamma", 
      "inputs": []
    }, 
    {
      "op": "null", 
      "name": "stage2_unit7_bn3_beta", 
      "inputs": []
    }, 
    {
      "op": "null", 
      "name": "stage2_unit7_bn3_moving_mean", 
      "attrs": {
        "__init__": "[\"zero\", {}]", 
        "eps": "2e-05", 
        "fix_gamma": "False", 
        "momentum": "0.9", 
        "use_global_stats": "False"
      }, 
      "inputs": []
    }, 
    {
      "op": "null", 
      "name": "stage2_unit7_bn3_moving_var", 
      "attrs": {
        "__init__": "[\"one\", {}]", 
        "eps": "2e-05", 
        "fix_gamma": "False", 
        "momentum": "0.9", 
        "use_global_stats": "False"
      }, 
      "inputs": []
    }, 
    {
      "op": "BatchNorm", 
      "name": "stage2_unit7_bn3", 
      "attrs": {
        "eps": "2e-05", 
        "fix_gamma": "False", 
        "momentum": "0.9", 
        "use_global_stats": "False"
      }, 
      "inputs": [[474, 0, 0], [475, 0, 0], [476, 0, 0], [477, 0, 0], [478, 0, 0]]
    }, 
    {
      "op": "Activation", 
      "name": "stage2_unit7_relu3", 
      "attrs": {"act_type": "relu"}, 
      "inputs": [[479, 0, 0]]
    }, 
    {
      "op": "min", 
      "name": "stage2_unit7_relu3_min", 
      "inputs": [[480, 0, 0]]
    }, 
    {
      "op": "max", 
      "name": "stage2_unit7_relu3_max", 
      "inputs": [[480, 0, 0]]
    }, 
    {
      "op": "_contrib_quantize", 
      "name": "stage2_unit7_relu3_quantize", 
      "attrs": {"out_type": "uint8"}, 
      "inputs": [[480, 0, 0], [481, 0, 0], [482, 0, 0]]
    }, 
    {
      "op": "null", 
      "name": "stage2_unit7_conv3_weight_quantize", 
      "inputs": []
    }, 
    {
      "op": "null", 
      "name": "stage2_unit7_conv3_weight_quantize_min", 
      "inputs": []
    }, 
    {
      "op": "null", 
      "name": "stage2_unit7_conv3_weight_quantize_max", 
      "inputs": []
    }, 
    {
      "op": "_contrib_quantized_conv", 
      "name": "quantized_stage2_unit7_conv3", 
      "attrs": {
        "cudnn_off": "False", 
        "cudnn_tune": "limited_workspace", 
        "dilate": "(1,1)", 
        "kernel": "(1,1)", 
        "no_bias": "True", 
        "num_filter": "512", 
        "num_group": "1", 
        "pad": "(0,0)", 
        "stride": "(1,1)", 
        "workspace": "512"
      }, 
      "inputs": [[483, 0, 0], [484, 0, 0], [483, 1, 0], [483, 2, 0], [485, 0, 0], [486, 0, 0]]
    }, 
    {
      "op": "_contrib_requantize", 
      "name": "requantize_stage2_unit7_conv3", 
      "inputs": [[487, 0, 0], [487, 1, 0], [487, 2, 0]]
    }, 
    {
      "op": "_contrib_dequantize", 
      "name": "stage2_unit7_conv3_dequantize", 
      "inputs": [[488, 0, 0], [488, 1, 0], [488, 2, 0]]
    }, 
    {
      "op": "elemwise_add", 
      "name": "_plus9", 
      "inputs": [[489, 0, 0], [444, 0, 0]]
    }, 
    {
      "op": "null", 
      "name": "stage2_unit8_bn1_gamma", 
      "inputs": []
    }, 
    {
      "op": "null", 
      "name": "stage2_unit8_bn1_beta", 
      "inputs": []
    }, 
    {
      "op": "null", 
      "name": "stage2_unit8_bn1_moving_mean", 
      "attrs": {
        "__init__": "[\"zero\", {}]", 
        "eps": "2e-05", 
        "fix_gamma": "False", 
        "momentum": "0.9", 
        "use_global_stats": "False"
      }, 
      "inputs": []
    }, 
    {
      "op": "null", 
      "name": "stage2_unit8_bn1_moving_var", 
      "attrs": {
        "__init__": "[\"one\", {}]", 
        "eps": "2e-05", 
        "fix_gamma": "False", 
        "momentum": "0.9", 
        "use_global_stats": "False"
      }, 
      "inputs": []
    }, 
    {
      "op": "BatchNorm", 
      "name": "stage2_unit8_bn1", 
      "attrs": {
        "eps": "2e-05", 
        "fix_gamma": "False", 
        "momentum": "0.9", 
        "use_global_stats": "False"
      }, 
      "inputs": [[490, 0, 0], [491, 0, 0], [492, 0, 0], [493, 0, 0], [494, 0, 0]]
    }, 
    {
      "op": "Activation", 
      "name": "stage2_unit8_relu1", 
      "attrs": {"act_type": "relu"}, 
      "inputs": [[495, 0, 0]]
    }, 
    {
      "op": "min", 
      "name": "stage2_unit8_relu1_min", 
      "inputs": [[496, 0, 0]]
    }, 
    {
      "op": "max", 
      "name": "stage2_unit8_relu1_max", 
      "inputs": [[496, 0, 0]]
    }, 
    {
      "op": "_contrib_quantize", 
      "name": "stage2_unit8_relu1_quantize", 
      "attrs": {"out_type": "uint8"}, 
      "inputs": [[496, 0, 0], [497, 0, 0], [498, 0, 0]]
    }, 
    {
      "op": "null", 
      "name": "stage2_unit8_conv1_weight_quantize", 
      "inputs": []
    }, 
    {
      "op": "null", 
      "name": "stage2_unit8_conv1_weight_quantize_min", 
      "inputs": []
    }, 
    {
      "op": "null", 
      "name": "stage2_unit8_conv1_weight_quantize_max", 
      "inputs": []
    }, 
    {
      "op": "_contrib_quantized_conv", 
      "name": "quantized_stage2_unit8_conv1", 
      "attrs": {
        "cudnn_off": "False", 
        "cudnn_tune": "limited_workspace", 
        "dilate": "(1,1)", 
        "kernel": "(1,1)", 
        "no_bias": "True", 
        "num_filter": "128", 
        "num_group": "1", 
        "pad": "(0,0)", 
        "stride": "(1,1)", 
        "workspace": "512"
      }, 
      "inputs": [[499, 0, 0], [500, 0, 0], [499, 1, 0], [499, 2, 0], [501, 0, 0], [502, 0, 0]]
    }, 
    {
      "op": "_contrib_requantize", 
      "name": "requantize_stage2_unit8_conv1", 
      "inputs": [[503, 0, 0], [503, 1, 0], [503, 2, 0]]
    }, 
    {
      "op": "_contrib_dequantize", 
      "name": "stage2_unit8_conv1_dequantize", 
      "inputs": [[504, 0, 0], [504, 1, 0], [504, 2, 0]]
    }, 
    {
      "op": "null", 
      "name": "stage2_unit8_bn2_gamma", 
      "inputs": []
    }, 
    {
      "op": "null", 
      "name": "stage2_unit8_bn2_beta", 
      "inputs": []
    }, 
    {
      "op": "null", 
      "name": "stage2_unit8_bn2_moving_mean", 
      "attrs": {
        "__init__": "[\"zero\", {}]", 
        "eps": "2e-05", 
        "fix_gamma": "False", 
        "momentum": "0.9", 
        "use_global_stats": "False"
      }, 
      "inputs": []
    }, 
    {
      "op": "null", 
      "name": "stage2_unit8_bn2_moving_var", 
      "attrs": {
        "__init__": "[\"one\", {}]", 
        "eps": "2e-05", 
        "fix_gamma": "False", 
        "momentum": "0.9", 
        "use_global_stats": "False"
      }, 
      "inputs": []
    }, 
    {
      "op": "BatchNorm", 
      "name": "stage2_unit8_bn2", 
      "attrs": {
        "eps": "2e-05", 
        "fix_gamma": "False", 
        "momentum": "0.9", 
        "use_global_stats": "False"
      }, 
      "inputs": [[505, 0, 0], [506, 0, 0], [507, 0, 0], [508, 0, 0], [509, 0, 0]]
    }, 
    {
      "op": "Activation", 
      "name": "stage2_unit8_relu2", 
      "attrs": {"act_type": "relu"}, 
      "inputs": [[510, 0, 0]]
    }, 
    {
      "op": "min", 
      "name": "stage2_unit8_relu2_min", 
      "inputs": [[511, 0, 0]]
    }, 
    {
      "op": "max", 
      "name": "stage2_unit8_relu2_max", 
      "inputs": [[511, 0, 0]]
    }, 
    {
      "op": "_contrib_quantize", 
      "name": "stage2_unit8_relu2_quantize", 
      "attrs": {"out_type": "uint8"}, 
      "inputs": [[511, 0, 0], [512, 0, 0], [513, 0, 0]]
    }, 
    {
      "op": "null", 
      "name": "stage2_unit8_conv2_weight_quantize", 
      "inputs": []
    }, 
    {
      "op": "null", 
      "name": "stage2_unit8_conv2_weight_quantize_min", 
      "inputs": []
    }, 
    {
      "op": "null", 
      "name": "stage2_unit8_conv2_weight_quantize_max", 
      "inputs": []
    }, 
    {
      "op": "_contrib_quantized_conv", 
      "name": "quantized_stage2_unit8_conv2", 
      "attrs": {
        "cudnn_off": "False", 
        "cudnn_tune": "limited_workspace", 
        "dilate": "(1,1)", 
        "kernel": "(3,3)", 
        "no_bias": "True", 
        "num_filter": "128", 
        "num_group": "1", 
        "pad": "(1,1)", 
        "stride": "(1,1)", 
        "workspace": "512"
      }, 
      "inputs": [[514, 0, 0], [515, 0, 0], [514, 1, 0], [514, 2, 0], [516, 0, 0], [517, 0, 0]]
    }, 
    {
      "op": "_contrib_requantize", 
      "name": "requantize_stage2_unit8_conv2", 
      "inputs": [[518, 0, 0], [518, 1, 0], [518, 2, 0]]
    }, 
    {
      "op": "_contrib_dequantize", 
      "name": "stage2_unit8_conv2_dequantize", 
      "inputs": [[519, 0, 0], [519, 1, 0], [519, 2, 0]]
    }, 
    {
      "op": "null", 
      "name": "stage2_unit8_bn3_gamma", 
      "inputs": []
    }, 
    {
      "op": "null", 
      "name": "stage2_unit8_bn3_beta", 
      "inputs": []
    }, 
    {
      "op": "null", 
      "name": "stage2_unit8_bn3_moving_mean", 
      "attrs": {
        "__init__": "[\"zero\", {}]", 
        "eps": "2e-05", 
        "fix_gamma": "False", 
        "momentum": "0.9", 
        "use_global_stats": "False"
      }, 
      "inputs": []
    }, 
    {
      "op": "null", 
      "name": "stage2_unit8_bn3_moving_var", 
      "attrs": {
        "__init__": "[\"one\", {}]", 
        "eps": "2e-05", 
        "fix_gamma": "False", 
        "momentum": "0.9", 
        "use_global_stats": "False"
      }, 
      "inputs": []
    }, 
    {
      "op": "BatchNorm", 
      "name": "stage2_unit8_bn3", 
      "attrs": {
        "eps": "2e-05", 
        "fix_gamma": "False", 
        "momentum": "0.9", 
        "use_global_stats": "False"
      }, 
      "inputs": [[520, 0, 0], [521, 0, 0], [522, 0, 0], [523, 0, 0], [524, 0, 0]]
    }, 
    {
      "op": "Activation", 
      "name": "stage2_unit8_relu3", 
      "attrs": {"act_type": "relu"}, 
      "inputs": [[525, 0, 0]]
    }, 
    {
      "op": "min", 
      "name": "stage2_unit8_relu3_min", 
      "inputs": [[526, 0, 0]]
    }, 
    {
      "op": "max", 
      "name": "stage2_unit8_relu3_max", 
      "inputs": [[526, 0, 0]]
    }, 
    {
      "op": "_contrib_quantize", 
      "name": "stage2_unit8_relu3_quantize", 
      "attrs": {"out_type": "uint8"}, 
      "inputs": [[526, 0, 0], [527, 0, 0], [528, 0, 0]]
    }, 
    {
      "op": "null", 
      "name": "stage2_unit8_conv3_weight_quantize", 
      "inputs": []
    }, 
    {
      "op": "null", 
      "name": "stage2_unit8_conv3_weight_quantize_min", 
      "inputs": []
    }, 
    {
      "op": "null", 
      "name": "stage2_unit8_conv3_weight_quantize_max", 
      "inputs": []
    }, 
    {
      "op": "_contrib_quantized_conv", 
      "name": "quantized_stage2_unit8_conv3", 
      "attrs": {
        "cudnn_off": "False", 
        "cudnn_tune": "limited_workspace", 
        "dilate": "(1,1)", 
        "kernel": "(1,1)", 
        "no_bias": "True", 
        "num_filter": "512", 
        "num_group": "1", 
        "pad": "(0,0)", 
        "stride": "(1,1)", 
        "workspace": "512"
      }, 
      "inputs": [[529, 0, 0], [530, 0, 0], [529, 1, 0], [529, 2, 0], [531, 0, 0], [532, 0, 0]]
    }, 
    {
      "op": "_contrib_requantize", 
      "name": "requantize_stage2_unit8_conv3", 
      "inputs": [[533, 0, 0], [533, 1, 0], [533, 2, 0]]
    }, 
    {
      "op": "_contrib_dequantize", 
      "name": "stage2_unit8_conv3_dequantize", 
      "inputs": [[534, 0, 0], [534, 1, 0], [534, 2, 0]]
    }, 
    {
      "op": "elemwise_add", 
      "name": "_plus10", 
      "inputs": [[535, 0, 0], [490, 0, 0]]
    }, 
    {
      "op": "null", 
      "name": "stage3_unit1_bn1_gamma", 
      "inputs": []
    }, 
    {
      "op": "null", 
      "name": "stage3_unit1_bn1_beta", 
      "inputs": []
    }, 
    {
      "op": "null", 
      "name": "stage3_unit1_bn1_moving_mean", 
      "attrs": {
        "__init__": "[\"zero\", {}]", 
        "eps": "2e-05", 
        "fix_gamma": "False", 
        "momentum": "0.9", 
        "use_global_stats": "False"
      }, 
      "inputs": []
    }, 
    {
      "op": "null", 
      "name": "stage3_unit1_bn1_moving_var", 
      "attrs": {
        "__init__": "[\"one\", {}]", 
        "eps": "2e-05", 
        "fix_gamma": "False", 
        "momentum": "0.9", 
        "use_global_stats": "False"
      }, 
      "inputs": []
    }, 
    {
      "op": "BatchNorm", 
      "name": "stage3_unit1_bn1", 
      "attrs": {
        "eps": "2e-05", 
        "fix_gamma": "False", 
        "momentum": "0.9", 
        "use_global_stats": "False"
      }, 
      "inputs": [[536, 0, 0], [537, 0, 0], [538, 0, 0], [539, 0, 0], [540, 0, 0]]
    }, 
    {
      "op": "Activation", 
      "name": "stage3_unit1_relu1", 
      "attrs": {"act_type": "relu"}, 
      "inputs": [[541, 0, 0]]
    }, 
    {
      "op": "min", 
      "name": "stage3_unit1_relu1_min", 
      "inputs": [[542, 0, 0]]
    }, 
    {
      "op": "max", 
      "name": "stage3_unit1_relu1_max", 
      "inputs": [[542, 0, 0]]
    }, 
    {
      "op": "_contrib_quantize", 
      "name": "stage3_unit1_relu1_quantize", 
      "attrs": {"out_type": "uint8"}, 
      "inputs": [[542, 0, 0], [543, 0, 0], [544, 0, 0]]
    }, 
    {
      "op": "null", 
      "name": "stage3_unit1_conv1_weight_quantize", 
      "inputs": []
    }, 
    {
      "op": "null", 
      "name": "stage3_unit1_conv1_weight_quantize_min", 
      "inputs": []
    }, 
    {
      "op": "null", 
      "name": "stage3_unit1_conv1_weight_quantize_max", 
      "inputs": []
    }, 
    {
      "op": "_contrib_quantized_conv", 
      "name": "quantized_stage3_unit1_conv1", 
      "attrs": {
        "cudnn_off": "False", 
        "cudnn_tune": "limited_workspace", 
        "dilate": "(1,1)", 
        "kernel": "(1,1)", 
        "no_bias": "True", 
        "num_filter": "256", 
        "num_group": "1", 
        "pad": "(0,0)", 
        "stride": "(1,1)", 
        "workspace": "512"
      }, 
      "inputs": [[545, 0, 0], [546, 0, 0], [545, 1, 0], [545, 2, 0], [547, 0, 0], [548, 0, 0]]
    }, 
    {
      "op": "_contrib_requantize", 
      "name": "requantize_stage3_unit1_conv1", 
      "inputs": [[549, 0, 0], [549, 1, 0], [549, 2, 0]]
    }, 
    {
      "op": "_contrib_dequantize", 
      "name": "stage3_unit1_conv1_dequantize", 
      "inputs": [[550, 0, 0], [550, 1, 0], [550, 2, 0]]
    }, 
    {
      "op": "null", 
      "name": "stage3_unit1_bn2_gamma", 
      "inputs": []
    }, 
    {
      "op": "null", 
      "name": "stage3_unit1_bn2_beta", 
      "inputs": []
    }, 
    {
      "op": "null", 
      "name": "stage3_unit1_bn2_moving_mean", 
      "attrs": {
        "__init__": "[\"zero\", {}]", 
        "eps": "2e-05", 
        "fix_gamma": "False", 
        "momentum": "0.9", 
        "use_global_stats": "False"
      }, 
      "inputs": []
    }, 
    {
      "op": "null", 
      "name": "stage3_unit1_bn2_moving_var", 
      "attrs": {
        "__init__": "[\"one\", {}]", 
        "eps": "2e-05", 
        "fix_gamma": "False", 
        "momentum": "0.9", 
        "use_global_stats": "False"
      }, 
      "inputs": []
    }, 
    {
      "op": "BatchNorm", 
      "name": "stage3_unit1_bn2", 
      "attrs": {
        "eps": "2e-05", 
        "fix_gamma": "False", 
        "momentum": "0.9", 
        "use_global_stats": "False"
      }, 
      "inputs": [[551, 0, 0], [552, 0, 0], [553, 0, 0], [554, 0, 0], [555, 0, 0]]
    }, 
    {
      "op": "Activation", 
      "name": "stage3_unit1_relu2", 
      "attrs": {"act_type": "relu"}, 
      "inputs": [[556, 0, 0]]
    }, 
    {
      "op": "min", 
      "name": "stage3_unit1_relu2_min", 
      "inputs": [[557, 0, 0]]
    }, 
    {
      "op": "max", 
      "name": "stage3_unit1_relu2_max", 
      "inputs": [[557, 0, 0]]
    }, 
    {
      "op": "_contrib_quantize", 
      "name": "stage3_unit1_relu2_quantize", 
      "attrs": {"out_type": "uint8"}, 
      "inputs": [[557, 0, 0], [558, 0, 0], [559, 0, 0]]
    }, 
    {
      "op": "null", 
      "name": "stage3_unit1_conv2_weight_quantize", 
      "inputs": []
    }, 
    {
      "op": "null", 
      "name": "stage3_unit1_conv2_weight_quantize_min", 
      "inputs": []
    }, 
    {
      "op": "null", 
      "name": "stage3_unit1_conv2_weight_quantize_max", 
      "inputs": []
    }, 
    {
      "op": "_contrib_quantized_conv", 
      "name": "quantized_stage3_unit1_conv2", 
      "attrs": {
        "cudnn_off": "False", 
        "cudnn_tune": "limited_workspace", 
        "dilate": "(1,1)", 
        "kernel": "(3,3)", 
        "no_bias": "True", 
        "num_filter": "256", 
        "num_group": "1", 
        "pad": "(1,1)", 
        "stride": "(2,2)", 
        "workspace": "512"
      }, 
      "inputs": [[560, 0, 0], [561, 0, 0], [560, 1, 0], [560, 2, 0], [562, 0, 0], [563, 0, 0]]
    }, 
    {
      "op": "_contrib_requantize", 
      "name": "requantize_stage3_unit1_conv2", 
      "inputs": [[564, 0, 0], [564, 1, 0], [564, 2, 0]]
    }, 
    {
      "op": "_contrib_dequantize", 
      "name": "stage3_unit1_conv2_dequantize", 
      "inputs": [[565, 0, 0], [565, 1, 0], [565, 2, 0]]
    }, 
    {
      "op": "null", 
      "name": "stage3_unit1_bn3_gamma", 
      "inputs": []
    }, 
    {
      "op": "null", 
      "name": "stage3_unit1_bn3_beta", 
      "inputs": []
    }, 
    {
      "op": "null", 
      "name": "stage3_unit1_bn3_moving_mean", 
      "attrs": {
        "__init__": "[\"zero\", {}]", 
        "eps": "2e-05", 
        "fix_gamma": "False", 
        "momentum": "0.9", 
        "use_global_stats": "False"
      }, 
      "inputs": []
    }, 
    {
      "op": "null", 
      "name": "stage3_unit1_bn3_moving_var", 
      "attrs": {
        "__init__": "[\"one\", {}]", 
        "eps": "2e-05", 
        "fix_gamma": "False", 
        "momentum": "0.9", 
        "use_global_stats": "False"
      }, 
      "inputs": []
    }, 
    {
      "op": "BatchNorm", 
      "name": "stage3_unit1_bn3", 
      "attrs": {
        "eps": "2e-05", 
        "fix_gamma": "False", 
        "momentum": "0.9", 
        "use_global_stats": "False"
      }, 
      "inputs": [[566, 0, 0], [567, 0, 0], [568, 0, 0], [569, 0, 0], [570, 0, 0]]
    }, 
    {
      "op": "Activation", 
      "name": "stage3_unit1_relu3", 
      "attrs": {"act_type": "relu"}, 
      "inputs": [[571, 0, 0]]
    }, 
    {
      "op": "min", 
      "name": "stage3_unit1_relu3_min", 
      "inputs": [[572, 0, 0]]
    }, 
    {
      "op": "max", 
      "name": "stage3_unit1_relu3_max", 
      "inputs": [[572, 0, 0]]
    }, 
    {
      "op": "_contrib_quantize", 
      "name": "stage3_unit1_relu3_quantize", 
      "attrs": {"out_type": "uint8"}, 
      "inputs": [[572, 0, 0], [573, 0, 0], [574, 0, 0]]
    }, 
    {
      "op": "null", 
      "name": "stage3_unit1_conv3_weight_quantize", 
      "inputs": []
    }, 
    {
      "op": "null", 
      "name": "stage3_unit1_conv3_weight_quantize_min", 
      "inputs": []
    }, 
    {
      "op": "null", 
      "name": "stage3_unit1_conv3_weight_quantize_max", 
      "inputs": []
    }, 
    {
      "op": "_contrib_quantized_conv", 
      "name": "quantized_stage3_unit1_conv3", 
      "attrs": {
        "cudnn_off": "False", 
        "cudnn_tune": "limited_workspace", 
        "dilate": "(1,1)", 
        "kernel": "(1,1)", 
        "no_bias": "True", 
        "num_filter": "1024", 
        "num_group": "1", 
        "pad": "(0,0)", 
        "stride": "(1,1)", 
        "workspace": "512"
      }, 
      "inputs": [[575, 0, 0], [576, 0, 0], [575, 1, 0], [575, 2, 0], [577, 0, 0], [578, 0, 0]]
    }, 
    {
      "op": "_contrib_requantize", 
      "name": "requantize_stage3_unit1_conv3", 
      "inputs": [[579, 0, 0], [579, 1, 0], [579, 2, 0]]
    }, 
    {
      "op": "_contrib_dequantize", 
      "name": "stage3_unit1_conv3_dequantize", 
      "inputs": [[580, 0, 0], [580, 1, 0], [580, 2, 0]]
    }, 
    {
      "op": "null", 
      "name": "stage3_unit1_sc_weight_quantize", 
      "inputs": []
    }, 
    {
      "op": "null", 
      "name": "stage3_unit1_sc_weight_quantize_min", 
      "inputs": []
    }, 
    {
      "op": "null", 
      "name": "stage3_unit1_sc_weight_quantize_max", 
      "inputs": []
    }, 
    {
      "op": "_contrib_quantized_conv", 
      "name": "quantized_stage3_unit1_sc", 
      "attrs": {
        "cudnn_off": "False", 
        "cudnn_tune": "limited_workspace", 
        "dilate": "(1,1)", 
        "kernel": "(1,1)", 
        "no_bias": "True", 
        "num_filter": "1024", 
        "num_group": "1", 
        "pad": "(0,0)", 
        "stride": "(2,2)", 
        "workspace": "512"
      }, 
      "inputs": [[545, 0, 0], [582, 0, 0], [545, 1, 0], [545, 2, 0], [583, 0, 0], [584, 0, 0]]
    }, 
    {
      "op": "_contrib_requantize", 
      "name": "requantize_stage3_unit1_sc", 
      "inputs": [[585, 0, 0], [585, 1, 0], [585, 2, 0]]
    }, 
    {
      "op": "_contrib_dequantize", 
      "name": "stage3_unit1_sc_dequantize", 
      "inputs": [[586, 0, 0], [586, 1, 0], [586, 2, 0]]
    }, 
    {
      "op": "elemwise_add", 
      "name": "_plus11", 
      "inputs": [[581, 0, 0], [587, 0, 0]]
    }, 
    {
      "op": "null", 
      "name": "stage3_unit2_bn1_gamma", 
      "inputs": []
    }, 
    {
      "op": "null", 
      "name": "stage3_unit2_bn1_beta", 
      "inputs": []
    }, 
    {
      "op": "null", 
      "name": "stage3_unit2_bn1_moving_mean", 
      "attrs": {
        "__init__": "[\"zero\", {}]", 
        "eps": "2e-05", 
        "fix_gamma": "False", 
        "momentum": "0.9", 
        "use_global_stats": "False"
      }, 
      "inputs": []
    }, 
    {
      "op": "null", 
      "name": "stage3_unit2_bn1_moving_var", 
      "attrs": {
        "__init__": "[\"one\", {}]", 
        "eps": "2e-05", 
        "fix_gamma": "False", 
        "momentum": "0.9", 
        "use_global_stats": "False"
      }, 
      "inputs": []
    }, 
    {
      "op": "BatchNorm", 
      "name": "stage3_unit2_bn1", 
      "attrs": {
        "eps": "2e-05", 
        "fix_gamma": "False", 
        "momentum": "0.9", 
        "use_global_stats": "False"
      }, 
      "inputs": [[588, 0, 0], [589, 0, 0], [590, 0, 0], [591, 0, 0], [592, 0, 0]]
    }, 
    {
      "op": "Activation", 
      "name": "stage3_unit2_relu1", 
      "attrs": {"act_type": "relu"}, 
      "inputs": [[593, 0, 0]]
    }, 
    {
      "op": "min", 
      "name": "stage3_unit2_relu1_min", 
      "inputs": [[594, 0, 0]]
    }, 
    {
      "op": "max", 
      "name": "stage3_unit2_relu1_max", 
      "inputs": [[594, 0, 0]]
    }, 
    {
      "op": "_contrib_quantize", 
      "name": "stage3_unit2_relu1_quantize", 
      "attrs": {"out_type": "uint8"}, 
      "inputs": [[594, 0, 0], [595, 0, 0], [596, 0, 0]]
    }, 
    {
      "op": "null", 
      "name": "stage3_unit2_conv1_weight_quantize", 
      "inputs": []
    }, 
    {
      "op": "null", 
      "name": "stage3_unit2_conv1_weight_quantize_min", 
      "inputs": []
    }, 
    {
      "op": "null", 
      "name": "stage3_unit2_conv1_weight_quantize_max", 
      "inputs": []
    }, 
    {
      "op": "_contrib_quantized_conv", 
      "name": "quantized_stage3_unit2_conv1", 
      "attrs": {
        "cudnn_off": "False", 
        "cudnn_tune": "limited_workspace", 
        "dilate": "(1,1)", 
        "kernel": "(1,1)", 
        "no_bias": "True", 
        "num_filter": "256", 
        "num_group": "1", 
        "pad": "(0,0)", 
        "stride": "(1,1)", 
        "workspace": "512"
      }, 
      "inputs": [[597, 0, 0], [598, 0, 0], [597, 1, 0], [597, 2, 0], [599, 0, 0], [600, 0, 0]]
    }, 
    {
      "op": "_contrib_requantize", 
      "name": "requantize_stage3_unit2_conv1", 
      "inputs": [[601, 0, 0], [601, 1, 0], [601, 2, 0]]
    }, 
    {
      "op": "_contrib_dequantize", 
      "name": "stage3_unit2_conv1_dequantize", 
      "inputs": [[602, 0, 0], [602, 1, 0], [602, 2, 0]]
    }, 
    {
      "op": "null", 
      "name": "stage3_unit2_bn2_gamma", 
      "inputs": []
    }, 
    {
      "op": "null", 
      "name": "stage3_unit2_bn2_beta", 
      "inputs": []
    }, 
    {
      "op": "null", 
      "name": "stage3_unit2_bn2_moving_mean", 
      "attrs": {
        "__init__": "[\"zero\", {}]", 
        "eps": "2e-05", 
        "fix_gamma": "False", 
        "momentum": "0.9", 
        "use_global_stats": "False"
      }, 
      "inputs": []
    }, 
    {
      "op": "null", 
      "name": "stage3_unit2_bn2_moving_var", 
      "attrs": {
        "__init__": "[\"one\", {}]", 
        "eps": "2e-05", 
        "fix_gamma": "False", 
        "momentum": "0.9", 
        "use_global_stats": "False"
      }, 
      "inputs": []
    }, 
    {
      "op": "BatchNorm", 
      "name": "stage3_unit2_bn2", 
      "attrs": {
        "eps": "2e-05", 
        "fix_gamma": "False", 
        "momentum": "0.9", 
        "use_global_stats": "False"
      }, 
      "inputs": [[603, 0, 0], [604, 0, 0], [605, 0, 0], [606, 0, 0], [607, 0, 0]]
    }, 
    {
      "op": "Activation", 
      "name": "stage3_unit2_relu2", 
      "attrs": {"act_type": "relu"}, 
      "inputs": [[608, 0, 0]]
    }, 
    {
      "op": "min", 
      "name": "stage3_unit2_relu2_min", 
      "inputs": [[609, 0, 0]]
    }, 
    {
      "op": "max", 
      "name": "stage3_unit2_relu2_max", 
      "inputs": [[609, 0, 0]]
    }, 
    {
      "op": "_contrib_quantize", 
      "name": "stage3_unit2_relu2_quantize", 
      "attrs": {"out_type": "uint8"}, 
      "inputs": [[609, 0, 0], [610, 0, 0], [611, 0, 0]]
    }, 
    {
      "op": "null", 
      "name": "stage3_unit2_conv2_weight_quantize", 
      "inputs": []
    }, 
    {
      "op": "null", 
      "name": "stage3_unit2_conv2_weight_quantize_min", 
      "inputs": []
    }, 
    {
      "op": "null", 
      "name": "stage3_unit2_conv2_weight_quantize_max", 
      "inputs": []
    }, 
    {
      "op": "_contrib_quantized_conv", 
      "name": "quantized_stage3_unit2_conv2", 
      "attrs": {
        "cudnn_off": "False", 
        "cudnn_tune": "limited_workspace", 
        "dilate": "(1,1)", 
        "kernel": "(3,3)", 
        "no_bias": "True", 
        "num_filter": "256", 
        "num_group": "1", 
        "pad": "(1,1)", 
        "stride": "(1,1)", 
        "workspace": "512"
      }, 
      "inputs": [[612, 0, 0], [613, 0, 0], [612, 1, 0], [612, 2, 0], [614, 0, 0], [615, 0, 0]]
    }, 
    {
      "op": "_contrib_requantize", 
      "name": "requantize_stage3_unit2_conv2", 
      "inputs": [[616, 0, 0], [616, 1, 0], [616, 2, 0]]
    }, 
    {
      "op": "_contrib_dequantize", 
      "name": "stage3_unit2_conv2_dequantize", 
      "inputs": [[617, 0, 0], [617, 1, 0], [617, 2, 0]]
    }, 
    {
      "op": "null", 
      "name": "stage3_unit2_bn3_gamma", 
      "inputs": []
    }, 
    {
      "op": "null", 
      "name": "stage3_unit2_bn3_beta", 
      "inputs": []
    }, 
    {
      "op": "null", 
      "name": "stage3_unit2_bn3_moving_mean", 
      "attrs": {
        "__init__": "[\"zero\", {}]", 
        "eps": "2e-05", 
        "fix_gamma": "False", 
        "momentum": "0.9", 
        "use_global_stats": "False"
      }, 
      "inputs": []
    }, 
    {
      "op": "null", 
      "name": "stage3_unit2_bn3_moving_var", 
      "attrs": {
        "__init__": "[\"one\", {}]", 
        "eps": "2e-05", 
        "fix_gamma": "False", 
        "momentum": "0.9", 
        "use_global_stats": "False"
      }, 
      "inputs": []
    }, 
    {
      "op": "BatchNorm", 
      "name": "stage3_unit2_bn3", 
      "attrs": {
        "eps": "2e-05", 
        "fix_gamma": "False", 
        "momentum": "0.9", 
        "use_global_stats": "False"
      }, 
      "inputs": [[618, 0, 0], [619, 0, 0], [620, 0, 0], [621, 0, 0], [622, 0, 0]]
    }, 
    {
      "op": "Activation", 
      "name": "stage3_unit2_relu3", 
      "attrs": {"act_type": "relu"}, 
      "inputs": [[623, 0, 0]]
    }, 
    {
      "op": "min", 
      "name": "stage3_unit2_relu3_min", 
      "inputs": [[624, 0, 0]]
    }, 
    {
      "op": "max", 
      "name": "stage3_unit2_relu3_max", 
      "inputs": [[624, 0, 0]]
    }, 
    {
      "op": "_contrib_quantize", 
      "name": "stage3_unit2_relu3_quantize", 
      "attrs": {"out_type": "uint8"}, 
      "inputs": [[624, 0, 0], [625, 0, 0], [626, 0, 0]]
    }, 
    {
      "op": "null", 
      "name": "stage3_unit2_conv3_weight_quantize", 
      "inputs": []
    }, 
    {
      "op": "null", 
      "name": "stage3_unit2_conv3_weight_quantize_min", 
      "inputs": []
    }, 
    {
      "op": "null", 
      "name": "stage3_unit2_conv3_weight_quantize_max", 
      "inputs": []
    }, 
    {
      "op": "_contrib_quantized_conv", 
      "name": "quantized_stage3_unit2_conv3", 
      "attrs": {
        "cudnn_off": "False", 
        "cudnn_tune": "limited_workspace", 
        "dilate": "(1,1)", 
        "kernel": "(1,1)", 
        "no_bias": "True", 
        "num_filter": "1024", 
        "num_group": "1", 
        "pad": "(0,0)", 
        "stride": "(1,1)", 
        "workspace": "512"
      }, 
      "inputs": [[627, 0, 0], [628, 0, 0], [627, 1, 0], [627, 2, 0], [629, 0, 0], [630, 0, 0]]
    }, 
    {
      "op": "_contrib_requantize", 
      "name": "requantize_stage3_unit2_conv3", 
      "inputs": [[631, 0, 0], [631, 1, 0], [631, 2, 0]]
    }, 
    {
      "op": "_contrib_dequantize", 
      "name": "stage3_unit2_conv3_dequantize", 
      "inputs": [[632, 0, 0], [632, 1, 0], [632, 2, 0]]
    }, 
    {
      "op": "elemwise_add", 
      "name": "_plus12", 
      "inputs": [[633, 0, 0], [588, 0, 0]]
    }, 
    {
      "op": "null", 
      "name": "stage3_unit3_bn1_gamma", 
      "inputs": []
    }, 
    {
      "op": "null", 
      "name": "stage3_unit3_bn1_beta", 
      "inputs": []
    }, 
    {
      "op": "null", 
      "name": "stage3_unit3_bn1_moving_mean", 
      "attrs": {
        "__init__": "[\"zero\", {}]", 
        "eps": "2e-05", 
        "fix_gamma": "False", 
        "momentum": "0.9", 
        "use_global_stats": "False"
      }, 
      "inputs": []
    }, 
    {
      "op": "null", 
      "name": "stage3_unit3_bn1_moving_var", 
      "attrs": {
        "__init__": "[\"one\", {}]", 
        "eps": "2e-05", 
        "fix_gamma": "False", 
        "momentum": "0.9", 
        "use_global_stats": "False"
      }, 
      "inputs": []
    }, 
    {
      "op": "BatchNorm", 
      "name": "stage3_unit3_bn1", 
      "attrs": {
        "eps": "2e-05", 
        "fix_gamma": "False", 
        "momentum": "0.9", 
        "use_global_stats": "False"
      }, 
      "inputs": [[634, 0, 0], [635, 0, 0], [636, 0, 0], [637, 0, 0], [638, 0, 0]]
    }, 
    {
      "op": "Activation", 
      "name": "stage3_unit3_relu1", 
      "attrs": {"act_type": "relu"}, 
      "inputs": [[639, 0, 0]]
    }, 
    {
      "op": "min", 
      "name": "stage3_unit3_relu1_min", 
      "inputs": [[640, 0, 0]]
    }, 
    {
      "op": "max", 
      "name": "stage3_unit3_relu1_max", 
      "inputs": [[640, 0, 0]]
    }, 
    {
      "op": "_contrib_quantize", 
      "name": "stage3_unit3_relu1_quantize", 
      "attrs": {"out_type": "uint8"}, 
      "inputs": [[640, 0, 0], [641, 0, 0], [642, 0, 0]]
    }, 
    {
      "op": "null", 
      "name": "stage3_unit3_conv1_weight_quantize", 
      "inputs": []
    }, 
    {
      "op": "null", 
      "name": "stage3_unit3_conv1_weight_quantize_min", 
      "inputs": []
    }, 
    {
      "op": "null", 
      "name": "stage3_unit3_conv1_weight_quantize_max", 
      "inputs": []
    }, 
    {
      "op": "_contrib_quantized_conv", 
      "name": "quantized_stage3_unit3_conv1", 
      "attrs": {
        "cudnn_off": "False", 
        "cudnn_tune": "limited_workspace", 
        "dilate": "(1,1)", 
        "kernel": "(1,1)", 
        "no_bias": "True", 
        "num_filter": "256", 
        "num_group": "1", 
        "pad": "(0,0)", 
        "stride": "(1,1)", 
        "workspace": "512"
      }, 
      "inputs": [[643, 0, 0], [644, 0, 0], [643, 1, 0], [643, 2, 0], [645, 0, 0], [646, 0, 0]]
    }, 
    {
      "op": "_contrib_requantize", 
      "name": "requantize_stage3_unit3_conv1", 
      "inputs": [[647, 0, 0], [647, 1, 0], [647, 2, 0]]
    }, 
    {
      "op": "_contrib_dequantize", 
      "name": "stage3_unit3_conv1_dequantize", 
      "inputs": [[648, 0, 0], [648, 1, 0], [648, 2, 0]]
    }, 
    {
      "op": "null", 
      "name": "stage3_unit3_bn2_gamma", 
      "inputs": []
    }, 
    {
      "op": "null", 
      "name": "stage3_unit3_bn2_beta", 
      "inputs": []
    }, 
    {
      "op": "null", 
      "name": "stage3_unit3_bn2_moving_mean", 
      "attrs": {
        "__init__": "[\"zero\", {}]", 
        "eps": "2e-05", 
        "fix_gamma": "False", 
        "momentum": "0.9", 
        "use_global_stats": "False"
      }, 
      "inputs": []
    }, 
    {
      "op": "null", 
      "name": "stage3_unit3_bn2_moving_var", 
      "attrs": {
        "__init__": "[\"one\", {}]", 
        "eps": "2e-05", 
        "fix_gamma": "False", 
        "momentum": "0.9", 
        "use_global_stats": "False"
      }, 
      "inputs": []
    }, 
    {
      "op": "BatchNorm", 
      "name": "stage3_unit3_bn2", 
      "attrs": {
        "eps": "2e-05", 
        "fix_gamma": "False", 
        "momentum": "0.9", 
        "use_global_stats": "False"
      }, 
      "inputs": [[649, 0, 0], [650, 0, 0], [651, 0, 0], [652, 0, 0], [653, 0, 0]]
    }, 
    {
      "op": "Activation", 
      "name": "stage3_unit3_relu2", 
      "attrs": {"act_type": "relu"}, 
      "inputs": [[654, 0, 0]]
    }, 
    {
      "op": "min", 
      "name": "stage3_unit3_relu2_min", 
      "inputs": [[655, 0, 0]]
    }, 
    {
      "op": "max", 
      "name": "stage3_unit3_relu2_max", 
      "inputs": [[655, 0, 0]]
    }, 
    {
      "op": "_contrib_quantize", 
      "name": "stage3_unit3_relu2_quantize", 
      "attrs": {"out_type": "uint8"}, 
      "inputs": [[655, 0, 0], [656, 0, 0], [657, 0, 0]]
    }, 
    {
      "op": "null", 
      "name": "stage3_unit3_conv2_weight_quantize", 
      "inputs": []
    }, 
    {
      "op": "null", 
      "name": "stage3_unit3_conv2_weight_quantize_min", 
      "inputs": []
    }, 
    {
      "op": "null", 
      "name": "stage3_unit3_conv2_weight_quantize_max", 
      "inputs": []
    }, 
    {
      "op": "_contrib_quantized_conv", 
      "name": "quantized_stage3_unit3_conv2", 
      "attrs": {
        "cudnn_off": "False", 
        "cudnn_tune": "limited_workspace", 
        "dilate": "(1,1)", 
        "kernel": "(3,3)", 
        "no_bias": "True", 
        "num_filter": "256", 
        "num_group": "1", 
        "pad": "(1,1)", 
        "stride": "(1,1)", 
        "workspace": "512"
      }, 
      "inputs": [[658, 0, 0], [659, 0, 0], [658, 1, 0], [658, 2, 0], [660, 0, 0], [661, 0, 0]]
    }, 
    {
      "op": "_contrib_requantize", 
      "name": "requantize_stage3_unit3_conv2", 
      "inputs": [[662, 0, 0], [662, 1, 0], [662, 2, 0]]
    }, 
    {
      "op": "_contrib_dequantize", 
      "name": "stage3_unit3_conv2_dequantize", 
      "inputs": [[663, 0, 0], [663, 1, 0], [663, 2, 0]]
    }, 
    {
      "op": "null", 
      "name": "stage3_unit3_bn3_gamma", 
      "inputs": []
    }, 
    {
      "op": "null", 
      "name": "stage3_unit3_bn3_beta", 
      "inputs": []
    }, 
    {
      "op": "null", 
      "name": "stage3_unit3_bn3_moving_mean", 
      "attrs": {
        "__init__": "[\"zero\", {}]", 
        "eps": "2e-05", 
        "fix_gamma": "False", 
        "momentum": "0.9", 
        "use_global_stats": "False"
      }, 
      "inputs": []
    }, 
    {
      "op": "null", 
      "name": "stage3_unit3_bn3_moving_var", 
      "attrs": {
        "__init__": "[\"one\", {}]", 
        "eps": "2e-05", 
        "fix_gamma": "False", 
        "momentum": "0.9", 
        "use_global_stats": "False"
      }, 
      "inputs": []
    }, 
    {
      "op": "BatchNorm", 
      "name": "stage3_unit3_bn3", 
      "attrs": {
        "eps": "2e-05", 
        "fix_gamma": "False", 
        "momentum": "0.9", 
        "use_global_stats": "False"
      }, 
      "inputs": [[664, 0, 0], [665, 0, 0], [666, 0, 0], [667, 0, 0], [668, 0, 0]]
    }, 
    {
      "op": "Activation", 
      "name": "stage3_unit3_relu3", 
      "attrs": {"act_type": "relu"}, 
      "inputs": [[669, 0, 0]]
    }, 
    {
      "op": "min", 
      "name": "stage3_unit3_relu3_min", 
      "inputs": [[670, 0, 0]]
    }, 
    {
      "op": "max", 
      "name": "stage3_unit3_relu3_max", 
      "inputs": [[670, 0, 0]]
    }, 
    {
      "op": "_contrib_quantize", 
      "name": "stage3_unit3_relu3_quantize", 
      "attrs": {"out_type": "uint8"}, 
      "inputs": [[670, 0, 0], [671, 0, 0], [672, 0, 0]]
    }, 
    {
      "op": "null", 
      "name": "stage3_unit3_conv3_weight_quantize", 
      "inputs": []
    }, 
    {
      "op": "null", 
      "name": "stage3_unit3_conv3_weight_quantize_min", 
      "inputs": []
    }, 
    {
      "op": "null", 
      "name": "stage3_unit3_conv3_weight_quantize_max", 
      "inputs": []
    }, 
    {
      "op": "_contrib_quantized_conv", 
      "name": "quantized_stage3_unit3_conv3", 
      "attrs": {
        "cudnn_off": "False", 
        "cudnn_tune": "limited_workspace", 
        "dilate": "(1,1)", 
        "kernel": "(1,1)", 
        "no_bias": "True", 
        "num_filter": "1024", 
        "num_group": "1", 
        "pad": "(0,0)", 
        "stride": "(1,1)", 
        "workspace": "512"
      }, 
      "inputs": [[673, 0, 0], [674, 0, 0], [673, 1, 0], [673, 2, 0], [675, 0, 0], [676, 0, 0]]
    }, 
    {
      "op": "_contrib_requantize", 
      "name": "requantize_stage3_unit3_conv3", 
      "inputs": [[677, 0, 0], [677, 1, 0], [677, 2, 0]]
    }, 
    {
      "op": "_contrib_dequantize", 
      "name": "stage3_unit3_conv3_dequantize", 
      "inputs": [[678, 0, 0], [678, 1, 0], [678, 2, 0]]
    }, 
    {
      "op": "elemwise_add", 
      "name": "_plus13", 
      "inputs": [[679, 0, 0], [634, 0, 0]]
    }, 
    {
      "op": "null", 
      "name": "stage3_unit4_bn1_gamma", 
      "inputs": []
    }, 
    {
      "op": "null", 
      "name": "stage3_unit4_bn1_beta", 
      "inputs": []
    }, 
    {
      "op": "null", 
      "name": "stage3_unit4_bn1_moving_mean", 
      "attrs": {
        "__init__": "[\"zero\", {}]", 
        "eps": "2e-05", 
        "fix_gamma": "False", 
        "momentum": "0.9", 
        "use_global_stats": "False"
      }, 
      "inputs": []
    }, 
    {
      "op": "null", 
      "name": "stage3_unit4_bn1_moving_var", 
      "attrs": {
        "__init__": "[\"one\", {}]", 
        "eps": "2e-05", 
        "fix_gamma": "False", 
        "momentum": "0.9", 
        "use_global_stats": "False"
      }, 
      "inputs": []
    }, 
    {
      "op": "BatchNorm", 
      "name": "stage3_unit4_bn1", 
      "attrs": {
        "eps": "2e-05", 
        "fix_gamma": "False", 
        "momentum": "0.9", 
        "use_global_stats": "False"
      }, 
      "inputs": [[680, 0, 0], [681, 0, 0], [682, 0, 0], [683, 0, 0], [684, 0, 0]]
    }, 
    {
      "op": "Activation", 
      "name": "stage3_unit4_relu1", 
      "attrs": {"act_type": "relu"}, 
      "inputs": [[685, 0, 0]]
    }, 
    {
      "op": "min", 
      "name": "stage3_unit4_relu1_min", 
      "inputs": [[686, 0, 0]]
    }, 
    {
      "op": "max", 
      "name": "stage3_unit4_relu1_max", 
      "inputs": [[686, 0, 0]]
    }, 
    {
      "op": "_contrib_quantize", 
      "name": "stage3_unit4_relu1_quantize", 
      "attrs": {"out_type": "uint8"}, 
      "inputs": [[686, 0, 0], [687, 0, 0], [688, 0, 0]]
    }, 
    {
      "op": "null", 
      "name": "stage3_unit4_conv1_weight_quantize", 
      "inputs": []
    }, 
    {
      "op": "null", 
      "name": "stage3_unit4_conv1_weight_quantize_min", 
      "inputs": []
    }, 
    {
      "op": "null", 
      "name": "stage3_unit4_conv1_weight_quantize_max", 
      "inputs": []
    }, 
    {
      "op": "_contrib_quantized_conv", 
      "name": "quantized_stage3_unit4_conv1", 
      "attrs": {
        "cudnn_off": "False", 
        "cudnn_tune": "limited_workspace", 
        "dilate": "(1,1)", 
        "kernel": "(1,1)", 
        "no_bias": "True", 
        "num_filter": "256", 
        "num_group": "1", 
        "pad": "(0,0)", 
        "stride": "(1,1)", 
        "workspace": "512"
      }, 
      "inputs": [[689, 0, 0], [690, 0, 0], [689, 1, 0], [689, 2, 0], [691, 0, 0], [692, 0, 0]]
    }, 
    {
      "op": "_contrib_requantize", 
      "name": "requantize_stage3_unit4_conv1", 
      "inputs": [[693, 0, 0], [693, 1, 0], [693, 2, 0]]
    }, 
    {
      "op": "_contrib_dequantize", 
      "name": "stage3_unit4_conv1_dequantize", 
      "inputs": [[694, 0, 0], [694, 1, 0], [694, 2, 0]]
    }, 
    {
      "op": "null", 
      "name": "stage3_unit4_bn2_gamma", 
      "inputs": []
    }, 
    {
      "op": "null", 
      "name": "stage3_unit4_bn2_beta", 
      "inputs": []
    }, 
    {
      "op": "null", 
      "name": "stage3_unit4_bn2_moving_mean", 
      "attrs": {
        "__init__": "[\"zero\", {}]", 
        "eps": "2e-05", 
        "fix_gamma": "False", 
        "momentum": "0.9", 
        "use_global_stats": "False"
      }, 
      "inputs": []
    }, 
    {
      "op": "null", 
      "name": "stage3_unit4_bn2_moving_var", 
      "attrs": {
        "__init__": "[\"one\", {}]", 
        "eps": "2e-05", 
        "fix_gamma": "False", 
        "momentum": "0.9", 
        "use_global_stats": "False"
      }, 
      "inputs": []
    }, 
    {
      "op": "BatchNorm", 
      "name": "stage3_unit4_bn2", 
      "attrs": {
        "eps": "2e-05", 
        "fix_gamma": "False", 
        "momentum": "0.9", 
        "use_global_stats": "False"
      }, 
      "inputs": [[695, 0, 0], [696, 0, 0], [697, 0, 0], [698, 0, 0], [699, 0, 0]]
    }, 
    {
      "op": "Activation", 
      "name": "stage3_unit4_relu2", 
      "attrs": {"act_type": "relu"}, 
      "inputs": [[700, 0, 0]]
    }, 
    {
      "op": "min", 
      "name": "stage3_unit4_relu2_min", 
      "inputs": [[701, 0, 0]]
    }, 
    {
      "op": "max", 
      "name": "stage3_unit4_relu2_max", 
      "inputs": [[701, 0, 0]]
    }, 
    {
      "op": "_contrib_quantize", 
      "name": "stage3_unit4_relu2_quantize", 
      "attrs": {"out_type": "uint8"}, 
      "inputs": [[701, 0, 0], [702, 0, 0], [703, 0, 0]]
    }, 
    {
      "op": "null", 
      "name": "stage3_unit4_conv2_weight_quantize", 
      "inputs": []
    }, 
    {
      "op": "null", 
      "name": "stage3_unit4_conv2_weight_quantize_min", 
      "inputs": []
    }, 
    {
      "op": "null", 
      "name": "stage3_unit4_conv2_weight_quantize_max", 
      "inputs": []
    }, 
    {
      "op": "_contrib_quantized_conv", 
      "name": "quantized_stage3_unit4_conv2", 
      "attrs": {
        "cudnn_off": "False", 
        "cudnn_tune": "limited_workspace", 
        "dilate": "(1,1)", 
        "kernel": "(3,3)", 
        "no_bias": "True", 
        "num_filter": "256", 
        "num_group": "1", 
        "pad": "(1,1)", 
        "stride": "(1,1)", 
        "workspace": "512"
      }, 
      "inputs": [[704, 0, 0], [705, 0, 0], [704, 1, 0], [704, 2, 0], [706, 0, 0], [707, 0, 0]]
    }, 
    {
      "op": "_contrib_requantize", 
      "name": "requantize_stage3_unit4_conv2", 
      "inputs": [[708, 0, 0], [708, 1, 0], [708, 2, 0]]
    }, 
    {
      "op": "_contrib_dequantize", 
      "name": "stage3_unit4_conv2_dequantize", 
      "inputs": [[709, 0, 0], [709, 1, 0], [709, 2, 0]]
    }, 
    {
      "op": "null", 
      "name": "stage3_unit4_bn3_gamma", 
      "inputs": []
    }, 
    {
      "op": "null", 
      "name": "stage3_unit4_bn3_beta", 
      "inputs": []
    }, 
    {
      "op": "null", 
      "name": "stage3_unit4_bn3_moving_mean", 
      "attrs": {
        "__init__": "[\"zero\", {}]", 
        "eps": "2e-05", 
        "fix_gamma": "False", 
        "momentum": "0.9", 
        "use_global_stats": "False"
      }, 
      "inputs": []
    }, 
    {
      "op": "null", 
      "name": "stage3_unit4_bn3_moving_var", 
      "attrs": {
        "__init__": "[\"one\", {}]", 
        "eps": "2e-05", 
        "fix_gamma": "False", 
        "momentum": "0.9", 
        "use_global_stats": "False"
      }, 
      "inputs": []
    }, 
    {
      "op": "BatchNorm", 
      "name": "stage3_unit4_bn3", 
      "attrs": {
        "eps": "2e-05", 
        "fix_gamma": "False", 
        "momentum": "0.9", 
        "use_global_stats": "False"
      }, 
      "inputs": [[710, 0, 0], [711, 0, 0], [712, 0, 0], [713, 0, 0], [714, 0, 0]]
    }, 
    {
      "op": "Activation", 
      "name": "stage3_unit4_relu3", 
      "attrs": {"act_type": "relu"}, 
      "inputs": [[715, 0, 0]]
    }, 
    {
      "op": "min", 
      "name": "stage3_unit4_relu3_min", 
      "inputs": [[716, 0, 0]]
    }, 
    {
      "op": "max", 
      "name": "stage3_unit4_relu3_max", 
      "inputs": [[716, 0, 0]]
    }, 
    {
      "op": "_contrib_quantize", 
      "name": "stage3_unit4_relu3_quantize", 
      "attrs": {"out_type": "uint8"}, 
      "inputs": [[716, 0, 0], [717, 0, 0], [718, 0, 0]]
    }, 
    {
      "op": "null", 
      "name": "stage3_unit4_conv3_weight_quantize", 
      "inputs": []
    }, 
    {
      "op": "null", 
      "name": "stage3_unit4_conv3_weight_quantize_min", 
      "inputs": []
    }, 
    {
      "op": "null", 
      "name": "stage3_unit4_conv3_weight_quantize_max", 
      "inputs": []
    }, 
    {
      "op": "_contrib_quantized_conv", 
      "name": "quantized_stage3_unit4_conv3", 
      "attrs": {
        "cudnn_off": "False", 
        "cudnn_tune": "limited_workspace", 
        "dilate": "(1,1)", 
        "kernel": "(1,1)", 
        "no_bias": "True", 
        "num_filter": "1024", 
        "num_group": "1", 
        "pad": "(0,0)", 
        "stride": "(1,1)", 
        "workspace": "512"
      }, 
      "inputs": [[719, 0, 0], [720, 0, 0], [719, 1, 0], [719, 2, 0], [721, 0, 0], [722, 0, 0]]
    }, 
    {
      "op": "_contrib_requantize", 
      "name": "requantize_stage3_unit4_conv3", 
      "inputs": [[723, 0, 0], [723, 1, 0], [723, 2, 0]]
    }, 
    {
      "op": "_contrib_dequantize", 
      "name": "stage3_unit4_conv3_dequantize", 
      "inputs": [[724, 0, 0], [724, 1, 0], [724, 2, 0]]
    }, 
    {
      "op": "elemwise_add", 
      "name": "_plus14", 
      "inputs": [[725, 0, 0], [680, 0, 0]]
    }, 
    {
      "op": "null", 
      "name": "stage3_unit5_bn1_gamma", 
      "inputs": []
    }, 
    {
      "op": "null", 
      "name": "stage3_unit5_bn1_beta", 
      "inputs": []
    }, 
    {
      "op": "null", 
      "name": "stage3_unit5_bn1_moving_mean", 
      "attrs": {
        "__init__": "[\"zero\", {}]", 
        "eps": "2e-05", 
        "fix_gamma": "False", 
        "momentum": "0.9", 
        "use_global_stats": "False"
      }, 
      "inputs": []
    }, 
    {
      "op": "null", 
      "name": "stage3_unit5_bn1_moving_var", 
      "attrs": {
        "__init__": "[\"one\", {}]", 
        "eps": "2e-05", 
        "fix_gamma": "False", 
        "momentum": "0.9", 
        "use_global_stats": "False"
      }, 
      "inputs": []
    }, 
    {
      "op": "BatchNorm", 
      "name": "stage3_unit5_bn1", 
      "attrs": {
        "eps": "2e-05", 
        "fix_gamma": "False", 
        "momentum": "0.9", 
        "use_global_stats": "False"
      }, 
      "inputs": [[726, 0, 0], [727, 0, 0], [728, 0, 0], [729, 0, 0], [730, 0, 0]]
    }, 
    {
      "op": "Activation", 
      "name": "stage3_unit5_relu1", 
      "attrs": {"act_type": "relu"}, 
      "inputs": [[731, 0, 0]]
    }, 
    {
      "op": "min", 
      "name": "stage3_unit5_relu1_min", 
      "inputs": [[732, 0, 0]]
    }, 
    {
      "op": "max", 
      "name": "stage3_unit5_relu1_max", 
      "inputs": [[732, 0, 0]]
    }, 
    {
      "op": "_contrib_quantize", 
      "name": "stage3_unit5_relu1_quantize", 
      "attrs": {"out_type": "uint8"}, 
      "inputs": [[732, 0, 0], [733, 0, 0], [734, 0, 0]]
    }, 
    {
      "op": "null", 
      "name": "stage3_unit5_conv1_weight_quantize", 
      "inputs": []
    }, 
    {
      "op": "null", 
      "name": "stage3_unit5_conv1_weight_quantize_min", 
      "inputs": []
    }, 
    {
      "op": "null", 
      "name": "stage3_unit5_conv1_weight_quantize_max", 
      "inputs": []
    }, 
    {
      "op": "_contrib_quantized_conv", 
      "name": "quantized_stage3_unit5_conv1", 
      "attrs": {
        "cudnn_off": "False", 
        "cudnn_tune": "limited_workspace", 
        "dilate": "(1,1)", 
        "kernel": "(1,1)", 
        "no_bias": "True", 
        "num_filter": "256", 
        "num_group": "1", 
        "pad": "(0,0)", 
        "stride": "(1,1)", 
        "workspace": "512"
      }, 
      "inputs": [[735, 0, 0], [736, 0, 0], [735, 1, 0], [735, 2, 0], [737, 0, 0], [738, 0, 0]]
    }, 
    {
      "op": "_contrib_requantize", 
      "name": "requantize_stage3_unit5_conv1", 
      "inputs": [[739, 0, 0], [739, 1, 0], [739, 2, 0]]
    }, 
    {
      "op": "_contrib_dequantize", 
      "name": "stage3_unit5_conv1_dequantize", 
      "inputs": [[740, 0, 0], [740, 1, 0], [740, 2, 0]]
    }, 
    {
      "op": "null", 
      "name": "stage3_unit5_bn2_gamma", 
      "inputs": []
    }, 
    {
      "op": "null", 
      "name": "stage3_unit5_bn2_beta", 
      "inputs": []
    }, 
    {
      "op": "null", 
      "name": "stage3_unit5_bn2_moving_mean", 
      "attrs": {
        "__init__": "[\"zero\", {}]", 
        "eps": "2e-05", 
        "fix_gamma": "False", 
        "momentum": "0.9", 
        "use_global_stats": "False"
      }, 
      "inputs": []
    }, 
    {
      "op": "null", 
      "name": "stage3_unit5_bn2_moving_var", 
      "attrs": {
        "__init__": "[\"one\", {}]", 
        "eps": "2e-05", 
        "fix_gamma": "False", 
        "momentum": "0.9", 
        "use_global_stats": "False"
      }, 
      "inputs": []
    }, 
    {
      "op": "BatchNorm", 
      "name": "stage3_unit5_bn2", 
      "attrs": {
        "eps": "2e-05", 
        "fix_gamma": "False", 
        "momentum": "0.9", 
        "use_global_stats": "False"
      }, 
      "inputs": [[741, 0, 0], [742, 0, 0], [743, 0, 0], [744, 0, 0], [745, 0, 0]]
    }, 
    {
      "op": "Activation", 
      "name": "stage3_unit5_relu2", 
      "attrs": {"act_type": "relu"}, 
      "inputs": [[746, 0, 0]]
    }, 
    {
      "op": "min", 
      "name": "stage3_unit5_relu2_min", 
      "inputs": [[747, 0, 0]]
    }, 
    {
      "op": "max", 
      "name": "stage3_unit5_relu2_max", 
      "inputs": [[747, 0, 0]]
    }, 
    {
      "op": "_contrib_quantize", 
      "name": "stage3_unit5_relu2_quantize", 
      "attrs": {"out_type": "uint8"}, 
      "inputs": [[747, 0, 0], [748, 0, 0], [749, 0, 0]]
    }, 
    {
      "op": "null", 
      "name": "stage3_unit5_conv2_weight_quantize", 
      "inputs": []
    }, 
    {
      "op": "null", 
      "name": "stage3_unit5_conv2_weight_quantize_min", 
      "inputs": []
    }, 
    {
      "op": "null", 
      "name": "stage3_unit5_conv2_weight_quantize_max", 
      "inputs": []
    }, 
    {
      "op": "_contrib_quantized_conv", 
      "name": "quantized_stage3_unit5_conv2", 
      "attrs": {
        "cudnn_off": "False", 
        "cudnn_tune": "limited_workspace", 
        "dilate": "(1,1)", 
        "kernel": "(3,3)", 
        "no_bias": "True", 
        "num_filter": "256", 
        "num_group": "1", 
        "pad": "(1,1)", 
        "stride": "(1,1)", 
        "workspace": "512"
      }, 
      "inputs": [[750, 0, 0], [751, 0, 0], [750, 1, 0], [750, 2, 0], [752, 0, 0], [753, 0, 0]]
    }, 
    {
      "op": "_contrib_requantize", 
      "name": "requantize_stage3_unit5_conv2", 
      "inputs": [[754, 0, 0], [754, 1, 0], [754, 2, 0]]
    }, 
    {
      "op": "_contrib_dequantize", 
      "name": "stage3_unit5_conv2_dequantize", 
      "inputs": [[755, 0, 0], [755, 1, 0], [755, 2, 0]]
    }, 
    {
      "op": "null", 
      "name": "stage3_unit5_bn3_gamma", 
      "inputs": []
    }, 
    {
      "op": "null", 
      "name": "stage3_unit5_bn3_beta", 
      "inputs": []
    }, 
    {
      "op": "null", 
      "name": "stage3_unit5_bn3_moving_mean", 
      "attrs": {
        "__init__": "[\"zero\", {}]", 
        "eps": "2e-05", 
        "fix_gamma": "False", 
        "momentum": "0.9", 
        "use_global_stats": "False"
      }, 
      "inputs": []
    }, 
    {
      "op": "null", 
      "name": "stage3_unit5_bn3_moving_var", 
      "attrs": {
        "__init__": "[\"one\", {}]", 
        "eps": "2e-05", 
        "fix_gamma": "False", 
        "momentum": "0.9", 
        "use_global_stats": "False"
      }, 
      "inputs": []
    }, 
    {
      "op": "BatchNorm", 
      "name": "stage3_unit5_bn3", 
      "attrs": {
        "eps": "2e-05", 
        "fix_gamma": "False", 
        "momentum": "0.9", 
        "use_global_stats": "False"
      }, 
      "inputs": [[756, 0, 0], [757, 0, 0], [758, 0, 0], [759, 0, 0], [760, 0, 0]]
    }, 
    {
      "op": "Activation", 
      "name": "stage3_unit5_relu3", 
      "attrs": {"act_type": "relu"}, 
      "inputs": [[761, 0, 0]]
    }, 
    {
      "op": "min", 
      "name": "stage3_unit5_relu3_min", 
      "inputs": [[762, 0, 0]]
    }, 
    {
      "op": "max", 
      "name": "stage3_unit5_relu3_max", 
      "inputs": [[762, 0, 0]]
    }, 
    {
      "op": "_contrib_quantize", 
      "name": "stage3_unit5_relu3_quantize", 
      "attrs": {"out_type": "uint8"}, 
      "inputs": [[762, 0, 0], [763, 0, 0], [764, 0, 0]]
    }, 
    {
      "op": "null", 
      "name": "stage3_unit5_conv3_weight_quantize", 
      "inputs": []
    }, 
    {
      "op": "null", 
      "name": "stage3_unit5_conv3_weight_quantize_min", 
      "inputs": []
    }, 
    {
      "op": "null", 
      "name": "stage3_unit5_conv3_weight_quantize_max", 
      "inputs": []
    }, 
    {
      "op": "_contrib_quantized_conv", 
      "name": "quantized_stage3_unit5_conv3", 
      "attrs": {
        "cudnn_off": "False", 
        "cudnn_tune": "limited_workspace", 
        "dilate": "(1,1)", 
        "kernel": "(1,1)", 
        "no_bias": "True", 
        "num_filter": "1024", 
        "num_group": "1", 
        "pad": "(0,0)", 
        "stride": "(1,1)", 
        "workspace": "512"
      }, 
      "inputs": [[765, 0, 0], [766, 0, 0], [765, 1, 0], [765, 2, 0], [767, 0, 0], [768, 0, 0]]
    }, 
    {
      "op": "_contrib_requantize", 
      "name": "requantize_stage3_unit5_conv3", 
      "inputs": [[769, 0, 0], [769, 1, 0], [769, 2, 0]]
    }, 
    {
      "op": "_contrib_dequantize", 
      "name": "stage3_unit5_conv3_dequantize", 
      "inputs": [[770, 0, 0], [770, 1, 0], [770, 2, 0]]
    }, 
    {
      "op": "elemwise_add", 
      "name": "_plus15", 
      "inputs": [[771, 0, 0], [726, 0, 0]]
    }, 
    {
      "op": "null", 
      "name": "stage3_unit6_bn1_gamma", 
      "inputs": []
    }, 
    {
      "op": "null", 
      "name": "stage3_unit6_bn1_beta", 
      "inputs": []
    }, 
    {
      "op": "null", 
      "name": "stage3_unit6_bn1_moving_mean", 
      "attrs": {
        "__init__": "[\"zero\", {}]", 
        "eps": "2e-05", 
        "fix_gamma": "False", 
        "momentum": "0.9", 
        "use_global_stats": "False"
      }, 
      "inputs": []
    }, 
    {
      "op": "null", 
      "name": "stage3_unit6_bn1_moving_var", 
      "attrs": {
        "__init__": "[\"one\", {}]", 
        "eps": "2e-05", 
        "fix_gamma": "False", 
        "momentum": "0.9", 
        "use_global_stats": "False"
      }, 
      "inputs": []
    }, 
    {
      "op": "BatchNorm", 
      "name": "stage3_unit6_bn1", 
      "attrs": {
        "eps": "2e-05", 
        "fix_gamma": "False", 
        "momentum": "0.9", 
        "use_global_stats": "False"
      }, 
      "inputs": [[772, 0, 0], [773, 0, 0], [774, 0, 0], [775, 0, 0], [776, 0, 0]]
    }, 
    {
      "op": "Activation", 
      "name": "stage3_unit6_relu1", 
      "attrs": {"act_type": "relu"}, 
      "inputs": [[777, 0, 0]]
    }, 
    {
      "op": "min", 
      "name": "stage3_unit6_relu1_min", 
      "inputs": [[778, 0, 0]]
    }, 
    {
      "op": "max", 
      "name": "stage3_unit6_relu1_max", 
      "inputs": [[778, 0, 0]]
    }, 
    {
      "op": "_contrib_quantize", 
      "name": "stage3_unit6_relu1_quantize", 
      "attrs": {"out_type": "uint8"}, 
      "inputs": [[778, 0, 0], [779, 0, 0], [780, 0, 0]]
    }, 
    {
      "op": "null", 
      "name": "stage3_unit6_conv1_weight_quantize", 
      "inputs": []
    }, 
    {
      "op": "null", 
      "name": "stage3_unit6_conv1_weight_quantize_min", 
      "inputs": []
    }, 
    {
      "op": "null", 
      "name": "stage3_unit6_conv1_weight_quantize_max", 
      "inputs": []
    }, 
    {
      "op": "_contrib_quantized_conv", 
      "name": "quantized_stage3_unit6_conv1", 
      "attrs": {
        "cudnn_off": "False", 
        "cudnn_tune": "limited_workspace", 
        "dilate": "(1,1)", 
        "kernel": "(1,1)", 
        "no_bias": "True", 
        "num_filter": "256", 
        "num_group": "1", 
        "pad": "(0,0)", 
        "stride": "(1,1)", 
        "workspace": "512"
      }, 
      "inputs": [[781, 0, 0], [782, 0, 0], [781, 1, 0], [781, 2, 0], [783, 0, 0], [784, 0, 0]]
    }, 
    {
      "op": "_contrib_requantize", 
      "name": "requantize_stage3_unit6_conv1", 
      "inputs": [[785, 0, 0], [785, 1, 0], [785, 2, 0]]
    }, 
    {
      "op": "_contrib_dequantize", 
      "name": "stage3_unit6_conv1_dequantize", 
      "inputs": [[786, 0, 0], [786, 1, 0], [786, 2, 0]]
    }, 
    {
      "op": "null", 
      "name": "stage3_unit6_bn2_gamma", 
      "inputs": []
    }, 
    {
      "op": "null", 
      "name": "stage3_unit6_bn2_beta", 
      "inputs": []
    }, 
    {
      "op": "null", 
      "name": "stage3_unit6_bn2_moving_mean", 
      "attrs": {
        "__init__": "[\"zero\", {}]", 
        "eps": "2e-05", 
        "fix_gamma": "False", 
        "momentum": "0.9", 
        "use_global_stats": "False"
      }, 
      "inputs": []
    }, 
    {
      "op": "null", 
      "name": "stage3_unit6_bn2_moving_var", 
      "attrs": {
        "__init__": "[\"one\", {}]", 
        "eps": "2e-05", 
        "fix_gamma": "False", 
        "momentum": "0.9", 
        "use_global_stats": "False"
      }, 
      "inputs": []
    }, 
    {
      "op": "BatchNorm", 
      "name": "stage3_unit6_bn2", 
      "attrs": {
        "eps": "2e-05", 
        "fix_gamma": "False", 
        "momentum": "0.9", 
        "use_global_stats": "False"
      }, 
      "inputs": [[787, 0, 0], [788, 0, 0], [789, 0, 0], [790, 0, 0], [791, 0, 0]]
    }, 
    {
      "op": "Activation", 
      "name": "stage3_unit6_relu2", 
      "attrs": {"act_type": "relu"}, 
      "inputs": [[792, 0, 0]]
    }, 
    {
      "op": "min", 
      "name": "stage3_unit6_relu2_min", 
      "inputs": [[793, 0, 0]]
    }, 
    {
      "op": "max", 
      "name": "stage3_unit6_relu2_max", 
      "inputs": [[793, 0, 0]]
    }, 
    {
      "op": "_contrib_quantize", 
      "name": "stage3_unit6_relu2_quantize", 
      "attrs": {"out_type": "uint8"}, 
      "inputs": [[793, 0, 0], [794, 0, 0], [795, 0, 0]]
    }, 
    {
      "op": "null", 
      "name": "stage3_unit6_conv2_weight_quantize", 
      "inputs": []
    }, 
    {
      "op": "null", 
      "name": "stage3_unit6_conv2_weight_quantize_min", 
      "inputs": []
    }, 
    {
      "op": "null", 
      "name": "stage3_unit6_conv2_weight_quantize_max", 
      "inputs": []
    }, 
    {
      "op": "_contrib_quantized_conv", 
      "name": "quantized_stage3_unit6_conv2", 
      "attrs": {
        "cudnn_off": "False", 
        "cudnn_tune": "limited_workspace", 
        "dilate": "(1,1)", 
        "kernel": "(3,3)", 
        "no_bias": "True", 
        "num_filter": "256", 
        "num_group": "1", 
        "pad": "(1,1)", 
        "stride": "(1,1)", 
        "workspace": "512"
      }, 
      "inputs": [[796, 0, 0], [797, 0, 0], [796, 1, 0], [796, 2, 0], [798, 0, 0], [799, 0, 0]]
    }, 
    {
      "op": "_contrib_requantize", 
      "name": "requantize_stage3_unit6_conv2", 
      "inputs": [[800, 0, 0], [800, 1, 0], [800, 2, 0]]
    }, 
    {
      "op": "_contrib_dequantize", 
      "name": "stage3_unit6_conv2_dequantize", 
      "inputs": [[801, 0, 0], [801, 1, 0], [801, 2, 0]]
    }, 
    {
      "op": "null", 
      "name": "stage3_unit6_bn3_gamma", 
      "inputs": []
    }, 
    {
      "op": "null", 
      "name": "stage3_unit6_bn3_beta", 
      "inputs": []
    }, 
    {
      "op": "null", 
      "name": "stage3_unit6_bn3_moving_mean", 
      "attrs": {
        "__init__": "[\"zero\", {}]", 
        "eps": "2e-05", 
        "fix_gamma": "False", 
        "momentum": "0.9", 
        "use_global_stats": "False"
      }, 
      "inputs": []
    }, 
    {
      "op": "null", 
      "name": "stage3_unit6_bn3_moving_var", 
      "attrs": {
        "__init__": "[\"one\", {}]", 
        "eps": "2e-05", 
        "fix_gamma": "False", 
        "momentum": "0.9", 
        "use_global_stats": "False"
      }, 
      "inputs": []
    }, 
    {
      "op": "BatchNorm", 
      "name": "stage3_unit6_bn3", 
      "attrs": {
        "eps": "2e-05", 
        "fix_gamma": "False", 
        "momentum": "0.9", 
        "use_global_stats": "False"
      }, 
      "inputs": [[802, 0, 0], [803, 0, 0], [804, 0, 0], [805, 0, 0], [806, 0, 0]]
    }, 
    {
      "op": "Activation", 
      "name": "stage3_unit6_relu3", 
      "attrs": {"act_type": "relu"}, 
      "inputs": [[807, 0, 0]]
    }, 
    {
      "op": "min", 
      "name": "stage3_unit6_relu3_min", 
      "inputs": [[808, 0, 0]]
    }, 
    {
      "op": "max", 
      "name": "stage3_unit6_relu3_max", 
      "inputs": [[808, 0, 0]]
    }, 
    {
      "op": "_contrib_quantize", 
      "name": "stage3_unit6_relu3_quantize", 
      "attrs": {"out_type": "uint8"}, 
      "inputs": [[808, 0, 0], [809, 0, 0], [810, 0, 0]]
    }, 
    {
      "op": "null", 
      "name": "stage3_unit6_conv3_weight_quantize", 
      "inputs": []
    }, 
    {
      "op": "null", 
      "name": "stage3_unit6_conv3_weight_quantize_min", 
      "inputs": []
    }, 
    {
      "op": "null", 
      "name": "stage3_unit6_conv3_weight_quantize_max", 
      "inputs": []
    }, 
    {
      "op": "_contrib_quantized_conv", 
      "name": "quantized_stage3_unit6_conv3", 
      "attrs": {
        "cudnn_off": "False", 
        "cudnn_tune": "limited_workspace", 
        "dilate": "(1,1)", 
        "kernel": "(1,1)", 
        "no_bias": "True", 
        "num_filter": "1024", 
        "num_group": "1", 
        "pad": "(0,0)", 
        "stride": "(1,1)", 
        "workspace": "512"
      }, 
      "inputs": [[811, 0, 0], [812, 0, 0], [811, 1, 0], [811, 2, 0], [813, 0, 0], [814, 0, 0]]
    }, 
    {
      "op": "_contrib_requantize", 
      "name": "requantize_stage3_unit6_conv3", 
      "inputs": [[815, 0, 0], [815, 1, 0], [815, 2, 0]]
    }, 
    {
      "op": "_contrib_dequantize", 
      "name": "stage3_unit6_conv3_dequantize", 
      "inputs": [[816, 0, 0], [816, 1, 0], [816, 2, 0]]
    }, 
    {
      "op": "elemwise_add", 
      "name": "_plus16", 
      "inputs": [[817, 0, 0], [772, 0, 0]]
    }, 
    {
      "op": "null", 
      "name": "stage3_unit7_bn1_gamma", 
      "inputs": []
    }, 
    {
      "op": "null", 
      "name": "stage3_unit7_bn1_beta", 
…
      "op": "Activation", 
      "name": "stage4_unit2_relu3", 
      "attrs": {"act_type": "relu"}, 
      "inputs": [[2285, 0, 0]]
    }, 
    {
      "op": "min", 
      "name": "stage4_unit2_relu3_min", 
      "inputs": [[2286, 0, 0]]
    }, 
    {
      "op": "max", 
      "name": "stage4_unit2_relu3_max", 
      "inputs": [[2286, 0, 0]]
    }, 
    {
      "op": "_contrib_quantize", 
      "name": "stage4_unit2_relu3_quantize", 
      "attrs": {"out_type": "uint8"}, 
      "inputs": [[2286, 0, 0], [2287, 0, 0], [2288, 0, 0]]
    }, 
    {
      "op": "null", 
      "name": "stage4_unit2_conv3_weight_quantize", 
      "inputs": []
    }, 
    {
      "op": "null", 
      "name": "stage4_unit2_conv3_weight_quantize_min", 
      "inputs": []
    }, 
    {
      "op": "null", 
      "name": "stage4_unit2_conv3_weight_quantize_max", 
      "inputs": []
    }, 
    {
      "op": "_contrib_quantized_conv", 
      "name": "quantized_stage4_unit2_conv3", 
      "attrs": {
        "cudnn_off": "False", 
        "cudnn_tune": "limited_workspace", 
        "dilate": "(1,1)", 
        "kernel": "(1,1)", 
        "no_bias": "True", 
        "num_filter": "2048", 
        "num_group": "1", 
        "pad": "(0,0)", 
        "stride": "(1,1)", 
        "workspace": "512"
      }, 
      "inputs": [[2289, 0, 0], [2290, 0, 0], [2289, 1, 0], [2289, 2, 0], [2291, 0, 0], [2292, 0, 0]]
    }, 
    {
      "op": "_contrib_requantize", 
      "name": "requantize_stage4_unit2_conv3", 
      "inputs": [[2293, 0, 0], [2293, 1, 0], [2293, 2, 0]]
    }, 
    {
      "op": "_contrib_dequantize", 
      "name": "stage4_unit2_conv3_dequantize", 
      "inputs": [[2294, 0, 0], [2294, 1, 0], [2294, 2, 0]]
    }, 
    {
      "op": "elemwise_add", 
      "name": "_plus48", 
      "inputs": [[2295, 0, 0], [2250, 0, 0]]
    }, 
    {
      "op": "null", 
      "name": "stage4_unit3_bn1_gamma", 
      "inputs": []
    }, 
    {
      "op": "null", 
      "name": "stage4_unit3_bn1_beta", 
      "inputs": []
    }, 
    {
      "op": "null", 
      "name": "stage4_unit3_bn1_moving_mean", 
      "attrs": {
        "__init__": "[\"zero\", {}]", 
        "eps": "2e-05", 
        "fix_gamma": "False", 
        "momentum": "0.9", 
        "use_global_stats": "False"
      }, 
      "inputs": []
    }, 
    {
      "op": "null", 
      "name": "stage4_unit3_bn1_moving_var", 
      "attrs": {
        "__init__": "[\"one\", {}]", 
        "eps": "2e-05", 
        "fix_gamma": "False", 
        "momentum": "0.9", 
        "use_global_stats": "False"
      }, 
      "inputs": []
    }, 
    {
      "op": "BatchNorm", 
      "name": "stage4_unit3_bn1", 
      "attrs": {
        "eps": "2e-05", 
        "fix_gamma": "False", 
        "momentum": "0.9", 
        "use_global_stats": "False"
      }, 
      "inputs": [[2296, 0, 0], [2297, 0, 0], [2298, 0, 0], [2299, 0, 0], [2300, 0, 0]]
    }, 
    {
      "op": "Activation", 
      "name": "stage4_unit3_relu1", 
      "attrs": {"act_type": "relu"}, 
      "inputs": [[2301, 0, 0]]
    }, 
    {
      "op": "min", 
      "name": "stage4_unit3_relu1_min", 
      "inputs": [[2302, 0, 0]]
    }, 
    {
      "op": "max", 
      "name": "stage4_unit3_relu1_max", 
      "inputs": [[2302, 0, 0]]
    }, 
    {
      "op": "_contrib_quantize", 
      "name": "stage4_unit3_relu1_quantize", 
      "attrs": {"out_type": "uint8"}, 
      "inputs": [[2302, 0, 0], [2303, 0, 0], [2304, 0, 0]]
    }, 
    {
      "op": "null", 
      "name": "stage4_unit3_conv1_weight_quantize", 
      "inputs": []
    }, 
    {
      "op": "null", 
      "name": "stage4_unit3_conv1_weight_quantize_min", 
      "inputs": []
    }, 
    {
      "op": "null", 
      "name": "stage4_unit3_conv1_weight_quantize_max", 
      "inputs": []
    }, 
    {
      "op": "_contrib_quantized_conv", 
      "name": "quantized_stage4_unit3_conv1", 
      "attrs": {
        "cudnn_off": "False", 
        "cudnn_tune": "limited_workspace", 
        "dilate": "(1,1)", 
        "kernel": "(1,1)", 
        "no_bias": "True", 
        "num_filter": "512", 
        "num_group": "1", 
        "pad": "(0,0)", 
        "stride": "(1,1)", 
        "workspace": "512"
      }, 
      "inputs": [[2305, 0, 0], [2306, 0, 0], [2305, 1, 0], [2305, 2, 0], [2307, 0, 0], [2308, 0, 0]]
    }, 
    {
      "op": "_contrib_requantize", 
      "name": "requantize_stage4_unit3_conv1", 
      "inputs": [[2309, 0, 0], [2309, 1, 0], [2309, 2, 0]]
    }, 
    {
      "op": "_contrib_dequantize", 
      "name": "stage4_unit3_conv1_dequantize", 
      "inputs": [[2310, 0, 0], [2310, 1, 0], [2310, 2, 0]]
    }, 
    {
      "op": "null", 
      "name": "stage4_unit3_bn2_gamma", 
      "inputs": []
    }, 
    {
      "op": "null", 
      "name": "stage4_unit3_bn2_beta", 
      "inputs": []
    }, 
    {
      "op": "null", 
      "name": "stage4_unit3_bn2_moving_mean", 
      "attrs": {
        "__init__": "[\"zero\", {}]", 
        "eps": "2e-05", 
        "fix_gamma": "False", 
        "momentum": "0.9", 
        "use_global_stats": "False"
      }, 
      "inputs": []
    }, 
    {
      "op": "null", 
      "name": "stage4_unit3_bn2_moving_var", 
      "attrs": {
        "__init__": "[\"one\", {}]", 
        "eps": "2e-05", 
        "fix_gamma": "False", 
        "momentum": "0.9", 
        "use_global_stats": "False"
      }, 
      "inputs": []
    }, 
    {
      "op": "BatchNorm", 
      "name": "stage4_unit3_bn2", 
      "attrs": {
        "eps": "2e-05", 
        "fix_gamma": "False", 
        "momentum": "0.9", 
        "use_global_stats": "False"
      }, 
      "inputs": [[2311, 0, 0], [2312, 0, 0], [2313, 0, 0], [2314, 0, 0], [2315, 0, 0]]
    }, 
    {
      "op": "Activation", 
      "name": "stage4_unit3_relu2", 
      "attrs": {"act_type": "relu"}, 
      "inputs": [[2316, 0, 0]]
    }, 
    {
      "op": "min", 
      "name": "stage4_unit3_relu2_min", 
      "inputs": [[2317, 0, 0]]
    }, 
    {
      "op": "max", 
      "name": "stage4_unit3_relu2_max", 
      "inputs": [[2317, 0, 0]]
    }, 
    {
      "op": "_contrib_quantize", 
      "name": "stage4_unit3_relu2_quantize", 
      "attrs": {"out_type": "uint8"}, 
      "inputs": [[2317, 0, 0], [2318, 0, 0], [2319, 0, 0]]
    }, 
    {
      "op": "null", 
      "name": "stage4_unit3_conv2_weight_quantize", 
      "inputs": []
    }, 
    {
      "op": "null", 
      "name": "stage4_unit3_conv2_weight_quantize_min", 
      "inputs": []
    }, 
    {
      "op": "null", 
      "name": "stage4_unit3_conv2_weight_quantize_max", 
      "inputs": []
    }, 
    {
      "op": "_contrib_quantized_conv", 
      "name": "quantized_stage4_unit3_conv2", 
      "attrs": {
        "cudnn_off": "False", 
        "cudnn_tune": "limited_workspace", 
        "dilate": "(1,1)", 
        "kernel": "(3,3)", 
        "no_bias": "True", 
        "num_filter": "512", 
        "num_group": "1", 
        "pad": "(1,1)", 
        "stride": "(1,1)", 
        "workspace": "512"
      }, 
      "inputs": [[2320, 0, 0], [2321, 0, 0], [2320, 1, 0], [2320, 2, 0], [2322, 0, 0], [2323, 0, 0]]
    }, 
    {
      "op": "_contrib_requantize", 
      "name": "requantize_stage4_unit3_conv2", 
      "inputs": [[2324, 0, 0], [2324, 1, 0], [2324, 2, 0]]
    }, 
    {
      "op": "_contrib_dequantize", 
      "name": "stage4_unit3_conv2_dequantize", 
      "inputs": [[2325, 0, 0], [2325, 1, 0], [2325, 2, 0]]
    }, 
    {
      "op": "null", 
      "name": "stage4_unit3_bn3_gamma", 
      "inputs": []
    }, 
    {
      "op": "null", 
      "name": "stage4_unit3_bn3_beta", 
      "inputs": []
    }, 
    {
      "op": "null", 
      "name": "stage4_unit3_bn3_moving_mean", 
      "attrs": {
        "__init__": "[\"zero\", {}]", 
        "eps": "2e-05", 
        "fix_gamma": "False", 
        "momentum": "0.9", 
        "use_global_stats": "False"
      }, 
      "inputs": []
    }, 
    {
      "op": "null", 
      "name": "stage4_unit3_bn3_moving_var", 
      "attrs": {
        "__init__": "[\"one\", {}]", 
        "eps": "2e-05", 
        "fix_gamma": "False", 
        "momentum": "0.9", 
        "use_global_stats": "False"
      }, 
      "inputs": []
    }, 
    {
      "op": "BatchNorm", 
      "name": "stage4_unit3_bn3", 
      "attrs": {
        "eps": "2e-05", 
        "fix_gamma": "False", 
        "momentum": "0.9", 
        "use_global_stats": "False"
      }, 
      "inputs": [[2326, 0, 0], [2327, 0, 0], [2328, 0, 0], [2329, 0, 0], [2330, 0, 0]]
    }, 
    {
      "op": "Activation", 
      "name": "stage4_unit3_relu3", 
      "attrs": {"act_type": "relu"}, 
      "inputs": [[2331, 0, 0]]
    }, 
    {
      "op": "min", 
      "name": "stage4_unit3_relu3_min", 
      "inputs": [[2332, 0, 0]]
    }, 
    {
      "op": "max", 
      "name": "stage4_unit3_relu3_max", 
      "inputs": [[2332, 0, 0]]
    }, 
    {
      "op": "_contrib_quantize", 
      "name": "stage4_unit3_relu3_quantize", 
      "attrs": {"out_type": "uint8"}, 
      "inputs": [[2332, 0, 0], [2333, 0, 0], [2334, 0, 0]]
    }, 
    {
      "op": "null", 
      "name": "stage4_unit3_conv3_weight_quantize", 
      "inputs": []
    }, 
    {
      "op": "null", 
      "name": "stage4_unit3_conv3_weight_quantize_min", 
      "inputs": []
    }, 
    {
      "op": "null", 
      "name": "stage4_unit3_conv3_weight_quantize_max", 
      "inputs": []
    }, 
    {
      "op": "_contrib_quantized_conv", 
      "name": "quantized_stage4_unit3_conv3", 
      "attrs": {
        "cudnn_off": "False", 
        "cudnn_tune": "limited_workspace", 
        "dilate": "(1,1)", 
        "kernel": "(1,1)", 
        "no_bias": "True", 
        "num_filter": "2048", 
        "num_group": "1", 
        "pad": "(0,0)", 
        "stride": "(1,1)", 
        "workspace": "512"
      }, 
      "inputs": [[2335, 0, 0], [2336, 0, 0], [2335, 1, 0], [2335, 2, 0], [2337, 0, 0], [2338, 0, 0]]
    }, 
    {
      "op": "_contrib_requantize", 
      "name": "requantize_stage4_unit3_conv3", 
      "inputs": [[2339, 0, 0], [2339, 1, 0], [2339, 2, 0]]
    }, 
    {
      "op": "_contrib_dequantize", 
      "name": "stage4_unit3_conv3_dequantize", 
      "inputs": [[2340, 0, 0], [2340, 1, 0], [2340, 2, 0]]
    }, 
    {
      "op": "elemwise_add", 
      "name": "_plus49", 
      "inputs": [[2341, 0, 0], [2296, 0, 0]]
    }, 
    {
      "op": "null", 
      "name": "bn1_gamma", 
      "inputs": []
    }, 
    {
      "op": "null", 
      "name": "bn1_beta", 
      "inputs": []
    }, 
    {
      "op": "null", 
      "name": "bn1_moving_mean", 
      "attrs": {
        "__init__": "[\"zero\", {}]", 
        "eps": "2e-05", 
        "fix_gamma": "False", 
        "momentum": "0.9", 
        "use_global_stats": "False"
      }, 
      "inputs": []
    }, 
    {
      "op": "null", 
      "name": "bn1_moving_var", 
      "attrs": {
        "__init__": "[\"one\", {}]", 
        "eps": "2e-05", 
        "fix_gamma": "False", 
        "momentum": "0.9", 
        "use_global_stats": "False"
      }, 
      "inputs": []
    }, 
    {
      "op": "BatchNorm", 
      "name": "bn1", 
      "attrs": {
        "eps": "2e-05", 
        "fix_gamma": "False", 
        "momentum": "0.9", 
        "use_global_stats": "False"
      }, 
      "inputs": [[2342, 0, 0], [2343, 0, 0], [2344, 0, 0], [2345, 0, 0], [2346, 0, 0]]
    }, 
    {
      "op": "Activation", 
      "name": "relu1", 
      "attrs": {"act_type": "relu"}, 
      "inputs": [[2347, 0, 0]]
    }, 
    {
      "op": "min", 
      "name": "relu1_min", 
      "inputs": [[2348, 0, 0]]
    }, 
    {
      "op": "max", 
      "name": "relu1_max", 
      "inputs": [[2348, 0, 0]]
    }, 
    {
      "op": "_contrib_quantize", 
      "name": "relu1_quantize", 
      "attrs": {"out_type": "uint8"}, 
      "inputs": [[2348, 0, 0], [2349, 0, 0], [2350, 0, 0]]
    }, 
    {
      "op": "_contrib_quantized_pooling", 
      "name": "quantized_pool1", 
      "attrs": {
        "global_pool": "True", 
        "kernel": "(7,7)", 
        "pad": "(0,0)", 
        "pool_type": "avg", 
        "pooling_convention": "valid", 
        "stride": "(1,1)"
      }, 
      "inputs": [[2351, 0, 0], [2351, 1, 0], [2351, 2, 0]]
    }, 
    {
      "op": "_contrib_quantized_flatten", 
      "name": "quantized_flatten0", 
      "inputs": [[2352, 0, 0], [2352, 1, 0], [2352, 2, 0]]
    }, 
    {
      "op": "_contrib_dequantize", 
      "name": "flatten0_dequantize", 
      "inputs": [[2353, 0, 0], [2353, 1, 0], [2353, 2, 0]]
    }, 
    {
      "op": "null", 
      "name": "fc1_weight", 
      "inputs": []
    }, 
    {
      "op": "null", 
      "name": "fc1_bias", 
      "inputs": []
    }, 
    {
      "op": "FullyConnected", 
      "name": "fc1", 
      "attrs": {
        "no_bias": "False", 
        "num_hidden": "1000"
      }, 
      "inputs": [[2354, 0, 0], [2355, 0, 0], [2356, 0, 0]]
    }, 
    {
      "op": "null", 
      "name": "softmax_label", 
      "inputs": []
    }, 
    {
      "op": "SoftmaxOutput", 
      "name": "softmax", 
      "attrs": {
        "grad_scale": "1", 
        "ignore_label": "-1", 
        "multi_output": "False", 
        "normalization": "null", 
        "out_grad": "False", 
        "preserve_shape": "False", 
        "use_ignore": "False"
      }, 
      "inputs": [[2357, 0, 0], [2358, 0, 0]]
    }
  ], 
  "arg_nodes": [
    0, 
    1, 
    2, 
    3, 
    4, 
    6, 
    8, 
    9, 
    10, 
    11, 
    19, 
    20, 
    21, 
    22, 
    28, 
    29, 
    30, 
    34, 
    35, 
    36, 
    37, 
    43, 
    44, 
    45, 
    49, 
    50, 
    51, 
    52, 
    58, 
    59, 
    60, 
    64, 
    65, 
    66, 
    71, 
    72, 
    73, 
    74, 
    80, 
    81, 
    82, 
    86, 
    87, 
    88, 
    89, 
    95, 
    96, 
    97, 
    101, 
    102, 
    103, 
    104, 
    110, 
    111, 
    112, 
    117, 
    118, 
    119, 
    120, 
    126, 
    127, 
    128, 
    132, 
    133, 
    134, 
    135, 
    141, 
    142, 
    143, 
    147, 
    148, 
    149, 
    150, 
    156, 
    157, 
    158, 
    163, 
    164, 
    165, 
    166, 
    172, 
    173, 
    174, 
    178, 
    179, 
    180, 
    181, 
    187, 
    188, 
    189, 
    193, 
    194, 
    195, 
    196, 
    202, 
    203, 
    204, 
    208, 
    209, 
    210, 
    215, 
    216, 
    217, 
    218, 
    224, 
    225, 
    226, 
    230, 
    231, 
    232, 
    233, 
    239, 
    240, 
    241, 
    245, 
    246, 
    247, 
    248, 
    254, 
    255, 
    256, 
    261, 
    262, 
    263, 
    264, 
    270, 
    271, 
    272, 
    276, 
    277, 
    278, 
    279, 
    285, 
    286, 
    287, 
    291, 
    292, 
    293, 
    294, 
    300, 
    301, 
    302, 
    307, 
    308, 
    309, 
    310, 
    316, 
    317, 
    318, 
    322, 
    323, 
    324, 
    325, 
    331, 
    332, 
    333, 
    337, 
    338, 
    339, 
    340, 
    346, 
    347, 
    348, 
    353, 
    354, 
    355, 
    356, 
    362, 
    363, 
    364, 
    368, 
    369, 
    370, 
    371, 
    377, 
    378, 
    379, 
    383, 
    384, 
    385, 
    386, 
    392, 
    393, 
    394, 
    399, 
    400, 
    401, 
    402, 
    408, 
    409, 
    410, 
    414, 
    415, 
    416, 
    417, 
    423, 
    424, 
    425, 
    429, 
    430, 
    431, 
    432, 
    438, 
    439, 
    440, 
    445, 
    446, 
    447, 
    448, 
    454, 
    455, 
    456, 
    460, 
    461, 
    462, 
    463, 
    469, 
    470, 
    471, 
    475, 
    476, 
    477, 
    478, 
    484, 
    485, 
    486, 
    491, 
    492, 
    493, 
    494, 
    500, 
    501, 
    502, 
    506, 
    507, 
    508, 
    509, 
    515, 
    516, 
    517, 
    521, 
    522, 
    523, 
    524, 
    530, 
    531, 
    532, 
    537, 
    538, 
    539, 
    540, 
    546, 
    547, 
    548, 
    552, 
    553, 
    554, 
    555, 
    561, 
    562, 
    563, 
    567, 
    568, 
    569, 
    570, 
    576, 
    577, 
    578, 
    582, 
    583, 
    584, 
    589, 
    590, 
    591, 
    592, 
    598, 
    599, 
    600, 
    604, 
    605, 
    606, 
    607, 
    613, 
    614, 
    615, 
    619, 
    620, 
    621, 
    622, 
    628, 
    629, 
    630, 
    635, 
    636, 
    637, 
    638, 
    644, 
    645, 
    646, 
    650, 
    651, 
    652, 
    653, 
    659, 
    660, 
    661, 
    665, 
    666, 
    667, 
    668, 
    674, 
    675, 
    676, 
    681, 
    682, 
    683, 
    684, 
    690, 
    691, 
    692, 
    696, 
    697, 
    698, 
    699, 
    705, 
    706, 
    707, 
    711, 
    712, 
    713, 
    714, 
    720, 
    721, 
    722, 
    727, 
    728, 
    729, 
    730, 
    736, 
    737, 
    738, 
    742, 
    743, 
    744, 
    745, 
    751, 
    752, 
    753, 
    757, 
    758, 
    759, 
    760, 
    766, 
    767, 
    768, 
    773, 
    774, 
    775, 
    776, 
    782, 
    783, 
    784, 
    788, 
    789, 
    790, 
    791, 
    797, 
    798, 
    799, 
    803, 
    804, 
    805, 
    806, 
    812, 
    813, 
    814, 
    819, 
    820, 
    821, 
    822, 
    828, 
    829, 
    830, 
    834, 
    835, 
    836, 
    837, 
    843, 
    844, 
    845, 
    849, 
    850, 
    851, 
    852, 
    858, 
    859, 
    860, 
    865, 
    866, 
    867, 
    868, 
    874, 
    875, 
    876, 
    880, 
    881, 
    882, 
    883, 
    889, 
    890, 
    891, 
    895, 
    896, 
    897, 
    898, 
    904, 
    905, 
    906, 
    911, 
    912, 
    913, 
    914, 
    920, 
    921, 
    922, 
    926, 
    927, 
    928, 
    929, 
    935, 
    936, 
    937, 
    941, 
    942, 
    943, 
    944, 
    950, 
    951, 
    952, 
    957, 
    958, 
    959, 
    960, 
    966, 
    967, 
    968, 
    972, 
    973, 
    974, 
    975, 
    981, 
    982, 
    983, 
    987, 
    988, 
    989, 
    990, 
    996, 
    997, 
    998, 
    1003, 
    1004, 
    1005, 
    1006, 
    1012, 
    1013, 
    1014, 
    1018, 
    1019, 
    1020, 
    1021, 
    1027, 
    1028, 
    1029, 
    1033, 
    1034, 
    1035, 
    1036, 
    1042, 
    1043, 
    1044, 
    1049, 
    1050, 
    1051, 
    1052, 
    1058, 
    1059, 
    1060, 
    1064, 
    1065, 
    1066, 
    1067, 
    1073, 
    1074, 
    1075, 
    1079, 
    1080, 
    1081, 
    1082, 
    1088, 
    1089, 
    1090, 
    1095, 
    1096, 
    1097, 
    1098, 
    1104, 
    1105, 
    1106, 
    1110, 
    1111, 
    1112, 
    1113, 
    1119, 
    1120, 
    1121, 
    1125, 
    1126, 
    1127, 
    1128, 
    1134, 
    1135, 
    1136, 
    1141, 
    1142, 
    1143, 
    1144, 
    1150, 
    1151, 
    1152, 
    1156, 
    1157, 
    1158, 
    1159, 
    1165, 
    1166, 
    1167, 
    1171, 
    1172, 
    1173, 
    1174, 
    1180, 
    1181, 
    1182, 
    1187, 
    1188, 
    1189, 
    1190, 
    1196, 
    1197, 
    1198, 
    1202, 
    1203, 
    1204, 
    1205, 
    1211, 
    1212, 
    1213, 
    1217, 
    1218, 
    1219, 
    1220, 
    1226, 
    1227, 
    1228, 
    1233, 
    1234, 
    1235, 
    1236, 
    1242, 
    1243, 
    1244, 
    1248, 
    1249, 
    1250, 
    1251, 
    1257, 
    1258, 
    1259, 
    1263, 
    1264, 
    1265, 
    1266, 
    1272, 
    1273, 
    1274, 
    1279, 
    1280, 
    1281, 
    1282, 
    1288, 
    1289, 
    1290, 
    1294, 
    1295, 
    1296, 
    1297, 
    1303, 
    1304, 
    1305, 
    1309, 
    1310, 
    1311, 
    1312, 
    1318, 
    1319, 
    1320, 
    1325, 
    1326, 
    1327, 
    1328, 
    1334, 
    1335, 
    1336, 
    1340, 
    1341, 
    1342, 
    1343, 
    1349, 
    1350, 
    1351, 
    1355, 
    1356, 
    1357, 
    1358, 
    1364, 
    1365, 
    1366, 
    1371, 
    1372, 
    1373, 
    1374, 
    1380, 
    1381, 
    1382, 
    1386, 
    1387, 
    1388, 
    1389, 
    1395, 
    1396, 
    1397, 
    1401, 
    1402, 
    1403, 
    1404, 
    1410, 
    1411, 
    1412, 
    1417, 
    1418, 
    1419, 
    1420, 
    1426, 
    1427, 
    1428, 
    1432, 
    1433, 
    1434, 
    1435, 
    1441, 
    1442, 
    1443, 
    1447, 
    1448, 
    1449, 
    1450, 
    1456, 
    1457, 
    1458, 
    1463, 
    1464, 
    1465, 
    1466, 
    1472, 
    1473, 
    1474, 
    1478, 
    1479, 
    1480, 
    1481, 
    1487, 
    1488, 
    1489, 
    1493, 
    1494, 
    1495, 
    1496, 
    1502, 
    1503, 
    1504, 
    1509, 
    1510, 
    1511, 
    1512, 
    1518, 
    1519, 
    1520, 
    1524, 
    1525, 
    1526, 
    1527, 
    1533, 
    1534, 
    1535, 
    1539, 
    1540, 
    1541, 
    1542, 
    1548, 
    1549, 
    1550, 
    1555, 
    1556, 
    1557, 
    1558, 
    1564, 
    1565, 
    1566, 
    1570, 
    1571, 
    1572, 
    1573, 
    1579, 
    1580, 
    1581, 
    1585, 
    1586, 
    1587, 
    1588, 
    1594, 
    1595, 
    1596, 
    1601, 
    1602, 
    1603, 
    1604, 
    1610, 
    1611, 
    1612, 
    1616, 
    1617, 
    1618, 
    1619, 
    1625, 
    1626, 
    1627, 
    1631, 
    1632, 
    1633, 
    1634, 
    1640, 
    1641, 
    1642, 
    1647, 
    1648, 
    1649, 
    1650, 
    1656, 
    1657, 
    1658, 
    1662, 
    1663, 
    1664, 
    1665, 
    1671, 
    1672, 
    1673, 
    1677, 
    1678, 
    1679, 
    1680, 
    1686, 
    1687, 
    1688, 
    1693, 
    1694, 
    1695, 
    1696, 
    1702, 
    1703, 
    1704, 
    1708, 
    1709, 
    1710, 
    1711, 
    1717, 
    1718, 
    1719, 
    1723, 
    1724, 
    1725, 
    1726, 
    1732, 
    1733, 
    1734, 
    1739, 
    1740, 
    1741, 
    1742, 
    1748, 
    1749, 
    1750, 
    1754, 
    1755, 
    1756, 
    1757, 
    1763, 
    1764, 
    1765, 
    1769, 
    1770, 
    1771, 
    1772, 
    1778, 
    1779, 
    1780, 
    1785, 
    1786, 
    1787, 
    1788, 
    1794, 
    1795, 
    1796, 
    1800, 
    1801, 
    1802, 
    1803, 
    1809, 
    1810, 
    1811, 
    1815, 
    1816, 
    1817, 
    1818, 
    1824, 
    1825, 
    1826, 
    1831, 
    1832, 
    1833, 
    1834, 
    1840, 
    1841, 
    1842, 
    1846, 
    1847, 
    1848, 
    1849, 
    1855, 
    1856, 
    1857, 
    1861, 
    1862, 
    1863, 
    1864, 
    1870, 
    1871, 
    1872, 
    1877, 
    1878, 
    1879, 
    1880, 
    1886, 
    1887, 
    1888, 
    1892, 
    1893, 
    1894, 
    1895, 
    1901, 
    1902, 
    1903, 
    1907, 
    1908, 
    1909, 
    1910, 
    1916, 
    1917, 
    1918, 
    1923, 
    1924, 
    1925, 
    1926, 
    1932, 
    1933, 
    1934, 
    1938, 
    1939, 
    1940, 
    1941, 
    1947, 
    1948, 
    1949, 
    1953, 
    1954, 
    1955, 
    1956, 
    1962, 
    1963, 
    1964, 
    1969, 
    1970, 
    1971, 
    1972, 
    1978, 
    1979, 
    1980, 
    1984, 
    1985, 
    1986, 
    1987, 
    1993, 
    1994, 
    1995, 
    1999, 
    2000, 
    2001, 
    2002, 
    2008, 
    2009, 
    2010, 
    2015, 
    2016, 
    2017, 
    2018, 
    2024, 
    2025, 
    2026, 
    2030, 
    2031, 
    2032, 
    2033, 
    2039, 
    2040, 
    2041, 
    2045, 
    2046, 
    2047, 
    2048, 
    2054, 
    2055, 
    2056, 
    2061, 
    2062, 
    2063, 
    2064, 
    2070, 
    2071, 
    2072, 
    2076, 
    2077, 
    2078, 
    2079, 
    2085, 
    2086, 
    2087, 
    2091, 
    2092, 
    2093, 
    2094, 
    2100, 
    2101, 
    2102, 
    2107, 
    2108, 
    2109, 
    2110, 
    2116, 
    2117, 
    2118, 
    2122, 
    2123, 
    2124, 
    2125, 
    2131, 
    2132, 
    2133, 
    2137, 
    2138, 
    2139, 
    2140, 
    2146, 
    2147, 
    2148, 
    2153, 
    2154, 
    2155, 
    2156, 
    2162, 
    2163, 
    2164, 
    2168, 
    2169, 
    2170, 
    2171, 
    2177, 
    2178, 
    2179, 
    2183, 
    2184, 
    2185, 
    2186, 
    2192, 
    2193, 
    2194, 
    2199, 
    2200, 
    2201, 
    2202, 
    2208, 
    2209, 
    2210, 
    2214, 
    2215, 
    2216, 
    2217, 
    2223, 
    2224, 
    2225, 
    2229, 
    2230, 
    2231, 
    2232, 
    2238, 
    2239, 
    2240, 
    2244, 
    2245, 
    2246, 
    2251, 
    2252, 
    2253, 
    2254, 
    2260, 
    2261, 
    2262, 
    2266, 
    2267, 
    2268, 
    2269, 
    2275, 
    2276, 
    2277, 
    2281, 
    2282, 
    2283, 
    2284, 
    2290, 
    2291, 
    2292, 
    2297, 
    2298, 
    2299, 
    2300, 
    2306, 
    2307, 
    2308, 
    2312, 
    2313, 
    2314, 
    2315, 
    2321, 
    2322, 
    2323, 
    2327, 
    2328, 
    2329, 
    2330, 
    2336, 
    2337, 
    2338, 
    2343, 
    2344, 
    2345, 
    2346, 
    2355, 
    2356, 
    2358
  ], 
  "node_row_ptr": [
    0, 
    1, 
    2, 
    3, 
    4, 
    5, 
    8, 
    9, 
    10, 
    11, 
    12, 
    13, 
    14, 
    17, 
    18, 
    19, 
    20, 
    23, 
    26, 
    27, 
    28, 
    29, 
    30, 
    31, 
    34, 
    35, 
    36, 
    37, 
    40, 
    41, 
    42, 
    43, 
    46, 
    49, 
    50, 
    51, 
    52, 
    53, 
    54, 
    57, 
    58, 
    59, 
    60, 
    63, 
    64, 
    65, 
    66, 
    69, 
    72, 
    73, 
    74, 
    75, 
    76, 
    77, 
    80, 
    81, 
    82, 
    83, 
    86, 
    87, 
    88, 
    89, 
    92, 
    95, 
    96, 
    97, 
    98, 
    99, 
    102, 
    105, 
    106, 
    107, 
    108, 
    109, 
    110, 
    111, 
    114, 
    115, 
    116, 
    117, 
    120, 
    121, 
    122, 
    123, 
    126, 
    129, 
    130, 
    131, 
    132, 
    133, 
    134, 
    137, 
    138, 
    139, 
    140, 
    143, 
    144, 
    145, 
    146, 
    149, 
    152, 
    153, 
    154, 
    155, 
    156, 
    157, 
    160, 
    161, 
    162, 
    163, 
    166, 
    167, 
    168, 
    169, 
    172, 
    175, 
    176, 
    177, 
    178, 
    179, 
    180, 
    181, 
    184, 
    185, 
    186, 
    187, 
    190, 
    191, 
    192, 
    193, 
    196, 
    199, 
    200, 
    201, 
    202, 
    203, 
    204, 
    207, 
    208, 
    209, 
    210, 
    213, 
    214, 
    215, 
    216, 
    219, 
    222, 
    223, 
    224, 
    225, 
    226, 
    227, 
    230, 
    231, 
    232, 
    233, 
    236, 
    237, 
    238, 
    239, 
    242, 
    245, 
    246, 
    247, 
    248, 
    249, 
    250, 
    251, 
    254, 
    255, 
    256, 
    257, 
    260, 
    261, 
    262, 
    263, 
    266, 
    269, 
    270, 
    271, 
    272, 
    273, 
    274, 
    277, 
    278, 
    279, 
    280, 
    283, 
    284, 
    285, 
    286, 
    289, 
    292, 
    293, 
    294, 
    295, 
    296, 
    297, 
    300, 
    301, 
    302, 
    303, 
    306, 
    307, 
    308, 
    309, 
    312, 
    315, 
    316, 
    317, 
    318, 
    319, 
    322, 
    325, 
    326, 
    327, 
    328, 
    329, 
    330, 
    331, 
    334, 
    335, 
    336, 
    337, 
    340, 
    341, 
    342, 
    343, 
    346, 
    349, 
    350, 
    351, 
    352, 
    353, 
    354, 
    357, 
    358, 
    359, 
    360, 
    363, 
    364, 
    365, 
    366, 
    369, 
    372, 
    373, 
    374, 
    375, 
    376, 
    377, 
    380, 
    381, 
    382, 
    383, 
    386, 
    387, 
    388, 
    389, 
    392, 
    395, 
    396, 
    397, 
    398, 
    399, 
    400, 
    401, 
    404, 
    405, 
    406, 
    407, 
    410, 
    411, 
    412, 
    413, 
    416, 
    419, 
    420, 
    421, 
    422, 
    423, 
    424, 
    427, 
    428, 
    429, 
    430, 
    433, 
    434, 
    435, 
    436, 
    439, 
    442, 
    443, 
    444, 
    445, 
    446, 
    447, 
    450, 
    451, 
    452, 
    453, 
    456, 
    457, 
    458, 
    459, 
    462, 
    465, 
    466, 
    467, 
    468, 
    469, 
    470, 
    471, 
    474, 
    475, 
    476, 
    477, 
    480, 
    481, 
    482, 
    483, 
    486, 
    489, 
    490, 
    491, 
    492, 
    493, 
    494, 
    497, 
    498, 
    499, 
    500, 
    503, 
    504, 
    505, 
    506, 
    509, 
    512, 
    513, 
    514, 
    515, 
    516, 
    517, 
    520, 
    521, 
    522, 
    523, 
    526, 
    527, 
    528, 
    529, 
    532, 
    535, 
    536, 
    537, 
    538, 
    539, 
    540, 
    541, 
    544, 
    545, 
    546, 
    547, 
    550, 
    551, 
    552, 
    553, 
    556, 
    559, 
    560, 
    561, 
    562, 
    563, 
    564, 
    567, 
    568, 
    569, 
    570, 
    573, 
    574, 
    575, 
    576, 
    579, 
    582, 
    583, 
    584, 
    585, 
    586, 
    587, 
    590, 
    591, 
    592, 
    593, 
    596, 
    597, 
    598, 
    599, 
    602, 
    605, 
    606, 
    607, 
    608, 
    609, 
    610, 
    611, 
    614, 
    615, 
    616, 
    617, 
    620, 
    621, 
    622, 
    623, 
    626, 
    629, 
    630, 
    631, 
    632, 
    633, 
    634, 
    637, 
    638, 
    639, 
    640, 
    643, 
    644, 
    645, 
    646, 
    649, 
    652, 
    653, 
    654, 
    655, 
    656, 
    657, 
    660, 
    661, 
    662, 
    663, 
    666, 
    667, 
    668, 
    669, 
    672, 
    675, 
    676, 
    677, 
    678, 
    679, 
    680, 
    681, 
    684, 
    685, 
    686, 
    687, 
    690, 
    691, 
    692, 
    693, 
    696, 
    699, 
    700, 
    701, 
    702, 
    703, 
    704, 
    707, 
    708, 
    709, 
    710, 
    713, 
    714, 
    715, 
    716, 
    719, 
    722, 
    723, 
    724, 
    725, 
    726, 
    727, 
    730, 
    731, 
    732, 
    733, 
    736, 
    737, 
    738, 
    739, 
    742, 
    745, 
    746, 
    747, 
    748, 
    749, 
    750, 
    751, 
    754, 
    755, 
    756, 
    757, 
    760, 
    761, 
    762, 
    763, 
    766, 
    769, 
    770, 
    771, 
    772, 
    773, 
    774, 
    777, 
    778, 
    779, 
    780, 
    783, 
    784, 
    785, 
    786, 
    789, 
    792, 
    793, 
    794, 
    795, 
    796, 
    797, 
    800, 
    801, 
    802, 
    803, 
    806, 
    807, 
    808, 
    809, 
    812, 
    815, 
    816, 
    817, 
    818, 
    819, 
    820, 
    821, 
    824, 
    825, 
    826, 
    827, 
    830, 
    831, 
    832, 
    833, 
    836, 
    839, 
    840, 
    841, 
    842, 
    843, 
    844, 
    847, 
    848, 
    849, 
    850, 
    853, 
    854, 
    855, 
    856, 
    859, 
    862, 
    863, 
    864, 
    865, 
    866, 
    867, 
    870, 
    871, 
    872, 
    873, 
    876, 
    877, 
    878, 
    879, 
    882, 
    885, 
    886, 
    887, 
    888, 
    889, 
    892, 
    895, 
    896, 
    897, 
    898, 
    899, 
    900, 
    901, 
    904, 
    905, 
    906, 
    907, 
    910, 
    911, 
    912, 
    913, 
    916, 
    919, 
    920, 
    921, 
    922, 
    923, 
    924, 
    927, 
    928, 
    929, 
    930, 
    933, 
    934, 
    935, 
    936, 
    939, 
    942, 
    943, 
    944, 
    945, 
    946, 
    947, 
    950, 
    951, 
    952, 
    953, 
    956, 
    957, 
    958, 
    959, 
    962, 
    965, 
    966, 
    967, 
    968, 
    969, 
    970, 
    971, 
    974, 
    975, 
    976, 
    977, 
    980, 
    981, 
    982, 
    983, 
    986, 
    989, 
    990, 
    991, 
    992, 
    993, 
    994, 
    997, 
    998, 
    999, 
    1000, 
    1003, 
    1004, 
    1005, 
    1006, 
    1009, 
    1012, 
    1013, 
    1014, 
    1015, 
    1016, 
    1017, 
    1020, 
    1021, 
    1022, 
    1023, 
    1026, 
    1027, 
    1028, 
    1029, 
    1032, 
    1035, 
    1036, 
    1037, 
    1038, 
    1039, 
    1040, 
    1041, 
    1044, 
    1045, 
    1046, 
    1047, 
    1050, 
    1051, 
    1052, 
    1053, 
    1056, 
    1059, 
    1060, 
    1061, 
    1062, 
    1063, 
    1064, 
    1067, 
    1068, 
    1069, 
    1070, 
    1073, 
    1074, 
    1075, 
    1076, 
    1079, 
    1082, 
    1083, 
    1084, 
    1085, 
    1086, 
    1087, 
    1090, 
    1091, 
    1092, 
    1093, 
    1096, 
    1097, 
    1098, 
    1099, 
    1102, 
    1105, 
    1106, 
    1107, 
    1108, 
    1109, 
    1110, 
    1111, 
    1114, 
    1115, 
    1116, 
    1117, 
    1120, 
    1121, 
    1122, 
    1123, 
    1126, 
    1129, 
    1130, 
    1131, 
    1132, 
    1133, 
    1134, 
    1137, 
    1138, 
    1139, 
    1140, 
    1143, 
    1144, 
    1145, 
    1146, 
    1149, 
    1152, 
    1153, 
    1154, 
    1155, 
    1156, 
    1157, 
    1160, 
    1161, 
    1162, 
    1163, 
    1166, 
    1167, 
    1168, 
    1169, 
    1172, 
    1175, 
    1176, 
    1177, 
    1178, 
    1179, 
    1180, 
    1181, 
    1184, 
    1185, 
    1186, 
    1187, 
    1190, 
    1191, 
    1192, 
    1193, 
    1196, 
    1199, 
    1200, 
    1201, 
    1202, 
    1203, 
    1204, 
    1207, 
    1208, 
    1209, 
    1210, 
    1213, 
    1214, 
    1215, 
    1216, 
    1219, 
    1222, 
    1223, 
    1224, 
    1225, 
    1226, 
    1227, 
    1230, 
    1231, 
    1232, 
    1233, 
    1236, 
    1237, 
    1238, 
    1239, 
    1242, 
    1245, 
    1246, 
    1247, 
    1248, 
    1249, 
    1250, 
    1251, 
    1254, 
    1255, 
    1256, 
    1257, 
    1260, 
    1261, 
    1262, 
    1263, 
    1266, 
    1269, 
    1270, 
    1271, 
    1272, 
    1273, 
    1274, 
    1277, 
    1278, 
    1279, 
    1280, 
    1283, 
    1284, 
    1285, 
    1286, 
    1289, 
    1292, 
    1293, 
    1294, 
    1295, 
    1296, 
    1297, 
    1300, 
    1301, 
    1302, 
    1303, 
    1306, 
    1307, 
    1308, 
    1309, 
    1312, 
    1315, 
    1316, 
    1317, 
    1318, 
    1319, 
    1320, 
    1321, 
    1324, 
    1325, 
    1326, 
    1327, 
    1330, 
    1331, 
    1332, 
    1333, 
    1336, 
    1339, 
    1340, 
    1341, 
    1342, 
    1343, 
    1344, 
    1347, 
    1348, 
    1349, 
    1350, 
    1353, 
    1354, 
    1355, 
    1356, 
    1359, 
    1362, 
    1363, 
    1364, 
    1365, 
    1366, 
    1367, 
    1370, 
    1371, 
    1372, 
    1373, 
    1376, 
    1377, 
    1378, 
    1379, 
    1382, 
    1385, 
    1386, 
    1387, 
    1388, 
    1389, 
    1390, 
    1391, 
    1394, 
    1395, 
    1396, 
    1397, 
    1400, 
    1401, 
    1402, 
    1403, 
    1406, 
    1409, 
    1410, 
    1411, 
    1412, 
    1413, 
    1414, 
    1417, 
    1418, 
    1419, 
    1420, 
    1423, 
    1424, 
    1425, 
    1426, 
    1429, 
    1432, 
    1433, 
    1434, 
    1435, 
    1436, 
    1437, 
    1440, 
    1441, 
    1442, 
    1443, 
    1446, 
    1447, 
    1448, 
    1449, 
    1452, 
    1455, 
    1456, 
    1457, 
    1458, 
    1459, 
    1460, 
    1461, 
    1464, 
    1465, 
    1466, 
    1467, 
    1470, 
    1471, 
    1472, 
    1473, 
    1476, 
    1479, 
    1480, 
    1481, 
    1482, 
    1483, 
    1484, 
    1487, 
    1488, 
    1489, 
    1490, 
    1493, 
    1494, 
    1495, 
    1496, 
    1499, 
    1502, 
    1503, 
    1504, 
    1505, 
    1506, 
    1507, 
    1510, 
    1511, 
    1512, 
    1513, 
    1516, 
    1517, 
    1518, 
    1519, 
    1522, 
    1525, 
    1526, 
    1527, 
    1528, 
    1529, 
    1530, 
    1531, 
    1534, 
    1535, 
    1536, 
    1537, 
    1540, 
    1541, 
    1542, 
    1543, 
    1546, 
    1549, 
    1550, 
    1551, 
    1552, 
    1553, 
    1554, 
    1557, 
    1558, 
    1559, 
    1560, 
    1563, 
    1564, 
    1565, 
    1566, 
    1569, 
    1572, 
    1573, 
    1574, 
    1575, 
    1576, 
    1577, 
    1580, 
    1581, 
    1582, 
    1583, 
    1586, 
    1587, 
    1588, 
    1589, 
    1592, 
    1595, 
    1596, 
    1597, 
    1598, 
    1599, 
    1600, 
    1601, 
    1604, 
    1605, 
    1606, 
    1607, 
    1610, 
    1611, 
    1612, 
    1613, 
    1616, 
    1619, 
    1620, 
    1621, 
    1622, 
    1623, 
    1624, 
    1627, 
    1628, 
    1629, 
    1630, 
    1633, 
    1634, 
    1635, 
    1636, 
    1639, 
    1642, 
    1643, 
    1644, 
    1645, 
    1646, 
    1647, 
    1650, 
    1651, 
    1652, 
    1653, 
    1656, 
    1657, 
    1658, 
    1659, 
    1662, 
    1665, 
    1666, 
    1667, 
    1668, 
    1669, 
    1670, 
    1671, 
    1674, 
    1675, 
    1676, 
    1677, 
    1680, 
    1681, 
    1682, 
    1683, 
    1686, 
    1689, 
    1690, 
    1691, 
    1692, 
    1693, 
    1694, 
    1697, 
    1698, 
    1699, 
    1700, 
    1703, 
    1704, 
    1705, 
    1706, 
    1709, 
    1712, 
    1713, 
    1714, 
    1715, 
    1716, 
    1717, 
    1720, 
    1721, 
    1722, 
    1723, 
    1726, 
    1727, 
    1728, 
    1729, 
    1732, 
    1735, 
    1736, 
    1737, 
    1738, 
    1739, 
    1740, 
    1741, 
    1744, 
    1745, 
    1746, 
    1747, 
    1750, 
    1751, 
    1752, 
    1753, 
    1756, 
    1759, 
    1760, 
    1761, 
    1762, 
    1763, 
    1764, 
    1767, 
    1768, 
    1769, 
    1770, 
    1773, 
    1774, 
    1775, 
    1776, 
    1779, 
    1782, 
    1783, 
    1784, 
    1785, 
    1786, 
    1787, 
    1790, 
    1791, 
    1792, 
    1793, 
    1796, 
    1797, 
    1798, 
    1799, 
    1802, 
    1805, 
    1806, 
    1807, 
    1808, 
    1809, 
    1810, 
    1811, 
    1814, 
    1815, 
    1816, 
    1817, 
    1820, 
    1821, 
    1822, 
    1823, 
    1826, 
    1829, 
    1830, 
    1831, 
    1832, 
    1833, 
    1834, 
    1837, 
    1838, 
    1839, 
    1840, 
    1843, 
    1844, 
    1845, 
    1846, 
    1849, 
    1852, 
    1853, 
    1854, 
    1855, 
    1856, 
    1857, 
    1860, 
    1861, 
    1862, 
    1863, 
    1866, 
    1867, 
    1868, 
    1869, 
    1872, 
    1875, 
    1876, 
    1877, 
    1878, 
    1879, 
    1880, 
    1881, 
    1884, 
    1885, 
    1886, 
    1887, 
    1890, 
    1891, 
    1892, 
    1893, 
    1896, 
    1899, 
    1900, 
    1901, 
    1902, 
    1903, 
    1904, 
    1907, 
    1908, 
    1909, 
    1910, 
    1913, 
    1914, 
    1915, 
    1916, 
    1919, 
    1922, 
    1923, 
    1924, 
    1925, 
    1926, 
    1927, 
    1930, 
    1931, 
    1932, 
    1933, 
    1936, 
    1937, 
    1938, 
    1939, 
    1942, 
    1945, 
    1946, 
    1947, 
    1948, 
    1949, 
    1950, 
    1951, 
    1954, 
    1955, 
    1956, 
    1957, 
    1960, 
    1961, 
    1962, 
    1963, 
    1966, 
    1969, 
    1970, 
    1971, 
    1972, 
    1973, 
    1974, 
    1977, 
    1978, 
    1979, 
    1980, 
    1983, 
    1984, 
    1985, 
    1986, 
    1989, 
    1992, 
    1993, 
    1994, 
    1995, 
    1996, 
    1997, 
    2000, 
    2001, 
    2002, 
    2003, 
    2006, 
    2007, 
    2008, 
    2009, 
    2012, 
    2015, 
    2016, 
    2017, 
    2018, 
    2019, 
    2020, 
    2021, 
    2024, 
    2025, 
    2026, 
    2027, 
    2030, 
    2031, 
    2032, 
    2033, 
    2036, 
    2039, 
    2040, 
    2041, 
    2042, 
    2043, 
    2044, 
    2047, 
    2048, 
    2049, 
    2050, 
    2053, 
    2054, 
    2055, 
    2056, 
    2059, 
    2062, 
    2063, 
    2064, 
    2065, 
    2066, 
    2067, 
    2070, 
    2071, 
    2072, 
    2073, 
    2076, 
    2077, 
    2078, 
    2079, 
    2082, 
    2085, 
    2086, 
    2087, 
    2088, 
    2089, 
    2090, 
    2091, 
    2094, 
    2095, 
    2096, 
    2097, 
    2100, 
    2101, 
    2102, 
    2103, 
    2106, 
    2109, 
    2110, 
    2111, 
    2112, 
    2113, 
    2114, 
    2117, 
    2118, 
    2119, 
    2120, 
    2123, 
    2124, 
    2125, 
    2126, 
    2129, 
    2132, 
    2133, 
    2134, 
    2135, 
    2136, 
    2137, 
    2140, 
    2141, 
    2142, 
    2143, 
    2146, 
    2147, 
    2148, 
    2149, 
    2152, 
    2155, 
    2156, 
    2157, 
    2158, 
    2159, 
    2160, 
    2161, 
    2164, 
    2165, 
    2166, 
    2167, 
    2170, 
    2171, 
    2172, 
    2173, 
    2176, 
    2179, 
    2180, 
    2181, 
    2182, 
    2183, 
    2184, 
    2187, 
    2188, 
    2189, 
    2190, 
    2193, 
    2194, 
    2195, 
    2196, 
    2199, 
    2202, 
    2203, 
    2204, 
    2205, 
    2206, 
    2207, 
    2210, 
    2211, 
    2212, 
    2213, 
    2216, 
    2217, 
    2218, 
    2219, 
    2222, 
    2225, 
    2226, 
    2227, 
    2228, 
    2229, 
    2230, 
    2231, 
    2234, 
    2235, 
    2236, 
    2237, 
    2240, 
    2241, 
    2242, 
    2243, 
    2246, 
    2249, 
    2250, 
    2251, 
    2252, 
    2253, 
    2254, 
    2257, 
    2258, 
    2259, 
    2260, 
    2263, 
    2264, 
    2265, 
    2266, 
    2269, 
    2272, 
    2273, 
    2274, 
    2275, 
    2276, 
    2277, 
    2280, 
    2281, 
    2282, 
    2283, 
    2286, 
    2287, 
    2288, 
    2289, 
    2292, 
    2295, 
    2296, 
    2297, 
    2298, 
    2299, 
    2300, 
    2301, 
    2304, 
    2305, 
    2306, 
    2307, 
    2310, 
    2311, 
    2312, 
    2313, 
    2316, 
    2319, 
    2320, 
    2321, 
    2322, 
    2323, 
    2324, 
    2327, 
    2328, 
    2329, 
    2330, 
    2333, 
    2334, 
    2335, 
    2336, 
    2339, 
    2342, 
    2343, 
    2344, 
    2345, 
    2346, 
    2347, 
    2350, 
    2351, 
    2352, 
    2353, 
    2356, 
    2357, 
    2358, 
    2359, 
    2362, 
    2365, 
    2366, 
    2367, 
    2368, 
    2369, 
    2370, 
    2371, 
    2374, 
    2375, 
    2376, 
    2377, 
    2380, 
    2381, 
    2382, 
    2383, 
    2386, 
    2389, 
    2390, 
    2391, 
    2392, 
    2393, 
    2394, 
    2397, 
    2398, 
    2399, 
    2400, 
    2403, 
    2404, 
    2405, 
    2406, 
    2409, 
    2412, 
    2413, 
    2414, 
    2415, 
    2416, 
    2417, 
    2420, 
    2421, 
    2422, 
    2423, 
    2426, 
    2427, 
    2428, 
    2429, 
    2432, 
    2435, 
    2436, 
    2437, 
    2438, 
    2439, 
    2440, 
    2441, 
    2444, 
    2445, 
    2446, 
    2447, 
    2450, 
    2451, 
    2452, 
    2453, 
    2456, 
    2459, 
    2460, 
    2461, 
    2462, 
    2463, 
    2464, 
    2467, 
    2468, 
    2469, 
    2470, 
    2473, 
    2474, 
    2475, 
    2476, 
    2479, 
    2482, 
    2483, 
    2484, 
    2485, 
    2486, 
    2487, 
    2490, 
    2491, 
    2492, 
    2493, 
    2496, 
    2497, 
    2498, 
    2499, 
    2502, 
    2505, 
    2506, 
    2507, 
    2508, 
    2509, 
    2510, 
    2511, 
    2514, 
    2515, 
    2516, 
    2517, 
    2520, 
    2521, 
    2522, 
    2523, 
    2526, 
    2529, 
    2530, 
    2531, 
    2532, 
    2533, 
    2534, 
    2537, 
    2538, 
    2539, 
    2540, 
    2543, 
    2544, 
    2545, 
    2546, 
    2549, 
    2552, 
    2553, 
    2554, 
    2555, 
    2556, 
    2557, 
    2560, 
    2561, 
    2562, 
    2563, 
    2566, 
    2567, 
    2568, 
    2569, 
    2572, 
    2575, 
    2576, 
    2577, 
    2578, 
    2579, 
    2580, 
    2581, 
    2584, 
    2585, 
    2586, 
    2587, 
    2590, 
    2591, 
    2592, 
    2593, 
    2596, 
    2599, 
    2600, 
    2601, 
    2602, 
    2603, 
    2604, 
    2607, 
    2608, 
    2609, 
    2610, 
    2613, 
    2614, 
    2615, 
    2616, 
    2619, 
    2622, 
    2623, 
    2624, 
    2625, 
    2626, 
    2627, 
    2630, 
    2631, 
    2632, 
    2633, 
    2636, 
    2637, 
    2638, 
    2639, 
    2642, 
    2645, 
    2646, 
    2647, 
    2648, 
    2649, 
    2650, 
    2651, 
    2654, 
    2655, 
    2656, 
    2657, 
    2660, 
    2661, 
    2662, 
    2663, 
    2666, 
    2669, 
    2670, 
    2671, 
    2672, 
    2673, 
    2674, 
    2677, 
    2678, 
    2679, 
    2680, 
    2683, 
    2684, 
    2685, 
    2686, 
    2689, 
    2692, 
    2693, 
    2694, 
    2695, 
    2696, 
    2697, 
    2700, 
    2701, 
    2702, 
    2703, 
    2706, 
    2707, 
    2708, 
    2709, 
    2712, 
    2715, 
    2716, 
    2717, 
    2718, 
    2719, 
    2720, 
    2721, 
    2724, 
    2725, 
    2726, 
    2727, 
    2730, 
    2731, 
    2732, 
    2733, 
    2736, 
    2739, 
    2740, 
    2741, 
    2742, 
    2743, 
    2744, 
    2747, 
    2748, 
    2749, 
    2750, 
    2753, 
    2754, 
    2755, 
    2756, 
    2759, 
    2762, 
    2763, 
    2764, 
    2765, 
    2766, 
    2767, 
    2770, 
    2771, 
    2772, 
    2773, 
    2776, 
    2777, 
    2778, 
    2779, 
    2782, 
    2785, 
    2786, 
    2787, 
    2788, 
    2789, 
    2790, 
    2791, 
    2794, 
    2795, 
    2796, 
    2797, 
    2800, 
    2801, 
    2802, 
    2803, 
    2806, 
    2809, 
    2810, 
    2811, 
    2812, 
    2813, 
    2814, 
    2817, 
    2818, 
    2819, 
    2820, 
    2823, 
    2824, 
    2825, 
    2826, 
    2829, 
    2832, 
    2833, 
    2834, 
    2835, 
    2836, 
    2837, 
    2840, 
    2841, 
    2842, 
    2843, 
    2846, 
    2847, 
    2848, 
    2849, 
    2852, 
    2855, 
    2856, 
    2857, 
    2858, 
    2859, 
    2860, 
    2861, 
    2864, 
    2865, 
    2866, 
    2867, 
    2870, 
    2871, 
    2872, 
    2873, 
    2876, 
    2879, 
    2880, 
    2881, 
    2882, 
    2883, 
    2884, 
    2887, 
    2888, 
    2889, 
    2890, 
    2893, 
    2894, 
    2895, 
    2896, 
    2899, 
    2902, 
    2903, 
    2904, 
    2905, 
    2906, 
    2907, 
    2910, 
    2911, 
    2912, 
    2913, 
    2916, 
    2917, 
    2918, 
    2919, 
    2922, 
    2925, 
    2926, 
    2927, 
    2928, 
    2929, 
    2930, 
    2931, 
    2934, 
    2935, 
    2936, 
    2937, 
    2940, 
    2941, 
    2942, 
    2943, 
    2946, 
    2949, 
    2950, 
    2951, 
    2952, 
    2953, 
    2954, 
    2957, 
    2958, 
    2959, 
    2960, 
    2963, 
    2964, 
    2965, 
    2966, 
    2969, 
    2972, 
    2973, 
    2974, 
    2975, 
    2976, 
    2977, 
    2980, 
    2981, 
    2982, 
    2983, 
    2986, 
    2987, 
    2988, 
    2989, 
    2992, 
    2995, 
    2996, 
    2997, 
    2998, 
    2999, 
    3000, 
    3001, 
    3004, 
    3005, 
    3006, 
    3007, 
    3010, 
    3011, 
    3012, 
    3013, 
    3016, 
    3019, 
    3020, 
    3021, 
    3022, 
    3023, 
    3024, 
    3027, 
    3028, 
    3029, 
    3030, 
    3033, 
    3034, 
    3035, 
    3036, 
    3039, 
    3042, 
    3043, 
    3044, 
    3045, 
    3046, 
    3047, 
    3050, 
    3051, 
    3052, 
    3053, 
    3056, 
    3057, 
    3058, 
    3059, 
    3062, 
    3065, 
    3066, 
    3067, 
    3068, 
    3069, 
    3070, 
    3071, 
    3074, 
    3075, 
    3076, 
    3077, 
    3080, 
    3081, 
    3082, 
    3083, 
    3086, 
    3089, 
    3090, 
    3091, 
    3092, 
    3093, 
    3094, 
    3097, 
    3098, 
    3099, 
    3100, 
    3103, 
    3104, 
    3105, 
    3106, 
    3109, 
    3112, 
    3113, 
    3114, 
    3115, 
    3116, 
    3117, 
    3120, 
    3121, 
    3122, 
    3123, 
    3126, 
    3127, 
    3128, 
    3129, 
    3132, 
    3135, 
    3136, 
    3137, 
    3138, 
    3139, 
    3140, 
    3141, 
    3144, 
    3145, 
    3146, 
    3147, 
    3150, 
    3151, 
    3152, 
    3153, 
    3156, 
    3159, 
    3160, 
    3161, 
    3162, 
    3163, 
    3164, 
    3167, 
    3168, 
    3169, 
    3170, 
    3173, 
    3174, 
    3175, 
    3176, 
    3179, 
    3182, 
    3183, 
    3184, 
    3185, 
    3186, 
    3187, 
    3190, 
    3191, 
    3192, 
    3193, 
    3196, 
    3197, 
    3198, 
    3199, 
    3202, 
    3205, 
    3206, 
    3207, 
    3208, 
    3209, 
    3210, 
    3211, 
    3214, 
    3215, 
    3216, 
    3217, 
    3220, 
    3221, 
    3222, 
    3223, 
    3226, 
    3229, 
    3230, 
    3231, 
    3232, 
    3233, 
    3234, 
    3237, 
    3238, 
    3239, 
    3240, 
    3243, 
    3244, 
    3245, 
    3246, 
    3249, 
    3252, 
    3253, 
    3254, 
    3255, 
    3256, 
    3257, 
    3260, 
    3261, 
    3262, 
    3263, 
    3266, 
    3267, 
    3268, 
    3269, 
    3272, 
    3275, 
    3276, 
    3277, 
    3278, 
    3279, 
    3280, 
    3281, 
    3284, 
    3285, 
    3286, 
    3287, 
    3290, 
    3291, 
    3292, 
    3293, 
    3296, 
    3299, 
    3300, 
    3301, 
    3302, 
    3303, 
    3304, 
    3307, 
    3308, 
    3309, 
    3310, 
    3313, 
    3314, 
    3315, 
    3316, 
    3319, 
    3322, 
    3323, 
    3324, 
    3325, 
    3326, 
    3327, 
    3330, 
    3331, 
    3332, 
    3333, 
    3336, 
    3337, 
    3338, 
    3339, 
    3342, 
    3345, 
    3346, 
    3347, 
    3348, 
    3349, 
    3350, 
    3351, 
    3354, 
    3355, 
    3356, 
    3357, 
    3360, 
    3361, 
    3362, 
    3363, 
    3366, 
    3369, 
    3370, 
    3371, 
    3372, 
    3373, 
    3374, 
    3377, 
    3378, 
    3379, 
    3380, 
    3383, 
    3384, 
    3385, 
    3386, 
    3389, 
    3392, 
    3393, 
    3394, 
    3395, 
    3396, 
    3397, 
    3400, 
    3401, 
    3402, 
    3403, 
    3406, 
    3407, 
    3408, 
    3409, 
    3412, 
    3415, 
    3416, 
    3417, 
    3418, 
    3419, 
    3422, 
    3425, 
    3426, 
    3427, 
    3428, 
    3429, 
    3430, 
    3431, 
    3434, 
    3435, 
    3436, 
    3437, 
    3440, 
    3441, 
    3442, 
    3443, 
    3446, 
    3449, 
    3450, 
    3451, 
    3452, 
    3453, 
    3454, 
    3457, 
    3458, 
    3459, 
    3460, 
    3463, 
    3464, 
    3465, 
    3466, 
    3469, 
    3472, 
    3473, 
    3474, 
    3475, 
    3476, 
    3477, 
    3480, 
    3481, 
    3482, 
    3483, 
    3486, 
    3487, 
    3488, 
    3489, 
    3492, 
    3495, 
    3496, 
    3497, 
    3498, 
    3499, 
    3500, 
    3501, 
    3504, 
    3505, 
    3506, 
    3507, 
    3510, 
    3511, 
    3512, 
    3513, 
    3516, 
    3519, 
    3520, 
    3521, 
    3522, 
    3523, 
    3524, 
    3527, 
    3528, 
    3529, 
    3530, 
    3533, 
    3534, 
    3535, 
    3536, 
    3539, 
    3542, 
    3543, 
    3544, 
    3545, 
    3546, 
    3547, 
    3550, 
    3551, 
    3552, 
    3553, 
    3556, 
    3557, 
    3558, 
    3559, 
    3562, 
    3565, 
    3566, 
    3567, 
    3568, 
    3569, 
    3570, 
    3571, 
    3574, 
    3575, 
    3576, 
    3577, 
    3580, 
    3583, 
    3586, 
    3587, 
    3588, 
    3589, 
    3590, 
    3591, 
    3592
  ], 
  "heads": [[2359, 0, 0]], 
  "attrs": {"mxnet_version": ["int", 10001]}
}