{
  "nodes": [
    {
      "op": "null", 
      "name": "data", 
      "inputs": []
    }, 
    {
      "op": "null", 
      "name": "conv_1_weight", 
      "inputs": []
    }, 
    {
      "op": "null", 
      "name": "conv_1_bias", 
      "inputs": []
    }, 
    {
      "op": "Convolution", 
      "name": "conv_1", 
      "attrs": {
        "cudnn_off": "False", 
        "cudnn_tune": "off", 
        "dilate": "(1,1)", 
        "kernel": "(7,7)", 
        "no_bias": "False", 
        "num_filter": "64", 
        "num_group": "1", 
        "pad": "(3,3)", 
        "stride": "(2,2)", 
        "workspace": "1024"
      }, 
      "inputs": [[0, 0, 0], [1, 0, 0], [2, 0, 0]]
    }, 
    {
      "op": "null", 
      "name": "bn_1_gamma", 
      "inputs": []
    }, 
    {
      "op": "null", 
      "name": "bn_1_beta", 
      "inputs": []
    }, 
    {
      "op": "null", 
      "name": "bn_1_moving_mean", 
      "attrs": {
        "__init__": "[\"zero\", {}]", 
        "eps": "1.00001e-05", 
        "fix_gamma": "False", 
        "momentum": "0.9", 
        "use_global_stats": "False"
      }, 
      "inputs": []
    }, 
    {
      "op": "null", 
      "name": "bn_1_moving_var", 
      "attrs": {
        "__init__": "[\"one\", {}]", 
        "eps": "1.00001e-05", 
        "fix_gamma": "False", 
        "momentum": "0.9", 
        "use_global_stats": "False"
      }, 
      "inputs": []
    }, 
    {
      "op": "BatchNorm", 
      "name": "bn_1", 
      "attrs": {
        "eps": "1.00001e-05", 
        "fix_gamma": "False", 
        "momentum": "0.9", 
        "use_global_stats": "False"
      }, 
      "inputs": [[3, 0, 0], [4, 0, 0], [5, 0, 0], [6, 0, 0], [7, 0, 0]]
    }, 
    {
      "op": "Activation", 
      "name": "relu_1", 
      "attrs": {"act_type": "relu"}, 
      "inputs": [[8, 0, 0]]
    }, 
    {
      "op": "min", 
      "name": "relu_1_min", 
      "inputs": [[9, 0, 0]]
    }, 
    {
      "op": "max", 
      "name": "relu_1_max", 
      "inputs": [[9, 0, 0]]
    }, 
    {
      "op": "_contrib_quantize", 
      "name": "relu_1_quantize", 
      "attrs": {"out_type": "uint8"}, 
      "inputs": [[9, 0, 0], [10, 0, 0], [11, 0, 0]]
    }, 
    {
      "op": "_contrib_quantized_pooling", 
      "name": "quantized_pool_1", 
      "attrs": {
        "global_pool": "False", 
        "kernel": "(3,3)", 
        "pad": "(0,0)", 
        "pool_type": "max", 
        "pooling_convention": "valid", 
        "stride": "(2,2)"
      }, 
      "inputs": [[12, 0, 0], [12, 1, 0], [12, 2, 0]]
    }, 
    {
      "op": "null", 
      "name": "conv_2_red_weight_quantize", 
      "inputs": []
    }, 
    {
      "op": "null", 
      "name": "conv_2_red_bias_quantize", 
      "inputs": []
    }, 
    {
      "op": "null", 
      "name": "conv_2_red_weight_quantize_min", 
      "inputs": []
    }, 
    {
      "op": "null", 
      "name": "conv_2_red_weight_quantize_max", 
      "inputs": []
    }, 
    {
      "op": "null", 
      "name": "conv_2_red_bias_quantize_min", 
      "inputs": []
    }, 
    {
      "op": "null", 
      "name": "conv_2_red_bias_quantize_max", 
      "inputs": []
    }, 
    {
      "op": "_contrib_quantized_conv", 
      "name": "quantized_conv_2_red", 
      "attrs": {
        "cudnn_off": "False", 
        "cudnn_tune": "off", 
        "dilate": "(1,1)", 
        "kernel": "(1,1)", 
        "no_bias": "False", 
        "num_filter": "64", 
        "num_group": "1", 
        "pad": "(0,0)", 
        "stride": "(1,1)", 
        "workspace": "1024"
      }, 
      "inputs": [[13, 0, 0], [14, 0, 0], [15, 0, 0], [13, 1, 0], [13, 2, 0], [16, 0, 0], [17, 0, 0], [18, 0, 0], [19, 0, 0]]
    }, 
    {
      "op": "_contrib_requantize", 
      "name": "requantize_conv_2_red", 
      "inputs": [[20, 0, 0], [20, 1, 0], [20, 2, 0]]
    }, 
    {
      "op": "_contrib_dequantize", 
      "name": "conv_2_red_dequantize", 
      "inputs": [[21, 0, 0], [21, 1, 0], [21, 2, 0]]
    }, 
    {
      "op": "null", 
      "name": "bn_2_red_gamma", 
      "inputs": []
    }, 
    {
      "op": "null", 
      "name": "bn_2_red_beta", 
      "inputs": []
    }, 
    {
      "op": "null", 
      "name": "bn_2_red_moving_mean", 
      "attrs": {
        "__init__": "[\"zero\", {}]", 
        "eps": "1.00001e-05", 
        "fix_gamma": "False", 
        "momentum": "0.9", 
        "use_global_stats": "False"
      }, 
      "inputs": []
    }, 
    {
      "op": "null", 
      "name": "bn_2_red_moving_var", 
      "attrs": {
        "__init__": "[\"one\", {}]", 
        "eps": "1.00001e-05", 
        "fix_gamma": "False", 
        "momentum": "0.9", 
        "use_global_stats": "False"
      }, 
      "inputs": []
    }, 
    {
      "op": "BatchNorm", 
      "name": "bn_2_red", 
      "attrs": {
        "eps": "1.00001e-05", 
        "fix_gamma": "False", 
        "momentum": "0.9", 
        "use_global_stats": "False"
      }, 
      "inputs": [[22, 0, 0], [23, 0, 0], [24, 0, 0], [25, 0, 0], [26, 0, 0]]
    }, 
    {
      "op": "Activation", 
      "name": "relu_2_red", 
      "attrs": {"act_type": "relu"}, 
      "inputs": [[27, 0, 0]]
    }, 
    {
      "op": "min", 
      "name": "relu_2_red_min", 
      "inputs": [[28, 0, 0]]
    }, 
    {
      "op": "max", 
      "name": "relu_2_red_max", 
      "inputs": [[28, 0, 0]]
    }, 
    {
      "op": "_contrib_quantize", 
      "name": "relu_2_red_quantize", 
      "attrs": {"out_type": "uint8"}, 
      "inputs": [[28, 0, 0], [29, 0, 0], [30, 0, 0]]
    }, 
    {
      "op": "null", 
      "name": "conv_2_weight_quantize", 
      "inputs": []
    }, 
    {
      "op": "null", 
      "name": "conv_2_bias_quantize", 
      "inputs": []
    }, 
    {
      "op": "null", 
      "name": "conv_2_weight_quantize_min", 
      "inputs": []
    }, 
    {
      "op": "null", 
      "name": "conv_2_weight_quantize_max", 
      "inputs": []
    }, 
    {
      "op": "null", 
      "name": "conv_2_bias_quantize_min", 
      "inputs": []
    }, 
    {
      "op": "null", 
      "name": "conv_2_bias_quantize_max", 
      "inputs": []
    }, 
    {
      "op": "_contrib_quantized_conv", 
      "name": "quantized_conv_2", 
      "attrs": {
        "cudnn_off": "False", 
        "cudnn_tune": "off", 
        "dilate": "(1,1)", 
        "kernel": "(3,3)", 
        "no_bias": "False", 
        "num_filter": "192", 
        "num_group": "1", 
        "pad": "(1,1)", 
        "stride": "(1,1)", 
        "workspace": "1024"
      }, 
      "inputs": [[31, 0, 0], [32, 0, 0], [33, 0, 0], [31, 1, 0], [31, 2, 0], [34, 0, 0], [35, 0, 0], [36, 0, 0], [37, 0, 0]]
    }, 
    {
      "op": "_contrib_requantize", 
      "name": "requantize_conv_2", 
      "inputs": [[38, 0, 0], [38, 1, 0], [38, 2, 0]]
    }, 
    {
      "op": "_contrib_dequantize", 
      "name": "conv_2_dequantize", 
      "inputs": [[39, 0, 0], [39, 1, 0], [39, 2, 0]]
    }, 
    {
      "op": "null", 
      "name": "bn_2_gamma", 
      "inputs": []
    }, 
    {
      "op": "null", 
      "name": "bn_2_beta", 
      "inputs": []
    }, 
    {
      "op": "null", 
      "name": "bn_2_moving_mean", 
      "attrs": {
        "__init__": "[\"zero\", {}]", 
        "eps": "1.00001e-05", 
        "fix_gamma": "False", 
        "momentum": "0.9", 
        "use_global_stats": "False"
      }, 
      "inputs": []
    }, 
    {
      "op": "null", 
      "name": "bn_2_moving_var", 
      "attrs": {
        "__init__": "[\"one\", {}]", 
        "eps": "1.00001e-05", 
        "fix_gamma": "False", 
        "momentum": "0.9", 
        "use_global_stats": "False"
      }, 
      "inputs": []
    }, 
    {
      "op": "BatchNorm", 
      "name": "bn_2", 
      "attrs": {
        "eps": "1.00001e-05", 
        "fix_gamma": "False", 
        "momentum": "0.9", 
        "use_global_stats": "False"
      }, 
      "inputs": [[40, 0, 0], [41, 0, 0], [42, 0, 0], [43, 0, 0], [44, 0, 0]]
    }, 
    {
      "op": "Activation", 
      "name": "relu_2", 
      "attrs": {"act_type": "relu"}, 
      "inputs": [[45, 0, 0]]
    }, 
    {
      "op": "min", 
      "name": "relu_2_min", 
      "inputs": [[46, 0, 0]]
    }, 
    {
      "op": "max", 
      "name": "relu_2_max", 
      "inputs": [[46, 0, 0]]
    }, 
    {
      "op": "_contrib_quantize", 
      "name": "relu_2_quantize", 
      "attrs": {"out_type": "uint8"}, 
      "inputs": [[46, 0, 0], [47, 0, 0], [48, 0, 0]]
    }, 
    {
      "op": "_contrib_quantized_pooling", 
      "name": "quantized_pool_2", 
      "attrs": {
        "global_pool": "False", 
        "kernel": "(3,3)", 
        "pad": "(0,0)", 
        "pool_type": "max", 
        "pooling_convention": "valid", 
        "stride": "(2,2)"
      }, 
      "inputs": [[49, 0, 0], [49, 1, 0], [49, 2, 0]]
    }, 
    {
      "op": "null", 
      "name": "conv_3a_1x1_weight_quantize", 
      "inputs": []
    }, 
    {
      "op": "null", 
      "name": "conv_3a_1x1_bias_quantize", 
      "inputs": []
    }, 
    {
      "op": "null", 
      "name": "conv_3a_1x1_weight_quantize_min", 
      "inputs": []
    }, 
    {
      "op": "null", 
      "name": "conv_3a_1x1_weight_quantize_max", 
      "inputs": []
    }, 
    {
      "op": "null", 
      "name": "conv_3a_1x1_bias_quantize_min", 
      "inputs": []
    }, 
    {
      "op": "null", 
      "name": "conv_3a_1x1_bias_quantize_max", 
      "inputs": []
    }, 
    {
      "op": "_contrib_quantized_conv", 
      "name": "quantized_conv_3a_1x1", 
      "attrs": {
        "cudnn_off": "False", 
        "cudnn_tune": "off", 
        "dilate": "(1,1)", 
        "kernel": "(1,1)", 
        "no_bias": "False", 
        "num_filter": "64", 
        "num_group": "1", 
        "pad": "(0,0)", 
        "stride": "(1,1)", 
        "workspace": "1024"
      }, 
      "inputs": [[50, 0, 0], [51, 0, 0], [52, 0, 0], [50, 1, 0], [50, 2, 0], [53, 0, 0], [54, 0, 0], [55, 0, 0], [56, 0, 0]]
    }, 
    {
      "op": "_contrib_requantize", 
      "name": "requantize_conv_3a_1x1", 
      "inputs": [[57, 0, 0], [57, 1, 0], [57, 2, 0]]
    }, 
    {
      "op": "_contrib_dequantize", 
      "name": "conv_3a_1x1_dequantize", 
      "inputs": [[58, 0, 0], [58, 1, 0], [58, 2, 0]]
    }, 
    {
      "op": "null", 
      "name": "bn_3a_1x1_gamma", 
      "inputs": []
    }, 
    {
      "op": "null", 
      "name": "bn_3a_1x1_beta", 
      "inputs": []
    }, 
    {
      "op": "null", 
      "name": "bn_3a_1x1_moving_mean", 
      "attrs": {
        "__init__": "[\"zero\", {}]", 
        "eps": "1.00001e-05", 
        "fix_gamma": "False", 
        "momentum": "0.9", 
        "use_global_stats": "False"
      }, 
      "inputs": []
    }, 
    {
      "op": "null", 
      "name": "bn_3a_1x1_moving_var", 
      "attrs": {
        "__init__": "[\"one\", {}]", 
        "eps": "1.00001e-05", 
        "fix_gamma": "False", 
        "momentum": "0.9", 
        "use_global_stats": "False"
      }, 
      "inputs": []
    }, 
    {
      "op": "BatchNorm", 
      "name": "bn_3a_1x1", 
      "attrs": {
        "eps": "1.00001e-05", 
        "fix_gamma": "False", 
        "momentum": "0.9", 
        "use_global_stats": "False"
      }, 
      "inputs": [[59, 0, 0], [60, 0, 0], [61, 0, 0], [62, 0, 0], [63, 0, 0]]
    }, 
    {
      "op": "Activation", 
      "name": "relu_3a_1x1", 
      "attrs": {"act_type": "relu"}, 
      "inputs": [[64, 0, 0]]
    }, 
    {
      "op": "null", 
      "name": "conv_3a_3x3_reduce_weight_quantize", 
      "inputs": []
    }, 
    {
      "op": "null", 
      "name": "conv_3a_3x3_reduce_bias_quantize", 
      "inputs": []
    }, 
    {
      "op": "null", 
      "name": "conv_3a_3x3_reduce_weight_quantize_min", 
      "inputs": []
    }, 
    {
      "op": "null", 
      "name": "conv_3a_3x3_reduce_weight_quantize_max", 
      "inputs": []
    }, 
    {
      "op": "null", 
      "name": "conv_3a_3x3_reduce_bias_quantize_min", 
      "inputs": []
    }, 
    {
      "op": "null", 
      "name": "conv_3a_3x3_reduce_bias_quantize_max", 
      "inputs": []
    }, 
    {
      "op": "_contrib_quantized_conv", 
      "name": "quantized_conv_3a_3x3_reduce", 
      "attrs": {
        "cudnn_off": "False", 
        "cudnn_tune": "off", 
        "dilate": "(1,1)", 
        "kernel": "(1,1)", 
        "no_bias": "False", 
        "num_filter": "64", 
        "num_group": "1", 
        "pad": "(0,0)", 
        "stride": "(1,1)", 
        "workspace": "1024"
      }, 
      "inputs": [[50, 0, 0], [66, 0, 0], [67, 0, 0], [50, 1, 0], [50, 2, 0], [68, 0, 0], [69, 0, 0], [70, 0, 0], [71, 0, 0]]
    }, 
    {
      "op": "_contrib_requantize", 
      "name": "requantize_conv_3a_3x3_reduce", 
      "inputs": [[72, 0, 0], [72, 1, 0], [72, 2, 0]]
    }, 
    {
      "op": "_contrib_dequantize", 
      "name": "conv_3a_3x3_reduce_dequantize", 
      "inputs": [[73, 0, 0], [73, 1, 0], [73, 2, 0]]
    }, 
    {
      "op": "null", 
      "name": "bn_3a_3x3_reduce_gamma", 
      "inputs": []
    }, 
    {
      "op": "null", 
      "name": "bn_3a_3x3_reduce_beta", 
      "inputs": []
    }, 
    {
      "op": "null", 
      "name": "bn_3a_3x3_reduce_moving_mean", 
      "attrs": {
        "__init__": "[\"zero\", {}]", 
        "eps": "1.00001e-05", 
        "fix_gamma": "False", 
        "momentum": "0.9", 
        "use_global_stats": "False"
      }, 
      "inputs": []
    }, 
    {
      "op": "null", 
      "name": "bn_3a_3x3_reduce_moving_var", 
      "attrs": {
        "__init__": "[\"one\", {}]", 
        "eps": "1.00001e-05", 
        "fix_gamma": "False", 
        "momentum": "0.9", 
        "use_global_stats": "False"
      }, 
      "inputs": []
    }, 
    {
      "op": "BatchNorm", 
      "name": "bn_3a_3x3_reduce", 
      "attrs": {
        "eps": "1.00001e-05", 
        "fix_gamma": "False", 
        "momentum": "0.9", 
        "use_global_stats": "False"
      }, 
      "inputs": [[74, 0, 0], [75, 0, 0], [76, 0, 0], [77, 0, 0], [78, 0, 0]]
    }, 
    {
      "op": "Activation", 
      "name": "relu_3a_3x3_reduce", 
      "attrs": {"act_type": "relu"}, 
      "inputs": [[79, 0, 0]]
    }, 
    {
      "op": "min", 
      "name": "relu_3a_3x3_reduce_min", 
      "inputs": [[80, 0, 0]]
    }, 
    {
      "op": "max", 
      "name": "relu_3a_3x3_reduce_max", 
      "inputs": [[80, 0, 0]]
    }, 
    {
      "op": "_contrib_quantize", 
      "name": "relu_3a_3x3_reduce_quantize", 
      "attrs": {"out_type": "uint8"}, 
      "inputs": [[80, 0, 0], [81, 0, 0], [82, 0, 0]]
    }, 
    {
      "op": "null", 
      "name": "conv_3a_3x3_weight_quantize", 
      "inputs": []
    }, 
    {
      "op": "null", 
      "name": "conv_3a_3x3_bias_quantize", 
      "inputs": []
    }, 
    {
      "op": "null", 
      "name": "conv_3a_3x3_weight_quantize_min", 
      "inputs": []
    }, 
    {
      "op": "null", 
      "name": "conv_3a_3x3_weight_quantize_max", 
      "inputs": []
    }, 
    {
      "op": "null", 
      "name": "conv_3a_3x3_bias_quantize_min", 
      "inputs": []
    }, 
    {
      "op": "null", 
      "name": "conv_3a_3x3_bias_quantize_max", 
      "inputs": []
    }, 
    {
      "op": "_contrib_quantized_conv", 
      "name": "quantized_conv_3a_3x3", 
      "attrs": {
        "cudnn_off": "False", 
        "cudnn_tune": "off", 
        "dilate": "(1,1)", 
        "kernel": "(3,3)", 
        "no_bias": "False", 
        "num_filter": "64", 
        "num_group": "1", 
        "pad": "(1,1)", 
        "stride": "(1,1)", 
        "workspace": "1024"
      }, 
      "inputs": [[83, 0, 0], [84, 0, 0], [85, 0, 0], [83, 1, 0], [83, 2, 0], [86, 0, 0], [87, 0, 0], [88, 0, 0], [89, 0, 0]]
    }, 
    {
      "op": "_contrib_requantize", 
      "name": "requantize_conv_3a_3x3", 
      "inputs": [[90, 0, 0], [90, 1, 0], [90, 2, 0]]
    }, 
    {
      "op": "_contrib_dequantize", 
      "name": "conv_3a_3x3_dequantize", 
      "inputs": [[91, 0, 0], [91, 1, 0], [91, 2, 0]]
    }, 
    {
      "op": "null", 
      "name": "bn_3a_3x3_gamma", 
      "inputs": []
    }, 
    {
      "op": "null", 
      "name": "bn_3a_3x3_beta", 
      "inputs": []
    }, 
    {
      "op": "null", 
      "name": "bn_3a_3x3_moving_mean", 
      "attrs": {
        "__init__": "[\"zero\", {}]", 
        "eps": "1.00001e-05", 
        "fix_gamma": "False", 
        "momentum": "0.9", 
        "use_global_stats": "False"
      }, 
      "inputs": []
    }, 
    {
      "op": "null", 
      "name": "bn_3a_3x3_moving_var", 
      "attrs": {
        "__init__": "[\"one\", {}]", 
        "eps": "1.00001e-05", 
        "fix_gamma": "False", 
        "momentum": "0.9", 
        "use_global_stats": "False"
      }, 
      "inputs": []
    }, 
    {
      "op": "BatchNorm", 
      "name": "bn_3a_3x3", 
      "attrs": {
        "eps": "1.00001e-05", 
        "fix_gamma": "False", 
        "momentum": "0.9", 
        "use_global_stats": "False"
      }, 
      "inputs": [[92, 0, 0], [93, 0, 0], [94, 0, 0], [95, 0, 0], [96, 0, 0]]
    }, 
    {
      "op": "Activation", 
      "name": "relu_3a_3x3", 
      "attrs": {"act_type": "relu"}, 
      "inputs": [[97, 0, 0]]
    }, 
    {
      "op": "null", 
      "name": "conv_3a_double_3x3_reduce_weight_quantize", 
      "inputs": []
    }, 
    {
      "op": "null", 
      "name": "conv_3a_double_3x3_reduce_bias_quantize", 
      "inputs": []
    }, 
    {
      "op": "null", 
      "name": "conv_3a_double_3x3_reduce_weight_quantize_min", 
      "inputs": []
    }, 
    {
      "op": "null", 
      "name": "conv_3a_double_3x3_reduce_weight_quantize_max", 
      "inputs": []
    }, 
    {
      "op": "null", 
      "name": "conv_3a_double_3x3_reduce_bias_quantize_min", 
      "inputs": []
    }, 
    {
      "op": "null", 
      "name": "conv_3a_double_3x3_reduce_bias_quantize_max", 
      "inputs": []
    }, 
    {
      "op": "_contrib_quantized_conv", 
      "name": "quantized_conv_3a_double_3x3_reduce", 
      "attrs": {
        "cudnn_off": "False", 
        "cudnn_tune": "off", 
        "dilate": "(1,1)", 
        "kernel": "(1,1)", 
        "no_bias": "False", 
        "num_filter": "64", 
        "num_group": "1", 
        "pad": "(0,0)", 
        "stride": "(1,1)", 
        "workspace": "1024"
      }, 
      "inputs": [[50, 0, 0], [99, 0, 0], [100, 0, 0], [50, 1, 0], [50, 2, 0], [101, 0, 0], [102, 0, 0], [103, 0, 0], [104, 0, 0]]
    }, 
    {
      "op": "_contrib_requantize", 
      "name": "requantize_conv_3a_double_3x3_reduce", 
      "inputs": [[105, 0, 0], [105, 1, 0], [105, 2, 0]]
    }, 
    {
      "op": "_contrib_dequantize", 
      "name": "conv_3a_double_3x3_reduce_dequantize", 
      "inputs": [[106, 0, 0], [106, 1, 0], [106, 2, 0]]
    }, 
    {
      "op": "null", 
      "name": "bn_3a_double_3x3_reduce_gamma", 
      "inputs": []
    }, 
    {
      "op": "null", 
      "name": "bn_3a_double_3x3_reduce_beta", 
      "inputs": []
    }, 
    {
      "op": "null", 
      "name": "bn_3a_double_3x3_reduce_moving_mean", 
      "attrs": {
        "__init__": "[\"zero\", {}]", 
        "eps": "1.00001e-05", 
        "fix_gamma": "False", 
        "momentum": "0.9", 
        "use_global_stats": "False"
      }, 
      "inputs": []
    }, 
    {
      "op": "null", 
      "name": "bn_3a_double_3x3_reduce_moving_var", 
      "attrs": {
        "__init__": "[\"one\", {}]", 
        "eps": "1.00001e-05", 
        "fix_gamma": "False", 
        "momentum": "0.9", 
        "use_global_stats": "False"
      }, 
      "inputs": []
    }, 
    {
      "op": "BatchNorm", 
      "name": "bn_3a_double_3x3_reduce", 
      "attrs": {
        "eps": "1.00001e-05", 
        "fix_gamma": "False", 
        "momentum": "0.9", 
        "use_global_stats": "False"
      }, 
      "inputs": [[107, 0, 0], [108, 0, 0], [109, 0, 0], [110, 0, 0], [111, 0, 0]]
    }, 
    {
      "op": "Activation", 
      "name": "relu_3a_double_3x3_reduce", 
      "attrs": {"act_type": "relu"}, 
      "inputs": [[112, 0, 0]]
    }, 
    {
      "op": "min", 
      "name": "relu_3a_double_3x3_reduce_min", 
      "inputs": [[113, 0, 0]]
    }, 
    {
      "op": "max", 
      "name": "relu_3a_double_3x3_reduce_max", 
      "inputs": [[113, 0, 0]]
    }, 
    {
      "op": "_contrib_quantize", 
      "name": "relu_3a_double_3x3_reduce_quantize", 
      "attrs": {"out_type": "uint8"}, 
      "inputs": [[113, 0, 0], [114, 0, 0], [115, 0, 0]]
    }, 
    {
      "op": "null", 
      "name": "conv_3a_double_3x3_0_weight_quantize", 
      "inputs": []
    }, 
    {
      "op": "null", 
      "name": "conv_3a_double_3x3_0_bias_quantize", 
      "inputs": []
    }, 
    {
      "op": "null", 
      "name": "conv_3a_double_3x3_0_weight_quantize_min", 
      "inputs": []
    }, 
    {
      "op": "null", 
      "name": "conv_3a_double_3x3_0_weight_quantize_max", 
      "inputs": []
    }, 
    {
      "op": "null", 
      "name": "conv_3a_double_3x3_0_bias_quantize_min", 
      "inputs": []
    }, 
    {
      "op": "null", 
      "name": "conv_3a_double_3x3_0_bias_quantize_max", 
      "inputs": []
    }, 
    {
      "op": "_contrib_quantized_conv", 
      "name": "quantized_conv_3a_double_3x3_0", 
      "attrs": {
        "cudnn_off": "False", 
        "cudnn_tune": "off", 
        "dilate": "(1,1)", 
        "kernel": "(3,3)", 
        "no_bias": "False", 
        "num_filter": "96", 
        "num_group": "1", 
        "pad": "(1,1)", 
        "stride": "(1,1)", 
        "workspace": "1024"
      }, 
      "inputs": [[116, 0, 0], [117, 0, 0], [118, 0, 0], [116, 1, 0], [116, 2, 0], [119, 0, 0], [120, 0, 0], [121, 0, 0], [122, 0, 0]]
    }, 
    {
      "op": "_contrib_requantize", 
      "name": "requantize_conv_3a_double_3x3_0", 
      "inputs": [[123, 0, 0], [123, 1, 0], [123, 2, 0]]
    }, 
    {
      "op": "_contrib_dequantize", 
      "name": "conv_3a_double_3x3_0_dequantize", 
      "inputs": [[124, 0, 0], [124, 1, 0], [124, 2, 0]]
    }, 
    {
      "op": "null", 
      "name": "bn_3a_double_3x3_0_gamma", 
      "inputs": []
    }, 
    {
      "op": "null", 
      "name": "bn_3a_double_3x3_0_beta", 
      "inputs": []
    }, 
    {
      "op": "null", 
      "name": "bn_3a_double_3x3_0_moving_mean", 
      "attrs": {
        "__init__": "[\"zero\", {}]", 
        "eps": "1.00001e-05", 
        "fix_gamma": "False", 
        "momentum": "0.9", 
        "use_global_stats": "False"
      }, 
      "inputs": []
    }, 
    {
      "op": "null", 
      "name": "bn_3a_double_3x3_0_moving_var", 
      "attrs": {
        "__init__": "[\"one\", {}]", 
        "eps": "1.00001e-05", 
        "fix_gamma": "False", 
        "momentum": "0.9", 
        "use_global_stats": "False"
      }, 
      "inputs": []
    }, 
    {
      "op": "BatchNorm", 
      "name": "bn_3a_double_3x3_0", 
      "attrs": {
        "eps": "1.00001e-05", 
        "fix_gamma": "False", 
        "momentum": "0.9", 
        "use_global_stats": "False"
      }, 
      "inputs": [[125, 0, 0], [126, 0, 0], [127, 0, 0], [128, 0, 0], [129, 0, 0]]
    }, 
    {
      "op": "Activation", 
      "name": "relu_3a_double_3x3_0", 
      "attrs": {"act_type": "relu"}, 
      "inputs": [[130, 0, 0]]
    }, 
    {
      "op": "min", 
      "name": "relu_3a_double_3x3_0_min", 
      "inputs": [[131, 0, 0]]
    }, 
    {
      "op": "max", 
      "name": "relu_3a_double_3x3_0_max", 
      "inputs": [[131, 0, 0]]
    }, 
    {
      "op": "_contrib_quantize", 
      "name": "relu_3a_double_3x3_0_quantize", 
      "attrs": {"out_type": "uint8"}, 
      "inputs": [[131, 0, 0], [132, 0, 0], [133, 0, 0]]
    }, 
    {
      "op": "null", 
      "name": "conv_3a_double_3x3_1_weight_quantize", 
      "inputs": []
    }, 
    {
      "op": "null", 
      "name": "conv_3a_double_3x3_1_bias_quantize", 
      "inputs": []
    }, 
    {
      "op": "null", 
      "name": "conv_3a_double_3x3_1_weight_quantize_min", 
      "inputs": []
    }, 
    {
      "op": "null", 
      "name": "conv_3a_double_3x3_1_weight_quantize_max", 
      "inputs": []
    }, 
    {
      "op": "null", 
      "name": "conv_3a_double_3x3_1_bias_quantize_min", 
      "inputs": []
    }, 
    {
      "op": "null", 
      "name": "conv_3a_double_3x3_1_bias_quantize_max", 
      "inputs": []
    }, 
    {
      "op": "_contrib_quantized_conv", 
      "name": "quantized_conv_3a_double_3x3_1", 
      "attrs": {
        "cudnn_off": "False", 
        "cudnn_tune": "off", 
        "dilate": "(1,1)", 
        "kernel": "(3,3)", 
        "no_bias": "False", 
        "num_filter": "96", 
        "num_group": "1", 
        "pad": "(1,1)", 
        "stride": "(1,1)", 
        "workspace": "1024"
      }, 
      "inputs": [[134, 0, 0], [135, 0, 0], [136, 0, 0], [134, 1, 0], [134, 2, 0], [137, 0, 0], [138, 0, 0], [139, 0, 0], [140, 0, 0]]
    }, 
    {
      "op": "_contrib_requantize", 
      "name": "requantize_conv_3a_double_3x3_1", 
      "inputs": [[141, 0, 0], [141, 1, 0], [141, 2, 0]]
    }, 
    {
      "op": "_contrib_dequantize", 
      "name": "conv_3a_double_3x3_1_dequantize", 
      "inputs": [[142, 0, 0], [142, 1, 0], [142, 2, 0]]
    }, 
    {
      "op": "null", 
      "name": "bn_3a_double_3x3_1_gamma", 
      "inputs": []
    }, 
    {
      "op": "null", 
      "name": "bn_3a_double_3x3_1_beta", 
      "inputs": []
    }, 
    {
      "op": "null", 
      "name": "bn_3a_double_3x3_1_moving_mean", 
      "attrs": {
        "__init__": "[\"zero\", {}]", 
        "eps": "1.00001e-05", 
        "fix_gamma": "False", 
        "momentum": "0.9", 
        "use_global_stats": "False"
      }, 
      "inputs": []
    }, 
    {
      "op": "null", 
      "name": "bn_3a_double_3x3_1_moving_var", 
      "attrs": {
        "__init__": "[\"one\", {}]", 
        "eps": "1.00001e-05", 
        "fix_gamma": "False", 
        "momentum": "0.9", 
        "use_global_stats": "False"
      }, 
      "inputs": []
    }, 
    {
      "op": "BatchNorm", 
      "name": "bn_3a_double_3x3_1", 
      "attrs": {
        "eps": "1.00001e-05", 
        "fix_gamma": "False", 
        "momentum": "0.9", 
        "use_global_stats": "False"
      }, 
      "inputs": [[143, 0, 0], [144, 0, 0], [145, 0, 0], [146, 0, 0], [147, 0, 0]]
    }, 
    {
      "op": "Activation", 
      "name": "relu_3a_double_3x3_1", 
      "attrs": {"act_type": "relu"}, 
      "inputs": [[148, 0, 0]]
    }, 
    {
      "op": "_contrib_quantized_pooling", 
      "name": "quantized_avg_pool_3a_pool", 
      "attrs": {
        "global_pool": "False", 
        "kernel": "(3,3)", 
        "pad": "(1,1)", 
        "pool_type": "avg", 
        "pooling_convention": "valid", 
        "stride": "(1,1)"
      }, 
      "inputs": [[50, 0, 0], [50, 1, 0], [50, 2, 0]]
    }, 
    {
      "op": "null", 
      "name": "conv_3a_proj_weight_quantize", 
      "inputs": []
    }, 
    {
      "op": "null", 
      "name": "conv_3a_proj_bias_quantize", 
      "inputs": []
    }, 
    {
      "op": "null", 
      "name": "conv_3a_proj_weight_quantize_min", 
      "inputs": []
    }, 
    {
      "op": "null", 
      "name": "conv_3a_proj_weight_quantize_max", 
      "inputs": []
    }, 
    {
      "op": "null", 
      "name": "conv_3a_proj_bias_quantize_min", 
      "inputs": []
    }, 
    {
      "op": "null", 
      "name": "conv_3a_proj_bias_quantize_max", 
      "inputs": []
    }, 
    {
      "op": "_contrib_quantized_conv", 
      "name": "quantized_conv_3a_proj", 
      "attrs": {
        "cudnn_off": "False", 
        "cudnn_tune": "off", 
        "dilate": "(1,1)", 
        "kernel": "(1,1)", 
        "no_bias": "False", 
        "num_filter": "32", 
        "num_group": "1", 
        "pad": "(0,0)", 
        "stride": "(1,1)", 
        "workspace": "1024"
      }, 
      "inputs": [[150, 0, 0], [151, 0, 0], [152, 0, 0], [150, 1, 0], [150, 2, 0], [153, 0, 0], [154, 0, 0], [155, 0, 0], [156, 0, 0]]
    }, 
    {
      "op": "_contrib_requantize", 
      "name": "requantize_conv_3a_proj", 
      "inputs": [[157, 0, 0], [157, 1, 0], [157, 2, 0]]
    }, 
    {
      "op": "_contrib_dequantize", 
      "name": "conv_3a_proj_dequantize", 
      "inputs": [[158, 0, 0], [158, 1, 0], [158, 2, 0]]
    }, 
    {
      "op": "null", 
      "name": "bn_3a_proj_gamma", 
      "inputs": []
    }, 
    {
      "op": "null", 
      "name": "bn_3a_proj_beta", 
      "inputs": []
    }, 
    {
      "op": "null", 
      "name": "bn_3a_proj_moving_mean", 
      "attrs": {
        "__init__": "[\"zero\", {}]", 
        "eps": "1.00001e-05", 
        "fix_gamma": "False", 
        "momentum": "0.9", 
        "use_global_stats": "False"
      }, 
      "inputs": []
    }, 
    {
      "op": "null", 
      "name": "bn_3a_proj_moving_var", 
      "attrs": {
        "__init__": "[\"one\", {}]", 
        "eps": "1.00001e-05", 
        "fix_gamma": "False", 
        "momentum": "0.9", 
        "use_global_stats": "False"
      }, 
      "inputs": []
    }, 
    {
      "op": "BatchNorm", 
      "name": "bn_3a_proj", 
      "attrs": {
        "eps": "1.00001e-05", 
        "fix_gamma": "False", 
        "momentum": "0.9", 
        "use_global_stats": "False"
      }, 
      "inputs": [[159, 0, 0], [160, 0, 0], [161, 0, 0], [162, 0, 0], [163, 0, 0]]
    }, 
    {
      "op": "Activation", 
      "name": "relu_3a_proj", 
      "attrs": {"act_type": "relu"}, 
      "inputs": [[164, 0, 0]]
    }, 
    {
      "op": "Concat", 
      "name": "ch_concat_3a_chconcat", 
      "attrs": {
        "dim": "1", 
        "num_args": "4"
      }, 
      "inputs": [[65, 0, 0], [98, 0, 0], [149, 0, 0], [165, 0, 0]]
    }, 
    {
      "op": "min", 
      "name": "ch_concat_3a_chconcat_min", 
      "inputs": [[166, 0, 0]]
    }, 
    {
      "op": "max", 
      "name": "ch_concat_3a_chconcat_max", 
      "inputs": [[166, 0, 0]]
    }, 
    {
      "op": "_contrib_quantize", 
      "name": "ch_concat_3a_chconcat_quantize", 
      "attrs": {"out_type": "uint8"}, 
      "inputs": [[166, 0, 0], [167, 0, 0], [168, 0, 0]]
    }, 
    {
      "op": "null", 
      "name": "conv_3b_1x1_weight_quantize", 
      "inputs": []
    }, 
    {
      "op": "null", 
      "name": "conv_3b_1x1_bias_quantize", 
      "inputs": []
    }, 
    {
      "op": "null", 
      "name": "conv_3b_1x1_weight_quantize_min", 
      "inputs": []
    }, 
    {
      "op": "null", 
      "name": "conv_3b_1x1_weight_quantize_max", 
      "inputs": []
    }, 
    {
      "op": "null", 
      "name": "conv_3b_1x1_bias_quantize_min", 
      "inputs": []
    }, 
    {
      "op": "null", 
      "name": "conv_3b_1x1_bias_quantize_max", 
      "inputs": []
    }, 
    {
      "op": "_contrib_quantized_conv", 
      "name": "quantized_conv_3b_1x1", 
      "attrs": {
        "cudnn_off": "False", 
        "cudnn_tune": "off", 
        "dilate": "(1,1)", 
        "kernel": "(1,1)", 
        "no_bias": "False", 
        "num_filter": "64", 
        "num_group": "1", 
        "pad": "(0,0)", 
        "stride": "(1,1)", 
        "workspace": "1024"
      }, 
      "inputs": [[169, 0, 0], [170, 0, 0], [171, 0, 0], [169, 1, 0], [169, 2, 0], [172, 0, 0], [173, 0, 0], [174, 0, 0], [175, 0, 0]]
    }, 
    {
      "op": "_contrib_requantize", 
      "name": "requantize_conv_3b_1x1", 
      "inputs": [[176, 0, 0], [176, 1, 0], [176, 2, 0]]
    }, 
    {
      "op": "_contrib_dequantize", 
      "name": "conv_3b_1x1_dequantize", 
      "inputs": [[177, 0, 0], [177, 1, 0], [177, 2, 0]]
    }, 
    {
      "op": "null", 
      "name": "bn_3b_1x1_gamma", 
      "inputs": []
    }, 
    {
      "op": "null", 
      "name": "bn_3b_1x1_beta", 
      "inputs": []
    }, 
    {
      "op": "null", 
      "name": "bn_3b_1x1_moving_mean", 
      "attrs": {
        "__init__": "[\"zero\", {}]", 
        "eps": "1.00001e-05", 
        "fix_gamma": "False", 
        "momentum": "0.9", 
        "use_global_stats": "False"
      }, 
      "inputs": []
    }, 
    {
      "op": "null", 
      "name": "bn_3b_1x1_moving_var", 
      "attrs": {
        "__init__": "[\"one\", {}]", 
        "eps": "1.00001e-05", 
        "fix_gamma": "False", 
        "momentum": "0.9", 
        "use_global_stats": "False"
      }, 
      "inputs": []
    }, 
    {
      "op": "BatchNorm", 
      "name": "bn_3b_1x1", 
      "attrs": {
        "eps": "1.00001e-05", 
        "fix_gamma": "False", 
        "momentum": "0.9", 
        "use_global_stats": "False"
      }, 
      "inputs": [[178, 0, 0], [179, 0, 0], [180, 0, 0], [181, 0, 0], [182, 0, 0]]
    }, 
    {
      "op": "Activation", 
      "name": "relu_3b_1x1", 
      "attrs": {"act_type": "relu"}, 
      "inputs": [[183, 0, 0]]
    }, 
    {
      "op": "null", 
      "name": "conv_3b_3x3_reduce_weight_quantize", 
      "inputs": []
    }, 
    {
      "op": "null", 
      "name": "conv_3b_3x3_reduce_bias_quantize", 
      "inputs": []
    }, 
    {
      "op": "null", 
      "name": "conv_3b_3x3_reduce_weight_quantize_min", 
      "inputs": []
    }, 
    {
      "op": "null", 
      "name": "conv_3b_3x3_reduce_weight_quantize_max", 
      "inputs": []
    }, 
    {
      "op": "null", 
      "name": "conv_3b_3x3_reduce_bias_quantize_min", 
      "inputs": []
    }, 
    {
      "op": "null", 
      "name": "conv_3b_3x3_reduce_bias_quantize_max", 
      "inputs": []
    }, 
    {
      "op": "_contrib_quantized_conv", 
      "name": "quantized_conv_3b_3x3_reduce", 
      "attrs": {
        "cudnn_off": "False", 
        "cudnn_tune": "off", 
        "dilate": "(1,1)", 
        "kernel": "(1,1)", 
        "no_bias": "False", 
        "num_filter": "64", 
        "num_group": "1", 
        "pad": "(0,0)", 
        "stride": "(1,1)", 
        "workspace": "1024"
      }, 
      "inputs": [[169, 0, 0], [185, 0, 0], [186, 0, 0], [169, 1, 0], [169, 2, 0], [187, 0, 0], [188, 0, 0], [189, 0, 0], [190, 0, 0]]
    }, 
    {
      "op": "_contrib_requantize", 
      "name": "requantize_conv_3b_3x3_reduce", 
      "inputs": [[191, 0, 0], [191, 1, 0], [191, 2, 0]]
    }, 
    {
      "op": "_contrib_dequantize", 
      "name": "conv_3b_3x3_reduce_dequantize", 
      "inputs": [[192, 0, 0], [192, 1, 0], [192, 2, 0]]
    }, 
    {
      "op": "null", 
      "name": "bn_3b_3x3_reduce_gamma", 
      "inputs": []
    }, 
    {
      "op": "null", 
      "name": "bn_3b_3x3_reduce_beta", 
      "inputs": []
    }, 
    {
      "op": "null", 
      "name": "bn_3b_3x3_reduce_moving_mean", 
      "attrs": {
        "__init__": "[\"zero\", {}]", 
        "eps": "1.00001e-05", 
        "fix_gamma": "False", 
        "momentum": "0.9", 
        "use_global_stats": "False"
      }, 
      "inputs": []
    }, 
    {
      "op": "null", 
      "name": "bn_3b_3x3_reduce_moving_var", 
      "attrs": {
        "__init__": "[\"one\", {}]", 
        "eps": "1.00001e-05", 
        "fix_gamma": "False", 
        "momentum": "0.9", 
        "use_global_stats": "False"
      }, 
      "inputs": []
    }, 
    {
      "op": "BatchNorm", 
      "name": "bn_3b_3x3_reduce", 
      "attrs": {
        "eps": "1.00001e-05", 
        "fix_gamma": "False", 
        "momentum": "0.9", 
        "use_global_stats": "False"
      }, 
      "inputs": [[193, 0, 0], [194, 0, 0], [195, 0, 0], [196, 0, 0], [197, 0, 0]]
    }, 
    {
      "op": "Activation", 
      "name": "relu_3b_3x3_reduce", 
      "attrs": {"act_type": "relu"}, 
      "inputs": [[198, 0, 0]]
    }, 
    {
      "op": "min", 
      "name": "relu_3b_3x3_reduce_min", 
      "inputs": [[199, 0, 0]]
    }, 
    {
      "op": "max", 
      "name": "relu_3b_3x3_reduce_max", 
      "inputs": [[199, 0, 0]]
    }, 
    {
      "op": "_contrib_quantize", 
      "name": "relu_3b_3x3_reduce_quantize", 
      "attrs": {"out_type": "uint8"}, 
      "inputs": [[199, 0, 0], [200, 0, 0], [201, 0, 0]]
    }, 
    {
      "op": "null", 
      "name": "conv_3b_3x3_weight_quantize", 
      "inputs": []
    }, 
    {
      "op": "null", 
      "name": "conv_3b_3x3_bias_quantize", 
      "inputs": []
    }, 
    {
      "op": "null", 
      "name": "conv_3b_3x3_weight_quantize_min", 
      "inputs": []
    }, 
    {
      "op": "null", 
      "name": "conv_3b_3x3_weight_quantize_max", 
      "inputs": []
    }, 
    {
      "op": "null", 
      "name": "conv_3b_3x3_bias_quantize_min", 
      "inputs": []
    }, 
    {
      "op": "null", 
      "name": "conv_3b_3x3_bias_quantize_max", 
      "inputs": []
    }, 
    {
      "op": "_contrib_quantized_conv", 
      "name": "quantized_conv_3b_3x3", 
      "attrs": {
        "cudnn_off": "False", 
        "cudnn_tune": "off", 
        "dilate": "(1,1)", 
        "kernel": "(3,3)", 
        "no_bias": "False", 
        "num_filter": "96", 
        "num_group": "1", 
        "pad": "(1,1)", 
        "stride": "(1,1)", 
        "workspace": "1024"
      }, 
      "inputs": [[202, 0, 0], [203, 0, 0], [204, 0, 0], [202, 1, 0], [202, 2, 0], [205, 0, 0], [206, 0, 0], [207, 0, 0], [208, 0, 0]]
    }, 
    {
      "op": "_contrib_requantize", 
      "name": "requantize_conv_3b_3x3", 
      "inputs": [[209, 0, 0], [209, 1, 0], [209, 2, 0]]
    }, 
    {
      "op": "_contrib_dequantize", 
      "name": "conv_3b_3x3_dequantize", 
      "inputs": [[210, 0, 0], [210, 1, 0], [210, 2, 0]]
    }, 
    {
      "op": "null", 
      "name": "bn_3b_3x3_gamma", 
      "inputs": []
    }, 
    {
      "op": "null", 
      "name": "bn_3b_3x3_beta", 
      "inputs": []
    }, 
    {
      "op": "null", 
      "name": "bn_3b_3x3_moving_mean", 
      "attrs": {
        "__init__": "[\"zero\", {}]", 
        "eps": "1.00001e-05", 
        "fix_gamma": "False", 
        "momentum": "0.9", 
        "use_global_stats": "False"
      }, 
      "inputs": []
    }, 
    {
      "op": "null", 
      "name": "bn_3b_3x3_moving_var", 
      "attrs": {
        "__init__": "[\"one\", {}]", 
        "eps": "1.00001e-05", 
        "fix_gamma": "False", 
        "momentum": "0.9", 
        "use_global_stats": "False"
      }, 
      "inputs": []
    }, 
    {
      "op": "BatchNorm", 
      "name": "bn_3b_3x3", 
      "attrs": {
        "eps": "1.00001e-05", 
        "fix_gamma": "False", 
        "momentum": "0.9", 
        "use_global_stats": "False"
      }, 
      "inputs": [[211, 0, 0], [212, 0, 0], [213, 0, 0], [214, 0, 0], [215, 0, 0]]
    }, 
    {
      "op": "Activation", 
      "name": "relu_3b_3x3", 
      "attrs": {"act_type": "relu"}, 
      "inputs": [[216, 0, 0]]
    }, 
    {
      "op": "null", 
      "name": "conv_3b_double_3x3_reduce_weight_quantize", 
      "inputs": []
    }, 
    {
      "op": "null", 
      "name": "conv_3b_double_3x3_reduce_bias_quantize", 
      "inputs": []
    }, 
    {
      "op": "null", 
      "name": "conv_3b_double_3x3_reduce_weight_quantize_min", 
      "inputs": []
    }, 
    {
      "op": "null", 
      "name": "conv_3b_double_3x3_reduce_weight_quantize_max", 
      "inputs": []
    }, 
    {
      "op": "null", 
      "name": "conv_3b_double_3x3_reduce_bias_quantize_min", 
      "inputs": []
    }, 
    {
      "op": "null", 
      "name": "conv_3b_double_3x3_reduce_bias_quantize_max", 
      "inputs": []
    }, 
    {
      "op": "_contrib_quantized_conv", 
      "name": "quantized_conv_3b_double_3x3_reduce", 
      "attrs": {
        "cudnn_off": "False", 
        "cudnn_tune": "off", 
        "dilate": "(1,1)", 
        "kernel": "(1,1)", 
        "no_bias": "False", 
        "num_filter": "64", 
        "num_group": "1", 
        "pad": "(0,0)", 
        "stride": "(1,1)", 
        "workspace": "1024"
      }, 
      "inputs": [[169, 0, 0], [218, 0, 0], [219, 0, 0], [169, 1, 0], [169, 2, 0], [220, 0, 0], [221, 0, 0], [222, 0, 0], [223, 0, 0]]
    }, 
    {
      "op": "_contrib_requantize", 
      "name": "requantize_conv_3b_double_3x3_reduce", 
      "inputs": [[224, 0, 0], [224, 1, 0], [224, 2, 0]]
    }, 
    {
      "op": "_contrib_dequantize", 
      "name": "conv_3b_double_3x3_reduce_dequantize", 
      "inputs": [[225, 0, 0], [225, 1, 0], [225, 2, 0]]
    }, 
    {
      "op": "null", 
      "name": "bn_3b_double_3x3_reduce_gamma", 
      "inputs": []
    }, 
    {
      "op": "null", 
      "name": "bn_3b_double_3x3_reduce_beta", 
      "inputs": []
    }, 
    {
      "op": "null", 
      "name": "bn_3b_double_3x3_reduce_moving_mean", 
      "attrs": {
        "__init__": "[\"zero\", {}]", 
        "eps": "1.00001e-05", 
        "fix_gamma": "False", 
        "momentum": "0.9", 
        "use_global_stats": "False"
      }, 
      "inputs": []
    }, 
    {
      "op": "null", 
      "name": "bn_3b_double_3x3_reduce_moving_var", 
      "attrs": {
        "__init__": "[\"one\", {}]", 
        "eps": "1.00001e-05", 
        "fix_gamma": "False", 
        "momentum": "0.9", 
        "use_global_stats": "False"
      }, 
      "inputs": []
    }, 
    {
      "op": "BatchNorm", 
      "name": "bn_3b_double_3x3_reduce", 
      "attrs": {
        "eps": "1.00001e-05", 
        "fix_gamma": "False", 
        "momentum": "0.9", 
        "use_global_stats": "False"
      }, 
      "inputs": [[226, 0, 0], [227, 0, 0], [228, 0, 0], [229, 0, 0], [230, 0, 0]]
    }, 
    {
      "op": "Activation", 
      "name": "relu_3b_double_3x3_reduce", 
      "attrs": {"act_type": "relu"}, 
      "inputs": [[231, 0, 0]]
    }, 
    {
      "op": "min", 
      "name": "relu_3b_double_3x3_reduce_min", 
      "inputs": [[232, 0, 0]]
    }, 
    {
      "op": "max", 
      "name": "relu_3b_double_3x3_reduce_max", 
      "inputs": [[232, 0, 0]]
    }, 
    {
      "op": "_contrib_quantize", 
      "name": "relu_3b_double_3x3_reduce_quantize", 
      "attrs": {"out_type": "uint8"}, 
      "inputs": [[232, 0, 0], [233, 0, 0], [234, 0, 0]]
    }, 
    {
      "op": "null", 
      "name": "conv_3b_double_3x3_0_weight_quantize", 
      "inputs": []
    }, 
    {
      "op": "null", 
      "name": "conv_3b_double_3x3_0_bias_quantize", 
      "inputs": []
    }, 
    {
      "op": "null", 
      "name": "conv_3b_double_3x3_0_weight_quantize_min", 
      "inputs": []
    }, 
    {
      "op": "null", 
      "name": "conv_3b_double_3x3_0_weight_quantize_max", 
      "inputs": []
    }, 
    {
      "op": "null", 
      "name": "conv_3b_double_3x3_0_bias_quantize_min", 
      "inputs": []
    }, 
    {
      "op": "null", 
      "name": "conv_3b_double_3x3_0_bias_quantize_max", 
      "inputs": []
    }, 
    {
      "op": "_contrib_quantized_conv", 
      "name": "quantized_conv_3b_double_3x3_0", 
      "attrs": {
        "cudnn_off": "False", 
        "cudnn_tune": "off", 
        "dilate": "(1,1)", 
        "kernel": "(3,3)", 
        "no_bias": "False", 
        "num_filter": "96", 
        "num_group": "1", 
        "pad": "(1,1)", 
        "stride": "(1,1)", 
        "workspace": "1024"
      }, 
      "inputs": [[235, 0, 0], [236, 0, 0], [237, 0, 0], [235, 1, 0], [235, 2, 0], [238, 0, 0], [239, 0, 0], [240, 0, 0], [241, 0, 0]]
    }, 
    {
      "op": "_contrib_requantize", 
      "name": "requantize_conv_3b_double_3x3_0", 
      "inputs": [[242, 0, 0], [242, 1, 0], [242, 2, 0]]
    }, 
    {
      "op": "_contrib_dequantize", 
      "name": "conv_3b_double_3x3_0_dequantize", 
      "inputs": [[243, 0, 0], [243, 1, 0], [243, 2, 0]]
    }, 
    {
      "op": "null", 
      "name": "bn_3b_double_3x3_0_gamma", 
      "inputs": []
    }, 
    {
      "op": "null", 
      "name": "bn_3b_double_3x3_0_beta", 
      "inputs": []
    }, 
    {
      "op": "null", 
      "name": "bn_3b_double_3x3_0_moving_mean", 
      "attrs": {
        "__init__": "[\"zero\", {}]", 
        "eps": "1.00001e-05", 
        "fix_gamma": "False", 
        "momentum": "0.9", 
        "use_global_stats": "False"
      }, 
      "inputs": []
    }, 
    {
      "op": "null", 
      "name": "bn_3b_double_3x3_0_moving_var", 
      "attrs": {
        "__init__": "[\"one\", {}]", 
        "eps": "1.00001e-05", 
        "fix_gamma": "False", 
        "momentum": "0.9", 
        "use_global_stats": "False"
      }, 
      "inputs": []
    }, 
    {
      "op": "BatchNorm", 
      "name": "bn_3b_double_3x3_0", 
      "attrs": {
        "eps": "1.00001e-05", 
        "fix_gamma": "False", 
        "momentum": "0.9", 
        "use_global_stats": "False"
      }, 
      "inputs": [[244, 0, 0], [245, 0, 0], [246, 0, 0], [247, 0, 0], [248, 0, 0]]
    }, 
    {
      "op": "Activation", 
      "name": "relu_3b_double_3x3_0", 
      "attrs": {"act_type": "relu"}, 
      "inputs": [[249, 0, 0]]
    }, 
    {
      "op": "min", 
      "name": "relu_3b_double_3x3_0_min", 
      "inputs": [[250, 0, 0]]
    }, 
    {
      "op": "max", 
      "name": "relu_3b_double_3x3_0_max", 
      "inputs": [[250, 0, 0]]
    }, 
    {
      "op": "_contrib_quantize", 
      "name": "relu_3b_double_3x3_0_quantize", 
      "attrs": {"out_type": "uint8"}, 
      "inputs": [[250, 0, 0], [251, 0, 0], [252, 0, 0]]
    }, 
    {
      "op": "null", 
      "name": "conv_3b_double_3x3_1_weight_quantize", 
      "inputs": []
    }, 
    {
      "op": "null", 
      "name": "conv_3b_double_3x3_1_bias_quantize", 
      "inputs": []
    }, 
    {
      "op": "null", 
      "name": "conv_3b_double_3x3_1_weight_quantize_min", 
      "inputs": []
    }, 
    {
      "op": "null", 
      "name": "conv_3b_double_3x3_1_weight_quantize_max", 
      "inputs": []
    }, 
    {
      "op": "null", 
      "name": "conv_3b_double_3x3_1_bias_quantize_min", 
      "inputs": []
    }, 
    {
      "op": "null", 
      "name": "conv_3b_double_3x3_1_bias_quantize_max", 
      "inputs": []
    }, 
    {
      "op": "_contrib_quantized_conv", 
      "name": "quantized_conv_3b_double_3x3_1", 
      "attrs": {
        "cudnn_off": "False", 
        "cudnn_tune": "off", 
        "dilate": "(1,1)", 
        "kernel": "(3,3)", 
        "no_bias": "False", 
        "num_filter": "96", 
        "num_group": "1", 
        "pad": "(1,1)", 
        "stride": "(1,1)", 
        "workspace": "1024"
      }, 
      "inputs": [[253, 0, 0], [254, 0, 0], [255, 0, 0], [253, 1, 0], [253, 2, 0], [256, 0, 0], [257, 0, 0], [258, 0, 0], [259, 0, 0]]
    }, 
    {
      "op": "_contrib_requantize", 
      "name": "requantize_conv_3b_double_3x3_1", 
      "inputs": [[260, 0, 0], [260, 1, 0], [260, 2, 0]]
    }, 
    {
      "op": "_contrib_dequantize", 
      "name": "conv_3b_double_3x3_1_dequantize", 
      "inputs": [[261, 0, 0], [261, 1, 0], [261, 2, 0]]
    }, 
    {
      "op": "null", 
      "name": "bn_3b_double_3x3_1_gamma", 
      "inputs": []
    }, 
    {
      "op": "null", 
      "name": "bn_3b_double_3x3_1_beta", 
      "inputs": []
    }, 
    {
      "op": "null", 
      "name": "bn_3b_double_3x3_1_moving_mean", 
      "attrs": {
        "__init__": "[\"zero\", {}]", 
        "eps": "1.00001e-05", 
        "fix_gamma": "False", 
        "momentum": "0.9", 
        "use_global_stats": "False"
      }, 
      "inputs": []
    }, 
    {
      "op": "null", 
      "name": "bn_3b_double_3x3_1_moving_var", 
      "attrs": {
        "__init__": "[\"one\", {}]", 
        "eps": "1.00001e-05", 
        "fix_gamma": "False", 
        "momentum": "0.9", 
        "use_global_stats": "False"
      }, 
      "inputs": []
    }, 
    {
      "op": "BatchNorm", 
      "name": "bn_3b_double_3x3_1", 
      "attrs": {
        "eps": "1.00001e-05", 
        "fix_gamma": "False", 
        "momentum": "0.9", 
        "use_global_stats": "False"
      }, 
      "inputs": [[262, 0, 0], [263, 0, 0], [264, 0, 0], [265, 0, 0], [266, 0, 0]]
    }, 
    {
      "op": "Activation", 
      "name": "relu_3b_double_3x3_1", 
      "attrs": {"act_type": "relu"}, 
      "inputs": [[267, 0, 0]]
    }, 
    {
      "op": "_contrib_quantized_pooling", 
      "name": "quantized_avg_pool_3b_pool", 
      "attrs": {
        "global_pool": "False", 
        "kernel": "(3,3)", 
        "pad": "(1,1)", 
        "pool_type": "avg", 
        "pooling_convention": "valid", 
        "stride": "(1,1)"
      }, 
      "inputs": [[169, 0, 0], [169, 1, 0], [169, 2, 0]]
    }, 
    {
      "op": "null", 
      "name": "conv_3b_proj_weight_quantize", 
      "inputs": []
    }, 
    {
      "op": "null", 
      "name": "conv_3b_proj_bias_quantize", 
      "inputs": []
    }, 
    {
      "op": "null", 
      "name": "conv_3b_proj_weight_quantize_min", 
      "inputs": []
    }, 
    {
      "op": "null", 
      "name": "conv_3b_proj_weight_quantize_max", 
      "inputs": []
    }, 
    {
      "op": "null", 
      "name": "conv_3b_proj_bias_quantize_min", 
      "inputs": []
    }, 
    {
      "op": "null", 
      "name": "conv_3b_proj_bias_quantize_max", 
      "inputs": []
    }, 
    {
      "op": "_contrib_quantized_conv", 
      "name": "quantized_conv_3b_proj", 
      "attrs": {
        "cudnn_off": "False", 
        "cudnn_tune": "off", 
        "dilate": "(1,1)", 
        "kernel": "(1,1)", 
        "no_bias": "False", 
        "num_filter": "64", 
        "num_group": "1", 
        "pad": "(0,0)", 
        "stride": "(1,1)", 
        "workspace": "1024"
      }, 
      "inputs": [[269, 0, 0], [270, 0, 0], [271, 0, 0], [269, 1, 0], [269, 2, 0], [272, 0, 0], [273, 0, 0], [274, 0, 0], [275, 0, 0]]
    }, 
    {
      "op": "_contrib_requantize", 
      "name": "requantize_conv_3b_proj", 
      "inputs": [[276, 0, 0], [276, 1, 0], [276, 2, 0]]
    }, 
    {
      "op": "_contrib_dequantize", 
      "name": "conv_3b_proj_dequantize", 
      "inputs": [[277, 0, 0], [277, 1, 0], [277, 2, 0]]
    }, 
    {
      "op": "null", 
      "name": "bn_3b_proj_gamma", 
      "inputs": []
    }, 
    {
      "op": "null", 
      "name": "bn_3b_proj_beta", 
      "inputs": []
    }, 
    {
      "op": "null", 
      "name": "bn_3b_proj_moving_mean", 
      "attrs": {
        "__init__": "[\"zero\", {}]", 
        "eps": "1.00001e-05", 
        "fix_gamma": "False", 
        "momentum": "0.9", 
        "use_global_stats": "False"
      }, 
      "inputs": []
    }, 
    {
      "op": "null", 
      "name": "bn_3b_proj_moving_var", 
      "attrs": {
        "__init__": "[\"one\", {}]", 
        "eps": "1.00001e-05", 
        "fix_gamma": "False", 
        "momentum": "0.9", 
        "use_global_stats": "False"
      }, 
      "inputs": []
    }, 
    {
      "op": "BatchNorm", 
      "name": "bn_3b_proj", 
      "attrs": {
        "eps": "1.00001e-05", 
        "fix_gamma": "False", 
        "momentum": "0.9", 
        "use_global_stats": "False"
      }, 
      "inputs": [[278, 0, 0], [279, 0, 0], [280, 0, 0], [281, 0, 0], [282, 0, 0]]
    }, 
    {
      "op": "Activation", 
      "name": "relu_3b_proj", 
      "attrs": {"act_type": "relu"}, 
      "inputs": [[283, 0, 0]]
    }, 
    {
      "op": "Concat", 
      "name": "ch_concat_3b_chconcat", 
      "attrs": {
        "dim": "1", 
        "num_args": "4"
      }, 
      "inputs": [[184, 0, 0], [217, 0, 0], [268, 0, 0], [284, 0, 0]]
    }, 
    {
      "op": "min", 
      "name": "ch_concat_3b_chconcat_min", 
      "inputs": [[285, 0, 0]]
    }, 
    {
      "op": "max", 
      "name": "ch_concat_3b_chconcat_max", 
      "inputs": [[285, 0, 0]]
    }, 
    {
      "op": "_contrib_quantize", 
      "name": "ch_concat_3b_chconcat_quantize", 
      "attrs": {"out_type": "uint8"}, 
      "inputs": [[285, 0, 0], [286, 0, 0], [287, 0, 0]]
    }, 
    {
      "op": "null", 
      "name": "conv_3c_3x3_reduce_weight_quantize", 
      "inputs": []
    }, 
    {
      "op": "null", 
      "name": "conv_3c_3x3_reduce_bias_quantize", 
      "inputs": []
    }, 
    {
      "op": "null", 
      "name": "conv_3c_3x3_reduce_weight_quantize_min", 
      "inputs": []
    }, 
    {
      "op": "null", 
      "name": "conv_3c_3x3_reduce_weight_quantize_max", 
      "inputs": []
    }, 
    {
      "op": "null", 
      "name": "conv_3c_3x3_reduce_bias_quantize_min", 
      "inputs": []
    }, 
    {
      "op": "null", 
      "name": "conv_3c_3x3_reduce_bias_quantize_max", 
      "inputs": []
    }, 
    {
      "op": "_contrib_quantized_conv", 
      "name": "quantized_conv_3c_3x3_reduce", 
      "attrs": {
        "cudnn_off": "False", 
        "cudnn_tune": "off", 
        "dilate": "(1,1)", 
        "kernel": "(1,1)", 
        "no_bias": "False", 
        "num_filter": "128", 
        "num_group": "1", 
        "pad": "(0,0)", 
        "stride": "(1,1)", 
        "workspace": "1024"
      }, 
      "inputs": [[288, 0, 0], [289, 0, 0], [290, 0, 0], [288, 1, 0], [288, 2, 0], [291, 0, 0], [292, 0, 0], [293, 0, 0], [294, 0, 0]]
    }, 
    {
      "op": "_contrib_requantize", 
      "name": "requantize_conv_3c_3x3_reduce", 
      "inputs": [[295, 0, 0], [295, 1, 0], [295, 2, 0]]
    }, 
    {
      "op": "_contrib_dequantize", 
      "name": "conv_3c_3x3_reduce_dequantize", 
      "inputs": [[296, 0, 0], [296, 1, 0], [296, 2, 0]]
    }, 
    {
      "op": "null", 
      "name": "bn_3c_3x3_reduce_gamma", 
      "inputs": []
    }, 
    {
      "op": "null", 
      "name": "bn_3c_3x3_reduce_beta", 
      "inputs": []
    }, 
    {
      "op": "null", 
      "name": "bn_3c_3x3_reduce_moving_mean", 
      "attrs": {
        "__init__": "[\"zero\", {}]", 
        "eps": "1.00001e-05", 
        "fix_gamma": "False", 
        "momentum": "0.9", 
        "use_global_stats": "False"
      }, 
      "inputs": []
    }, 
    {
      "op": "null", 
      "name": "bn_3c_3x3_reduce_moving_var", 
      "attrs": {
        "__init__": "[\"one\", {}]", 
        "eps": "1.00001e-05", 
        "fix_gamma": "False", 
        "momentum": "0.9", 
        "use_global_stats": "False"
      }, 
      "inputs": []
    }, 
    {
      "op": "BatchNorm", 
      "name": "bn_3c_3x3_reduce", 
      "attrs": {
        "eps": "1.00001e-05", 
        "fix_gamma": "False", 
        "momentum": "0.9", 
        "use_global_stats": "False"
      }, 
      "inputs": [[297, 0, 0], [298, 0, 0], [299, 0, 0], [300, 0, 0], [301, 0, 0]]
    }, 
    {
      "op": "Activation", 
      "name": "relu_3c_3x3_reduce", 
      "attrs": {"act_type": "relu"}, 
      "inputs": [[302, 0, 0]]
    }, 
    {
      "op": "min", 
      "name": "relu_3c_3x3_reduce_min", 
      "inputs": [[303, 0, 0]]
    }, 
    {
      "op": "max", 
      "name": "relu_3c_3x3_reduce_max", 
      "inputs": [[303, 0, 0]]
    }, 
    {
      "op": "_contrib_quantize", 
      "name": "relu_3c_3x3_reduce_quantize", 
      "attrs": {"out_type": "uint8"}, 
      "inputs": [[303, 0, 0], [304, 0, 0], [305, 0, 0]]
    }, 
    {
      "op": "null", 
      "name": "conv_3c_3x3_weight_quantize", 
      "inputs": []
    }, 
    {
      "op": "null", 
      "name": "conv_3c_3x3_bias_quantize", 
      "inputs": []
    }, 
    {
      "op": "null", 
      "name": "conv_3c_3x3_weight_quantize_min", 
      "inputs": []
    }, 
    {
      "op": "null", 
      "name": "conv_3c_3x3_weight_quantize_max", 
      "inputs": []
    }, 
    {
      "op": "null", 
      "name": "conv_3c_3x3_bias_quantize_min", 
      "inputs": []
    }, 
    {
      "op": "null", 
      "name": "conv_3c_3x3_bias_quantize_max", 
      "inputs": []
    }, 
    {
      "op": "_contrib_quantized_conv", 
      "name": "quantized_conv_3c_3x3", 
      "attrs": {
        "cudnn_off": "False", 
        "cudnn_tune": "off", 
        "dilate": "(1,1)", 
        "kernel": "(3,3)", 
        "no_bias": "False", 
        "num_filter": "160", 
        "num_group": "1", 
        "pad": "(1,1)", 
        "stride": "(2,2)", 
        "workspace": "1024"
      }, 
      "inputs": [[306, 0, 0], [307, 0, 0], [308, 0, 0], [306, 1, 0], [306, 2, 0], [309, 0, 0], [310, 0, 0], [311, 0, 0], [312, 0, 0]]
    }, 
    {
      "op": "_contrib_requantize", 
      "name": "requantize_conv_3c_3x3", 
      "inputs": [[313, 0, 0], [313, 1, 0], [313, 2, 0]]
    }, 
    {
      "op": "_contrib_dequantize", 
      "name": "conv_3c_3x3_dequantize", 
      "inputs": [[314, 0, 0], [314, 1, 0], [314, 2, 0]]
    }, 
    {
      "op": "null", 
      "name": "bn_3c_3x3_gamma", 
      "inputs": []
    }, 
    {
      "op": "null", 
      "name": "bn_3c_3x3_beta", 
      "inputs": []
    }, 
    {
      "op": "null", 
      "name": "bn_3c_3x3_moving_mean", 
      "attrs": {
        "__init__": "[\"zero\", {}]", 
        "eps": "1.00001e-05", 
        "fix_gamma": "False", 
        "momentum": "0.9", 
        "use_global_stats": "False"
      }, 
      "inputs": []
    }, 
    {
      "op": "null", 
      "name": "bn_3c_3x3_moving_var", 
      "attrs": {
        "__init__": "[\"one\", {}]", 
        "eps": "1.00001e-05", 
        "fix_gamma": "False", 
        "momentum": "0.9", 
        "use_global_stats": "False"
      }, 
      "inputs": []
    }, 
    {
      "op": "BatchNorm", 
      "name": "bn_3c_3x3", 
      "attrs": {
        "eps": "1.00001e-05", 
        "fix_gamma": "False", 
        "momentum": "0.9", 
        "use_global_stats": "False"
      }, 
      "inputs": [[315, 0, 0], [316, 0, 0], [317, 0, 0], [318, 0, 0], [319, 0, 0]]
    }, 
    {
      "op": "Activation", 
      "name": "relu_3c_3x3", 
      "attrs": {"act_type": "relu"}, 
      "inputs": [[320, 0, 0]]
    }, 
    {
      "op": "null", 
      "name": "conv_3c_double_3x3_reduce_weight_quantize", 
      "inputs": []
    }, 
    {
      "op": "null", 
      "name": "conv_3c_double_3x3_reduce_bias_quantize", 
      "inputs": []
    }, 
    {
      "op": "null", 
      "name": "conv_3c_double_3x3_reduce_weight_quantize_min", 
      "inputs": []
    }, 
    {
      "op": "null", 
      "name": "conv_3c_double_3x3_reduce_weight_quantize_max", 
      "inputs": []
    }, 
    {
      "op": "null", 
      "name": "conv_3c_double_3x3_reduce_bias_quantize_min", 
      "inputs": []
    }, 
    {
      "op": "null", 
      "name": "conv_3c_double_3x3_reduce_bias_quantize_max", 
      "inputs": []
    }, 
    {
      "op": "_contrib_quantized_conv", 
      "name": "quantized_conv_3c_double_3x3_reduce", 
      "attrs": {
        "cudnn_off": "False", 
        "cudnn_tune": "off", 
        "dilate": "(1,1)", 
        "kernel": "(1,1)", 
        "no_bias": "False", 
        "num_filter": "64", 
        "num_group": "1", 
        "pad": "(0,0)", 
        "stride": "(1,1)", 
        "workspace": "1024"
      }, 
      "inputs": [[288, 0, 0], [322, 0, 0], [323, 0, 0], [288, 1, 0], [288, 2, 0], [324, 0, 0], [325, 0, 0], [326, 0, 0], [327, 0, 0]]
    }, 
    {
      "op": "_contrib_requantize", 
      "name": "requantize_conv_3c_double_3x3_reduce", 
      "inputs": [[328, 0, 0], [328, 1, 0], [328, 2, 0]]
    }, 
    {
      "op": "_contrib_dequantize", 
      "name": "conv_3c_double_3x3_reduce_dequantize", 
      "inputs": [[329, 0, 0], [329, 1, 0], [329, 2, 0]]
    }, 
    {
      "op": "null", 
      "name": "bn_3c_double_3x3_reduce_gamma", 
      "inputs": []
    }, 
    {
      "op": "null", 
      "name": "bn_3c_double_3x3_reduce_beta", 
      "inputs": []
    }, 
    {
      "op": "null", 
      "name": "bn_3c_double_3x3_reduce_moving_mean", 
      "attrs": {
        "__init__": "[\"zero\", {}]", 
        "eps": "1.00001e-05", 
        "fix_gamma": "False", 
        "momentum": "0.9", 
        "use_global_stats": "False"
      }, 
      "inputs": []
    }, 
    {
      "op": "null", 
      "name": "bn_3c_double_3x3_reduce_moving_var", 
      "attrs": {
        "__init__": "[\"one\", {}]", 
        "eps": "1.00001e-05", 
        "fix_gamma": "False", 
        "momentum": "0.9", 
        "use_global_stats": "False"
      }, 
      "inputs": []
    }, 
    {
      "op": "BatchNorm", 
      "name": "bn_3c_double_3x3_reduce", 
      "attrs": {
        "eps": "1.00001e-05", 
        "fix_gamma": "False", 
        "momentum": "0.9", 
        "use_global_stats": "False"
      }, 
      "inputs": [[330, 0, 0], [331, 0, 0], [332, 0, 0], [333, 0, 0], [334, 0, 0]]
    }, 
    {
      "op": "Activation", 
      "name": "relu_3c_double_3x3_reduce", 
      "attrs": {"act_type": "relu"}, 
      "inputs": [[335, 0, 0]]
    }, 
    {
      "op": "min", 
      "name": "relu_3c_double_3x3_reduce_min", 
      "inputs": [[336, 0, 0]]
    }, 
    {
      "op": "max", 
      "name": "relu_3c_double_3x3_reduce_max", 
      "inputs": [[336, 0, 0]]
    }, 
    {
      "op": "_contrib_quantize", 
      "name": "relu_3c_double_3x3_reduce_quantize", 
      "attrs": {"out_type": "uint8"}, 
      "inputs": [[336, 0, 0], [337, 0, 0], [338, 0, 0]]
    }, 
    {
      "op": "null", 
      "name": "conv_3c_double_3x3_0_weight_quantize", 
      "inputs": []
    }, 
    {
      "op": "null", 
      "name": "conv_3c_double_3x3_0_bias_quantize", 
      "inputs": []
    }, 
    {
      "op": "null", 
      "name": "conv_3c_double_3x3_0_weight_quantize_min", 
      "inputs": []
    }, 
    {
      "op": "null", 
      "name": "conv_3c_double_3x3_0_weight_quantize_max", 
      "inputs": []
    }, 
    {
      "op": "null", 
      "name": "conv_3c_double_3x3_0_bias_quantize_min", 
      "inputs": []
    }, 
    {
      "op": "null", 
      "name": "conv_3c_double_3x3_0_bias_quantize_max", 
      "inputs": []
    }, 
    {
      "op": "_contrib_quantized_conv", 
      "name": "quantized_conv_3c_double_3x3_0", 
      "attrs": {
        "cudnn_off": "False", 
        "cudnn_tune": "off", 
        "dilate": "(1,1)", 
        "kernel": "(3,3)", 
        "no_bias": "False", 
        "num_filter": "96", 
        "num_group": "1", 
        "pad": "(1,1)", 
        "stride": "(1,1)", 
        "workspace": "1024"
      }, 
      "inputs": [[339, 0, 0], [340, 0, 0], [341, 0, 0], [339, 1, 0], [339, 2, 0], [342, 0, 0], [343, 0, 0], [344, 0, 0], [345, 0, 0]]
    }, 
    {
      "op": "_contrib_requantize", 
      "name": "requantize_conv_3c_double_3x3_0", 
      "inputs": [[346, 0, 0], [346, 1, 0], [346, 2, 0]]
    }, 
    {
      "op": "_contrib_dequantize", 
      "name": "conv_3c_double_3x3_0_dequantize", 
      "inputs": [[347, 0, 0], [347, 1, 0], [347, 2, 0]]
    }, 
    {
      "op": "null", 
      "name": "bn_3c_double_3x3_0_gamma", 
      "inputs": []
    }, 
    {
      "op": "null", 
      "name": "bn_3c_double_3x3_0_beta", 
      "inputs": []
    }, 
    {
      "op": "null", 
      "name": "bn_3c_double_3x3_0_moving_mean", 
      "attrs": {
        "__init__": "[\"zero\", {}]", 
        "eps": "1.00001e-05", 
        "fix_gamma": "False", 
        "momentum": "0.9", 
        "use_global_stats": "False"
      }, 
      "inputs": []
    }, 
    {
      "op": "null", 
      "name": "bn_3c_double_3x3_0_moving_var", 
      "attrs": {
        "__init__": "[\"one\", {}]", 
        "eps": "1.00001e-05", 
        "fix_gamma": "False", 
        "momentum": "0.9", 
        "use_global_stats": "False"
      }, 
      "inputs": []
    }, 
    {
      "op": "BatchNorm", 
      "name": "bn_3c_double_3x3_0", 
      "attrs": {
        "eps": "1.00001e-05", 
        "fix_gamma": "False", 
        "momentum": "0.9", 
        "use_global_stats": "False"
      }, 
      "inputs": [[348, 0, 0], [349, 0, 0], [350, 0, 0], [351, 0, 0], [352, 0, 0]]
    }, 
    {
      "op": "Activation", 
      "name": "relu_3c_double_3x3_0", 
      "attrs": {"act_type": "relu"}, 
      "inputs": [[353, 0, 0]]
    }, 
    {
      "op": "min", 
      "name": "relu_3c_double_3x3_0_min", 
      "inputs": [[354, 0, 0]]
    }, 
    {
      "op": "max", 
      "name": "relu_3c_double_3x3_0_max", 
      "inputs": [[354, 0, 0]]
    }, 
    {
      "op": "_contrib_quantize", 
      "name": "relu_3c_double_3x3_0_quantize", 
      "attrs": {"out_type": "uint8"}, 
      "inputs": [[354, 0, 0], [355, 0, 0], [356, 0, 0]]
    }, 
    {
      "op": "null", 
      "name": "conv_3c_double_3x3_1_weight_quantize", 
      "inputs": []
    }, 
    {
      "op": "null", 
      "name": "conv_3c_double_3x3_1_bias_quantize", 
      "inputs": []
    }, 
    {
      "op": "null", 
      "name": "conv_3c_double_3x3_1_weight_quantize_min", 
      "inputs": []
    }, 
    {
      "op": "null", 
      "name": "conv_3c_double_3x3_1_weight_quantize_max", 
      "inputs": []
    }, 
    {
      "op": "null", 
      "name": "conv_3c_double_3x3_1_bias_quantize_min", 
      "inputs": []
    }, 
    {
      "op": "null", 
      "name": "conv_3c_double_3x3_1_bias_quantize_max", 
      "inputs": []
    }, 
    {
      "op": "_contrib_quantized_conv", 
      "name": "quantized_conv_3c_double_3x3_1", 
      "attrs": {
        "cudnn_off": "False", 
        "cudnn_tune": "off", 
        "dilate": "(1,1)", 
        "kernel": "(3,3)", 
        "no_bias": "False", 
        "num_filter": "96", 
        "num_group": "1", 
        "pad": "(1,1)", 
        "stride": "(2,2)", 
        "workspace": "1024"
      }, 
      "inputs": [[357, 0, 0], [358, 0, 0], [359, 0, 0], [357, 1, 0], [357, 2, 0], [360, 0, 0], [361, 0, 0], [362, 0, 0], [363, 0, 0]]
    }, 
    {
      "op": "_contrib_requantize", 
      "name": "requantize_conv_3c_double_3x3_1", 
      "inputs": [[364, 0, 0], [364, 1, 0], [364, 2, 0]]
    }, 
    {
      "op": "_contrib_dequantize", 
      "name": "conv_3c_double_3x3_1_dequantize", 
      "inputs": [[365, 0, 0], [365, 1, 0], [365, 2, 0]]
    }, 
    {
      "op": "null", 
      "name": "bn_3c_double_3x3_1_gamma", 
      "inputs": []
    }, 
    {
      "op": "null", 
      "name": "bn_3c_double_3x3_1_beta", 
      "inputs": []
    }, 
    {
      "op": "null", 
      "name": "bn_3c_double_3x3_1_moving_mean", 
      "attrs": {
        "__init__": "[\"zero\", {}]", 
        "eps": "1.00001e-05", 
        "fix_gamma": "False", 
        "momentum": "0.9", 
        "use_global_stats": "False"
      }, 
      "inputs": []
    }, 
    {
      "op": "null", 
      "name": "bn_3c_double_3x3_1_moving_var", 
      "attrs": {
        "__init__": "[\"one\", {}]", 
        "eps": "1.00001e-05", 
        "fix_gamma": "False", 
        "momentum": "0.9", 
        "use_global_stats": "False"
      }, 
      "inputs": []
    }, 
    {
      "op": "BatchNorm", 
      "name": "bn_3c_double_3x3_1", 
      "attrs": {
        "eps": "1.00001e-05", 
        "fix_gamma": "False", 
        "momentum": "0.9", 
        "use_global_stats": "False"
      }, 
      "inputs": [[366, 0, 0], [367, 0, 0], [368, 0, 0], [369, 0, 0], [370, 0, 0]]
    }, 
    {
      "op": "Activation", 
      "name": "relu_3c_double_3x3_1", 
      "attrs": {"act_type": "relu"}, 
      "inputs": [[371, 0, 0]]
    }, 
    {
      "op": "_contrib_quantized_pooling", 
      "name": "quantized_max_pool_3c_pool", 
      "attrs": {
        "global_pool": "False", 
        "kernel": "(3,3)", 
        "pad": "(1,1)", 
        "pool_type": "max", 
        "pooling_convention": "valid", 
        "stride": "(2,2)"
      }, 
      "inputs": [[288, 0, 0], [288, 1, 0], [288, 2, 0]]
    }, 
    {
      "op": "_contrib_dequantize", 
      "name": "max_pool_3c_pool_dequantize", 
      "inputs": [[373, 0, 0], [373, 2, 0], [373, 3, 0]]
    }, 
    {
      "op": "Concat", 
      "name": "ch_concat_3c_chconcat", 
      "attrs": {
        "dim": "1", 
        "num_args": "3"
      }, 
      "inputs": [[321, 0, 0], [372, 0, 0], [374, 0, 0]]
    }, 
    {
      "op": "min", 
      "name": "ch_concat_3c_chconcat_min", 
      "inputs": [[375, 0, 0]]
    }, 
    {
      "op": "max", 
      "name": "ch_concat_3c_chconcat_max", 
      "inputs": [[375, 0, 0]]
    }, 
    {
      "op": "_contrib_quantize", 
      "name": "ch_concat_3c_chconcat_quantize", 
      "attrs": {"out_type": "uint8"}, 
      "inputs": [[375, 0, 0], [376, 0, 0], [377, 0, 0]]
    }, 
    {
      "op": "null", 
      "name": "conv_4a_1x1_weight_quantize", 
      "inputs": []
    }, 
    {
      "op": "null", 
      "name": "conv_4a_1x1_bias_quantize", 
      "inputs": []
    }, 
    {
      "op": "null", 
      "name": "conv_4a_1x1_weight_quantize_min", 
      "inputs": []
    }, 
    {
      "op": "null", 
      "name": "conv_4a_1x1_weight_quantize_max", 
      "inputs": []
    }, 
    {
      "op": "null", 
      "name": "conv_4a_1x1_bias_quantize_min", 
      "inputs": []
    }, 
    {
      "op": "null", 
      "name": "conv_4a_1x1_bias_quantize_max", 
      "inputs": []
    }, 
    {
      "op": "_contrib_quantized_conv", 
      "name": "quantized_conv_4a_1x1", 
      "attrs": {
        "cudnn_off": "False", 
        "cudnn_tune": "off", 
        "dilate": "(1,1)", 
        "kernel": "(1,1)", 
        "no_bias": "False", 
        "num_filter": "224", 
        "num_group": "1", 
        "pad": "(0,0)", 
        "stride": "(1,1)", 
        "workspace": "1024"
      }, 
      "inputs": [[378, 0, 0], [379, 0, 0], [380, 0, 0], [378, 1, 0], [378, 2, 0], [381, 0, 0], [382, 0, 0], [383, 0, 0], [384, 0, 0]]
    }, 
    {
      "op": "_contrib_requantize", 
      "name": "requantize_conv_4a_1x1", 
      "inputs": [[385, 0, 0], [385, 1, 0], [385, 2, 0]]
    }, 
    {
      "op": "_contrib_dequantize", 
      "name": "conv_4a_1x1_dequantize", 
      "inputs": [[386, 0, 0], [386, 1, 0], [386, 2, 0]]
    }, 
    {
      "op": "null", 
      "name": "bn_4a_1x1_gamma", 
      "inputs": []
    }, 
    {
      "op": "null", 
      "name": "bn_4a_1x1_beta", 
      "inputs": []
    }, 
    {
      "op": "null", 
      "name": "bn_4a_1x1_moving_mean", 
      "attrs": {
        "__init__": "[\"zero\", {}]", 
        "eps": "1.00001e-05", 
        "fix_gamma": "False", 
        "momentum": "0.9", 
        "use_global_stats": "False"
      }, 
      "inputs": []
    }, 
    {
      "op": "null", 
      "name": "bn_4a_1x1_moving_var", 
      "attrs": {
        "__init__": "[\"one\", {}]", 
        "eps": "1.00001e-05", 
        "fix_gamma": "False", 
        "momentum": "0.9", 
        "use_global_stats": "False"
      }, 
      "inputs": []
    }, 
    {
      "op": "BatchNorm", 
      "name": "bn_4a_1x1", 
      "attrs": {
        "eps": "1.00001e-05", 
        "fix_gamma": "False", 
        "momentum": "0.9", 
        "use_global_stats": "False"
      }, 
      "inputs": [[387, 0, 0], [388, 0, 0], [389, 0, 0], [390, 0, 0], [391, 0, 0]]
    }, 
    {
      "op": "Activation", 
      "name": "relu_4a_1x1", 
      "attrs": {"act_type": "relu"}, 
      "inputs": [[392, 0, 0]]
    }, 
    {
      "op": "null", 
      "name": "conv_4a_3x3_reduce_weight_quantize", 
      "inputs": []
    }, 
    {
      "op": "null", 
      "name": "conv_4a_3x3_reduce_bias_quantize", 
      "inputs": []
    }, 
    {
      "op": "null", 
      "name": "conv_4a_3x3_reduce_weight_quantize_min", 
      "inputs": []
    }, 
    {
      "op": "null", 
      "name": "conv_4a_3x3_reduce_weight_quantize_max", 
      "inputs": []
    }, 
    {
      "op": "null", 
      "name": "conv_4a_3x3_reduce_bias_quantize_min", 
      "inputs": []
    }, 
    {
      "op": "null", 
      "name": "conv_4a_3x3_reduce_bias_quantize_max", 
      "inputs": []
    }, 
    {
      "op": "_contrib_quantized_conv", 
      "name": "quantized_conv_4a_3x3_reduce", 
      "attrs": {
        "cudnn_off": "False", 
        "cudnn_tune": "off", 
        "dilate": "(1,1)", 
        "kernel": "(1,1)", 
        "no_bias": "False", 
        "num_filter": "64", 
        "num_group": "1", 
        "pad": "(0,0)", 
        "stride": "(1,1)", 
        "workspace": "1024"
      }, 
      "inputs": [[378, 0, 0], [394, 0, 0], [395, 0, 0], [378, 1, 0], [378, 2, 0], [396, 0, 0], [397, 0, 0], [398, 0, 0], [399, 0, 0]]
    }, 
    {
      "op": "_contrib_requantize", 
      "name": "requantize_conv_4a_3x3_reduce", 
      "inputs": [[400, 0, 0], [400, 1, 0], [400, 2, 0]]
    }, 
    {
      "op": "_contrib_dequantize", 
      "name": "conv_4a_3x3_reduce_dequantize", 
      "inputs": [[401, 0, 0], [401, 1, 0], [401, 2, 0]]
    }, 
    {
      "op": "null", 
      "name": "bn_4a_3x3_reduce_gamma", 
      "inputs": []
    }, 
    {
      "op": "null", 
      "name": "bn_4a_3x3_reduce_beta", 
      "inputs": []
    }, 
    {
      "op": "null", 
      "name": "bn_4a_3x3_reduce_moving_mean", 
      "attrs": {
        "__init__": "[\"zero\", {}]", 
        "eps": "1.00001e-05", 
        "fix_gamma": "False", 
        "momentum": "0.9", 
        "use_global_stats": "False"
      }, 
      "inputs": []
    }, 
    {
      "op": "null", 
      "name": "bn_4a_3x3_reduce_moving_var", 
      "attrs": {
        "__init__": "[\"one\", {}]", 
        "eps": "1.00001e-05", 
        "fix_gamma": "False", 
        "momentum": "0.9", 
        "use_global_stats": "False"
      }, 
      "inputs": []
    }, 
    {
      "op": "BatchNorm", 
      "name": "bn_4a_3x3_reduce", 
      "attrs": {
        "eps": "1.00001e-05", 
        "fix_gamma": "False", 
        "momentum": "0.9", 
        "use_global_stats": "False"
      }, 
      "inputs": [[402, 0, 0], [403, 0, 0], [404, 0, 0], [405, 0, 0], [406, 0, 0]]
    }, 
    {
      "op": "Activation", 
      "name": "relu_4a_3x3_reduce", 
      "attrs": {"act_type": "relu"}, 
      "inputs": [[407, 0, 0]]
    }, 
    {
      "op": "min", 
      "name": "relu_4a_3x3_reduce_min", 
      "inputs": [[408, 0, 0]]
    }, 
    {
      "op": "max", 
      "name": "relu_4a_3x3_reduce_max", 
      "inputs": [[408, 0, 0]]
    }, 
    {
      "op": "_contrib_quantize", 
      "name": "relu_4a_3x3_reduce_quantize", 
      "attrs": {"out_type": "uint8"}, 
      "inputs": [[408, 0, 0], [409, 0, 0], [410, 0, 0]]
    }, 
    {
      "op": "null", 
      "name": "conv_4a_3x3_weight_quantize", 
      "inputs": []
    }, 
    {
      "op": "null", 
      "name": "conv_4a_3x3_bias_quantize", 
      "inputs": []
    }, 
    {
      "op": "null", 
      "name": "conv_4a_3x3_weight_quantize_min", 
      "inputs": []
    }, 
    {
      "op": "null", 
      "name": "conv_4a_3x3_weight_quantize_max", 
      "inputs": []
    }, 
    {
      "op": "null", 
      "name": "conv_4a_3x3_bias_quantize_min", 
      "inputs": []
    }, 
    {
      "op": "null", 
      "name": "conv_4a_3x3_bias_quantize_max", 
      "inputs": []
    }, 
    {
      "op": "_contrib_quantized_conv", 
      "name": "quantized_conv_4a_3x3", 
      "attrs": {
        "cudnn_off": "False", 
        "cudnn_tune": "off", 
        "dilate": "(1,1)", 
        "kernel": "(3,3)", 
        "no_bias": "False", 
        "num_filter": "96", 
        "num_group": "1", 
        "pad": "(1,1)", 
        "stride": "(1,1)", 
        "workspace": "1024"
      }, 
      "inputs": [[411, 0, 0], [412, 0, 0], [413, 0, 0], [411, 1, 0], [411, 2, 0], [414, 0, 0], [415, 0, 0], [416, 0, 0], [417, 0, 0]]
    }, 
    {
      "op": "_contrib_requantize", 
      "name": "requantize_conv_4a_3x3", 
      "inputs": [[418, 0, 0], [418, 1, 0], [418, 2, 0]]
    }, 
    {
      "op": "_contrib_dequantize", 
      "name": "conv_4a_3x3_dequantize", 
      "inputs": [[419, 0, 0], [419, 1, 0], [419, 2, 0]]
    }, 
    {
      "op": "null", 
      "name": "bn_4a_3x3_gamma", 
      "inputs": []
    }, 
    {
      "op": "null", 
      "name": "bn_4a_3x3_beta", 
      "inputs": []
    }, 
    {
      "op": "null", 
      "name": "bn_4a_3x3_moving_mean", 
      "attrs": {
        "__init__": "[\"zero\", {}]", 
        "eps": "1.00001e-05", 
        "fix_gamma": "False", 
        "momentum": "0.9", 
        "use_global_stats": "False"
      }, 
      "inputs": []
    }, 
    {
      "op": "null", 
      "name": "bn_4a_3x3_moving_var", 
      "attrs": {
        "__init__": "[\"one\", {}]", 
        "eps": "1.00001e-05", 
        "fix_gamma": "False", 
        "momentum": "0.9", 
        "use_global_stats": "False"
      }, 
      "inputs": []
    }, 
    {
      "op": "BatchNorm", 
      "name": "bn_4a_3x3", 
      "attrs": {
        "eps": "1.00001e-05", 
        "fix_gamma": "False", 
        "momentum": "0.9", 
        "use_global_stats": "False"
      }, 
      "inputs": [[420, 0, 0], [421, 0, 0], [422, 0, 0], [423, 0, 0], [424, 0, 0]]
    }, 
    {
      "op": "Activation", 
      "name": "relu_4a_3x3", 
      "attrs": {"act_type": "relu"}, 
      "inputs": [[425, 0, 0]]
    }, 
    {
      "op": "null", 
      "name": "conv_4a_double_3x3_reduce_weight_quantize", 
      "inputs": []
    }, 
    {
      "op": "null", 
      "name": "conv_4a_double_3x3_reduce_bias_quantize", 
      "inputs": []
    }, 
    {
      "op": "null", 
      "name": "conv_4a_double_3x3_reduce_weight_quantize_min", 
      "inputs": []
    }, 
    {
      "op": "null", 
      "name": "conv_4a_double_3x3_reduce_weight_quantize_max", 
      "inputs": []
    }, 
    {
      "op": "null", 
      "name": "conv_4a_double_3x3_reduce_bias_quantize_min", 
      "inputs": []
    }, 
    {
      "op": "null", 
      "name": "conv_4a_double_3x3_reduce_bias_quantize_max", 
      "inputs": []
    }, 
    {
      "op": "_contrib_quantized_conv", 
      "name": "quantized_conv_4a_double_3x3_reduce", 
      "attrs": {
        "cudnn_off": "False", 
        "cudnn_tune": "off", 
        "dilate": "(1,1)", 
        "kernel": "(1,1)", 
        "no_bias": "False", 
        "num_filter": "96", 
        "num_group": "1", 
        "pad": "(0,0)", 
        "stride": "(1,1)", 
        "workspace": "1024"
      }, 
      "inputs": [[378, 0, 0], [427, 0, 0], [428, 0, 0], [378, 1, 0], [378, 2, 0], [429, 0, 0], [430, 0, 0], [431, 0, 0], [432, 0, 0]]
    }, 
    {
      "op": "_contrib_requantize", 
      "name": "requantize_conv_4a_double_3x3_reduce", 
      "inputs": [[433, 0, 0], [433, 1, 0], [433, 2, 0]]
    }, 
    {
      "op": "_contrib_dequantize", 
      "name": "conv_4a_double_3x3_reduce_dequantize", 
      "inputs": [[434, 0, 0], [434, 1, 0], [434, 2, 0]]
    }, 
    {
      "op": "null", 
      "name": "bn_4a_double_3x3_reduce_gamma", 
      "inputs": []
    }, 
    {
      "op": "null", 
      "name": "bn_4a_double_3x3_reduce_beta", 
      "inputs": []
    }, 
    {
      "op": "null", 
      "name": "bn_4a_double_3x3_reduce_moving_mean", 
      "attrs": {
        "__init__": "[\"zero\", {}]", 
        "eps": "1.00001e-05", 
        "fix_gamma": "False", 
        "momentum": "0.9", 
        "use_global_stats": "False"
      }, 
      "inputs": []
    }, 
    {
      "op": "null", 
      "name": "bn_4a_double_3x3_reduce_moving_var", 
      "attrs": {
        "__init__": "[\"one\", {}]", 
        "eps": "1.00001e-05", 
        "fix_gamma": "False", 
        "momentum": "0.9", 
        "use_global_stats": "False"
      }, 
      "inputs": []
    }, 
    {
      "op": "BatchNorm", 
      "name": "bn_4a_double_3x3_reduce", 
      "attrs": {
        "eps": "1.00001e-05", 
        "fix_gamma": "False", 
        "momentum": "0.9", 
        "use_global_stats": "False"
      }, 
      "inputs": [[435, 0, 0], [436, 0, 0], [437, 0, 0], [438, 0, 0], [439, 0, 0]]
    }, 
    {
      "op": "Activation", 
      "name": "relu_4a_double_3x3_reduce", 
      "attrs": {"act_type": "relu"}, 
      "inputs": [[440, 0, 0]]
    }, 
    {
      "op": "min", 
      "name": "relu_4a_double_3x3_reduce_min", 
      "inputs": [[441, 0, 0]]
    }, 
    {
      "op": "max", 
      "name": "relu_4a_double_3x3_reduce_max", 
      "inputs": [[441, 0, 0]]
    }, 
    {
      "op": "_contrib_quantize", 
      "name": "relu_4a_double_3x3_reduce_quantize", 
      "attrs": {"out_type": "uint8"}, 
      "inputs": [[441, 0, 0], [442, 0, 0], [443, 0, 0]]
    }, 
    {
      "op": "null", 
      "name": "conv_4a_double_3x3_0_weight_quantize", 
      "inputs": []
    }, 
    {
      "op": "null", 
      "name": "conv_4a_double_3x3_0_bias_quantize", 
      "inputs": []
    }, 
    {
      "op": "null", 
      "name": "conv_4a_double_3x3_0_weight_quantize_min", 
      "inputs": []
    }, 
    {
      "op": "null", 
      "name": "conv_4a_double_3x3_0_weight_quantize_max", 
      "inputs": []
    }, 
    {
      "op": "null", 
      "name": "conv_4a_double_3x3_0_bias_quantize_min", 
      "inputs": []
    }, 
    {
      "op": "null", 
      "name": "conv_4a_double_3x3_0_bias_quantize_max", 
      "inputs": []
    }, 
    {
      "op": "_contrib_quantized_conv", 
      "name": "quantized_conv_4a_double_3x3_0", 
      "attrs": {
        "cudnn_off": "False", 
        "cudnn_tune": "off", 
        "dilate": "(1,1)", 
        "kernel": "(3,3)", 
        "no_bias": "False", 
        "num_filter": "128", 
        "num_group": "1", 
        "pad": "(1,1)", 
        "stride": "(1,1)", 
        "workspace": "1024"
      }, 
      "inputs": [[444, 0, 0], [445, 0, 0], [446, 0, 0], [444, 1, 0], [444, 2, 0], [447, 0, 0], [448, 0, 0], [449, 0, 0], [450, 0, 0]]
    }, 
    {
      "op": "_contrib_requantize", 
      "name": "requantize_conv_4a_double_3x3_0", 
      "inputs": [[451, 0, 0], [451, 1, 0], [451, 2, 0]]
    }, 
    {
      "op": "_contrib_dequantize", 
      "name": "conv_4a_double_3x3_0_dequantize", 
      "inputs": [[452, 0, 0], [452, 1, 0], [452, 2, 0]]
    }, 
    {
      "op": "null", 
      "name": "bn_4a_double_3x3_0_gamma", 
      "inputs": []
    }, 
    {
      "op": "null", 
      "name": "bn_4a_double_3x3_0_beta", 
      "inputs": []
    }, 
    {
      "op": "null", 
      "name": "bn_4a_double_3x3_0_moving_mean", 
      "attrs": {
        "__init__": "[\"zero\", {}]", 
        "eps": "1.00001e-05", 
        "fix_gamma": "False", 
        "momentum": "0.9", 
        "use_global_stats": "False"
      }, 
      "inputs": []
    }, 
    {
      "op": "null", 
      "name": "bn_4a_double_3x3_0_moving_var", 
      "attrs": {
        "__init__": "[\"one\", {}]", 
        "eps": "1.00001e-05", 
        "fix_gamma": "False", 
        "momentum": "0.9", 
        "use_global_stats": "False"
      }, 
      "inputs": []
    }, 
    {
      "op": "BatchNorm", 
      "name": "bn_4a_double_3x3_0", 
      "attrs": {
        "eps": "1.00001e-05", 
        "fix_gamma": "False", 
        "momentum": "0.9", 
        "use_global_stats": "False"
      }, 
      "inputs": [[453, 0, 0], [454, 0, 0], [455, 0, 0], [456, 0, 0], [457, 0, 0]]
    }, 
    {
      "op": "Activation", 
      "name": "relu_4a_double_3x3_0", 
      "attrs": {"act_type": "relu"}, 
      "inputs": [[458, 0, 0]]
    }, 
    {
      "op": "min", 
      "name": "relu_4a_double_3x3_0_min", 
      "inputs": [[459, 0, 0]]
    }, 
    {
      "op": "max", 
      "name": "relu_4a_double_3x3_0_max", 
      "inputs": [[459, 0, 0]]
    }, 
    {
      "op": "_contrib_quantize", 
      "name": "relu_4a_double_3x3_0_quantize", 
      "attrs": {"out_type": "uint8"}, 
      "inputs": [[459, 0, 0], [460, 0, 0], [461, 0, 0]]
    }, 
    {
      "op": "null", 
      "name": "conv_4a_double_3x3_1_weight_quantize", 
      "inputs": []
    }, 
    {
      "op": "null", 
      "name": "conv_4a_double_3x3_1_bias_quantize", 
      "inputs": []
    }, 
    {
      "op": "null", 
      "name": "conv_4a_double_3x3_1_weight_quantize_min", 
      "inputs": []
    }, 
    {
      "op": "null", 
      "name": "conv_4a_double_3x3_1_weight_quantize_max", 
      "inputs": []
    }, 
    {
      "op": "null", 
      "name": "conv_4a_double_3x3_1_bias_quantize_min", 
      "inputs": []
    }, 
    {
      "op": "null", 
      "name": "conv_4a_double_3x3_1_bias_quantize_max", 
      "inputs": []
    }, 
    {
      "op": "_contrib_quantized_conv", 
      "name": "quantized_conv_4a_double_3x3_1", 
      "attrs": {
        "cudnn_off": "False", 
        "cudnn_tune": "off", 
        "dilate": "(1,1)", 
        "kernel": "(3,3)", 
        "no_bias": "False", 
        "num_filter": "128", 
        "num_group": "1", 
        "pad": "(1,1)", 
        "stride": "(1,1)", 
        "workspace": "1024"
      }, 
      "inputs": [[462, 0, 0], [463, 0, 0], [464, 0, 0], [462, 1, 0], [462, 2, 0], [465, 0, 0], [466, 0, 0], [467, 0, 0], [468, 0, 0]]
    }, 
    {
      "op": "_contrib_requantize", 
      "name": "requantize_conv_4a_double_3x3_1", 
      "inputs": [[469, 0, 0], [469, 1, 0], [469, 2, 0]]
    }, 
    {
      "op": "_contrib_dequantize", 
      "name": "conv_4a_double_3x3_1_dequantize", 
      "inputs": [[470, 0, 0], [470, 1, 0], [470, 2, 0]]
    }, 
    {
      "op": "null", 
      "name": "bn_4a_double_3x3_1_gamma", 
      "inputs": []
    }, 
    {
      "op": "null", 
      "name": "bn_4a_double_3x3_1_beta", 
      "inputs": []
    }, 
    {
      "op": "null", 
      "name": "bn_4a_double_3x3_1_moving_mean", 
      "attrs": {
        "__init__": "[\"zero\", {}]", 
        "eps": "1.00001e-05", 
        "fix_gamma": "False", 
        "momentum": "0.9", 
        "use_global_stats": "False"
      }, 
      "inputs": []
    }, 
    {
      "op": "null", 
      "name": "bn_4a_double_3x3_1_moving_var", 
      "attrs": {
        "__init__": "[\"one\", {}]", 
        "eps": "1.00001e-05", 
        "fix_gamma": "False", 
        "momentum": "0.9", 
        "use_global_stats": "False"
      }, 
      "inputs": []
    }, 
    {
      "op": "BatchNorm", 
      "name": "bn_4a_double_3x3_1", 
      "attrs": {
        "eps": "1.00001e-05", 
        "fix_gamma": "False", 
        "momentum": "0.9", 
        "use_global_stats": "False"
      }, 
      "inputs": [[471, 0, 0], [472, 0, 0], [473, 0, 0], [474, 0, 0], [475, 0, 0]]
    }, 
    {
      "op": "Activation", 
      "name": "relu_4a_double_3x3_1", 
      "attrs": {"act_type": "relu"}, 
      "inputs": [[476, 0, 0]]
    }, 
    {
      "op": "_contrib_quantized_pooling", 
      "name": "quantized_avg_pool_4a_pool", 
      "attrs": {
        "global_pool": "False", 
        "kernel": "(3,3)", 
        "pad": "(1,1)", 
        "pool_type": "avg", 
        "pooling_convention": "valid", 
        "stride": "(1,1)"
      }, 
      "inputs": [[378, 0, 0], [378, 1, 0], [378, 2, 0]]
    }, 
    {
      "op": "null", 
      "name": "conv_4a_proj_weight_quantize", 
      "inputs": []
    }, 
    {
      "op": "null", 
      "name": "conv_4a_proj_bias_quantize", 
      "inputs": []
    }, 
    {
      "op": "null", 
      "name": "conv_4a_proj_weight_quantize_min", 
      "inputs": []
    }, 
    {
      "op": "null", 
      "name": "conv_4a_proj_weight_quantize_max", 
      "inputs": []
    }, 
    {
      "op": "null", 
      "name": "conv_4a_proj_bias_quantize_min", 
      "inputs": []
    }, 
    {
      "op": "null", 
      "name": "conv_4a_proj_bias_quantize_max", 
      "inputs": []
    }, 
    {
      "op": "_contrib_quantized_conv", 
      "name": "quantized_conv_4a_proj", 
      "attrs": {
        "cudnn_off": "False", 
        "cudnn_tune": "off", 
        "dilate": "(1,1)", 
        "kernel": "(1,1)", 
        "no_bias": "False", 
        "num_filter": "128", 
        "num_group": "1", 
        "pad": "(0,0)", 
        "stride": "(1,1)", 
        "workspace": "1024"
      }, 
      "inputs": [[478, 0, 0], [479, 0, 0], [480, 0, 0], [478, 1, 0], [478, 2, 0], [481, 0, 0], [482, 0, 0], [483, 0, 0], [484, 0, 0]]
    }, 
    {
      "op": "_contrib_requantize", 
      "name": "requantize_conv_4a_proj", 
      "inputs": [[485, 0, 0], [485, 1, 0], [485, 2, 0]]
    }, 
    {
      "op": "_contrib_dequantize", 
      "name": "conv_4a_proj_dequantize", 
      "inputs": [[486, 0, 0], [486, 1, 0], [486, 2, 0]]
    }, 
    {
      "op": "null", 
      "name": "bn_4a_proj_gamma", 
      "inputs": []
    }, 
    {
      "op": "null", 
      "name": "bn_4a_proj_beta", 
      "inputs": []
    }, 
    {
      "op": "null", 
      "name": "bn_4a_proj_moving_mean", 
      "attrs": {
        "__init__": "[\"zero\", {}]", 
        "eps": "1.00001e-05", 
        "fix_gamma": "False", 
        "momentum": "0.9", 
        "use_global_stats": "False"
      }, 
      "inputs": []
    }, 
    {
      "op": "null", 
      "name": "bn_4a_proj_moving_var", 
      "attrs": {
        "__init__": "[\"one\", {}]", 
        "eps": "1.00001e-05", 
        "fix_gamma": "False", 
        "momentum": "0.9", 
        "use_global_stats": "False"
      }, 
      "inputs": []
    }, 
    {
      "op": "BatchNorm", 
      "name": "bn_4a_proj", 
      "attrs": {
        "eps": "1.00001e-05", 
        "fix_gamma": "False", 
        "momentum": "0.9", 
        "use_global_stats": "False"
      }, 
      "inputs": [[487, 0, 0], [488, 0, 0], [489, 0, 0], [490, 0, 0], [491, 0, 0]]
    }, 
    {
      "op": "Activation", 
      "name": "relu_4a_proj", 
      "attrs": {"act_type": "relu"}, 
      "inputs": [[492, 0, 0]]
    }, 
    {
      "op": "Concat", 
      "name": "ch_concat_4a_chconcat", 
      "attrs": {
        "dim": "1", 
        "num_args": "4"
      }, 
      "inputs": [[393, 0, 0], [426, 0, 0], [477, 0, 0], [493, 0, 0]]
    }, 
    {
      "op": "min", 
      "name": "ch_concat_4a_chconcat_min", 
      "inputs": [[494, 0, 0]]
    }, 
    {
      "op": "max", 
      "name": "ch_concat_4a_chconcat_max", 
      "inputs": [[494, 0, 0]]
    }, 
    {
      "op": "_contrib_quantize", 
      "name": "ch_concat_4a_chconcat_quantize", 
      "attrs": {"out_type": "uint8"}, 
      "inputs": [[494, 0, 0], [495, 0, 0], [496, 0, 0]]
    }, 
    {
      "op": "null", 
      "name": "conv_4b_1x1_weight_quantize", 
      "inputs": []
    }, 
    {
      "op": "null", 
      "name": "conv_4b_1x1_bias_quantize", 
      "inputs": []
    }, 
    {
      "op": "null", 
      "name": "conv_4b_1x1_weight_quantize_min", 
      "inputs": []
    }, 
    {
      "op": "null", 
      "name": "conv_4b_1x1_weight_quantize_max", 
      "inputs": []
    }, 
    {
      "op": "null", 
      "name": "conv_4b_1x1_bias_quantize_min", 
      "inputs": []
    }, 
    {
      "op": "null", 
      "name": "conv_4b_1x1_bias_quantize_max", 
      "inputs": []
    }, 
    {
      "op": "_contrib_quantized_conv", 
      "name": "quantized_conv_4b_1x1", 
      "attrs": {
        "cudnn_off": "False", 
        "cudnn_tune": "off", 
        "dilate": "(1,1)", 
        "kernel": "(1,1)", 
        "no_bias": "False", 
        "num_filter": "192", 
        "num_group": "1", 
        "pad": "(0,0)", 
        "stride": "(1,1)", 
        "workspace": "1024"
      }, 
      "inputs": [[497, 0, 0], [498, 0, 0], [499, 0, 0], [497, 1, 0], [497, 2, 0], [500, 0, 0], [501, 0, 0], [502, 0, 0], [503, 0, 0]]
    }, 
    {
      "op": "_contrib_requantize", 
      "name": "requantize_conv_4b_1x1", 
      "inputs": [[504, 0, 0], [504, 1, 0], [504, 2, 0]]
    }, 
    {
      "op": "_contrib_dequantize", 
      "name": "conv_4b_1x1_dequantize", 
      "inputs": [[505, 0, 0], [505, 1, 0], [505, 2, 0]]
    }, 
    {
      "op": "null", 
      "name": "bn_4b_1x1_gamma", 
      "inputs": []
    }, 
    {
      "op": "null", 
      "name": "bn_4b_1x1_beta", 
      "inputs": []
    }, 
    {
      "op": "null", 
      "name": "bn_4b_1x1_moving_mean", 
      "attrs": {
        "__init__": "[\"zero\", {}]", 
        "eps": "1.00001e-05", 
        "fix_gamma": "False", 
        "momentum": "0.9", 
        "use_global_stats": "False"
      }, 
      "inputs": []
    }, 
    {
      "op": "null", 
      "name": "bn_4b_1x1_moving_var", 
      "attrs": {
        "__init__": "[\"one\", {}]", 
        "eps": "1.00001e-05", 
        "fix_gamma": "False", 
        "momentum": "0.9", 
        "use_global_stats": "False"
      }, 
      "inputs": []
    }, 
    {
      "op": "BatchNorm", 
      "name": "bn_4b_1x1", 
      "attrs": {
        "eps": "1.00001e-05", 
        "fix_gamma": "False", 
        "momentum": "0.9", 
        "use_global_stats": "False"
      }, 
      "inputs": [[506, 0, 0], [507, 0, 0], [508, 0, 0], [509, 0, 0], [510, 0, 0]]
    }, 
    {
      "op": "Activation", 
      "name": "relu_4b_1x1", 
      "attrs": {"act_type": "relu"}, 
      "inputs": [[511, 0, 0]]
    }, 
    {
      "op": "null", 
      "name": "conv_4b_3x3_reduce_weight_quantize", 
      "inputs": []
    }, 
    {
      "op": "null", 
      "name": "conv_4b_3x3_reduce_bias_quantize", 
      "inputs": []
    }, 
    {
      "op": "null", 
      "name": "conv_4b_3x3_reduce_weight_quantize_min", 
      "inputs": []
    }, 
    {
      "op": "null", 
      "name": "conv_4b_3x3_reduce_weight_quantize_max", 
      "inputs": []
    }, 
    {
      "op": "null", 
      "name": "conv_4b_3x3_reduce_bias_quantize_min", 
      "inputs": []
    }, 
    {
      "op": "null", 
      "name": "conv_4b_3x3_reduce_bias_quantize_max", 
      "inputs": []
    }, 
    {
      "op": "_contrib_quantized_conv", 
      "name": "quantized_conv_4b_3x3_reduce", 
      "attrs": {
        "cudnn_off": "False", 
        "cudnn_tune": "off", 
        "dilate": "(1,1)", 
        "kernel": "(1,1)", 
        "no_bias": "False", 
        "num_filter": "96", 
        "num_group": "1", 
        "pad": "(0,0)", 
        "stride": "(1,1)", 
        "workspace": "1024"
      }, 
      "inputs": [[497, 0, 0], [513, 0, 0], [514, 0, 0], [497, 1, 0], [497, 2, 0], [515, 0, 0], [516, 0, 0], [517, 0, 0], [518, 0, 0]]
    }, 
    {
      "op": "_contrib_requantize", 
      "name": "requantize_conv_4b_3x3_reduce", 
      "inputs": [[519, 0, 0], [519, 1, 0], [519, 2, 0]]
    }, 
    {
      "op": "_contrib_dequantize", 
      "name": "conv_4b_3x3_reduce_dequantize", 
      "inputs": [[520, 0, 0], [520, 1, 0], [520, 2, 0]]
    }, 
    {
      "op": "null", 
      "name": "bn_4b_3x3_reduce_gamma", 
      "inputs": []
    }, 
    {
      "op": "null", 
      "name": "bn_4b_3x3_reduce_beta", 
      "inputs": []
    }, 
    {
      "op": "null", 
      "name": "bn_4b_3x3_reduce_moving_mean", 
      "attrs": {
        "__init__": "[\"zero\", {}]", 
        "eps": "1.00001e-05", 
        "fix_gamma": "False", 
        "momentum": "0.9", 
        "use_global_stats": "False"
      }, 
      "inputs": []
    }, 
    {
      "op": "null", 
      "name": "bn_4b_3x3_reduce_moving_var", 
      "attrs": {
        "__init__": "[\"one\", {}]", 
        "eps": "1.00001e-05", 
        "fix_gamma": "False", 
        "momentum": "0.9", 
        "use_global_stats": "False"
      }, 
      "inputs": []
    }, 
    {
      "op": "BatchNorm", 
      "name": "bn_4b_3x3_reduce", 
      "attrs": {
        "eps": "1.00001e-05", 
        "fix_gamma": "False", 
        "momentum": "0.9", 
        "use_global_stats": "False"
      }, 
      "inputs": [[521, 0, 0], [522, 0, 0], [523, 0, 0], [524, 0, 0], [525, 0, 0]]
    }, 
    {
      "op": "Activation", 
      "name": "relu_4b_3x3_reduce", 
      "attrs": {"act_type": "relu"}, 
      "inputs": [[526, 0, 0]]
    }, 
    {
      "op": "min", 
      "name": "relu_4b_3x3_reduce_min", 
      "inputs": [[527, 0, 0]]
    }, 
    {
      "op": "max", 
      "name": "relu_4b_3x3_reduce_max", 
      "inputs": [[527, 0, 0]]
    }, 
    {
      "op": "_contrib_quantize", 
      "name": "relu_4b_3x3_reduce_quantize", 
      "attrs": {"out_type": "uint8"}, 
      "inputs": [[527, 0, 0], [528, 0, 0], [529, 0, 0]]
    }, 
    {
      "op": "null", 
      "name": "conv_4b_3x3_weight_quantize", 
      "inputs": []
    }, 
    {
      "op": "null", 
      "name": "conv_4b_3x3_bias_quantize", 
      "inputs": []
    }, 
    {
      "op": "null", 
      "name": "conv_4b_3x3_weight_quantize_min", 
      "inputs": []
    }, 
    {
      "op": "null", 
      "name": "conv_4b_3x3_weight_quantize_max", 
      "inputs": []
    }, 
    {
      "op": "null", 
      "name": "conv_4b_3x3_bias_quantize_min", 
      "inputs": []
    }, 
    {
      "op": "null", 
      "name": "conv_4b_3x3_bias_quantize_max", 
      "inputs": []
    }, 
    {
      "op": "_contrib_quantized_conv", 
      "name": "quantized_conv_4b_3x3", 
      "attrs": {
        "cudnn_off": "False", 
        "cudnn_tune": "off", 
        "dilate": "(1,1)", 
        "kernel": "(3,3)", 
        "no_bias": "False", 
        "num_filter": "128", 
        "num_group": "1", 
        "pad": "(1,1)", 
        "stride": "(1,1)", 
        "workspace": "1024"
      }, 
      "inputs": [[530, 0, 0], [531, 0, 0], [532, 0, 0], [530, 1, 0], [530, 2, 0], [533, 0, 0], [534, 0, 0], [535, 0, 0], [536, 0, 0]]
    }, 
    {
      "op": "_contrib_requantize", 
      "name": "requantize_conv_4b_3x3", 
      "inputs": [[537, 0, 0], [537, 1, 0], [537, 2, 0]]
    }, 
    {
      "op": "_contrib_dequantize", 
      "name": "conv_4b_3x3_dequantize", 
      "inputs": [[538, 0, 0], [538, 1, 0], [538, 2, 0]]
    }, 
    {
      "op": "null", 
      "name": "bn_4b_3x3_gamma", 
      "inputs": []
    }, 
    {
      "op": "null", 
      "name": "bn_4b_3x3_beta", 
      "inputs": []
    }, 
    {
      "op": "null", 
      "name": "bn_4b_3x3_moving_mean", 
      "attrs": {
        "__init__": "[\"zero\", {}]", 
        "eps": "1.00001e-05", 
        "fix_gamma": "False", 
        "momentum": "0.9", 
        "use_global_stats": "False"
      }, 
      "inputs": []
    }, 
    {
      "op": "null", 
      "name": "bn_4b_3x3_moving_var", 
      "attrs": {
        "__init__": "[\"one\", {}]", 
        "eps": "1.00001e-05", 
        "fix_gamma": "False", 
        "momentum": "0.9", 
        "use_global_stats": "False"
      }, 
      "inputs": []
    }, 
    {
      "op": "BatchNorm", 
      "name": "bn_4b_3x3", 
      "attrs": {
        "eps": "1.00001e-05", 
        "fix_gamma": "False", 
        "momentum": "0.9", 
        "use_global_stats": "False"
      }, 
      "inputs": [[539, 0, 0], [540, 0, 0], [541, 0, 0], [542, 0, 0], [543, 0, 0]]
    }, 
    {
      "op": "Activation", 
      "name": "relu_4b_3x3", 
      "attrs": {"act_type": "relu"}, 
      "inputs": [[544, 0, 0]]
    }, 
    {
      "op": "null", 
      "name": "conv_4b_double_3x3_reduce_weight_quantize", 
      "inputs": []
    }, 
    {
      "op": "null", 
      "name": "conv_4b_double_3x3_reduce_bias_quantize", 
      "inputs": []
    }, 
    {
      "op": "null", 
      "name": "conv_4b_double_3x3_reduce_weight_quantize_min", 
      "inputs": []
    }, 
    {
      "op": "null", 
      "name": "conv_4b_double_3x3_reduce_weight_quantize_max", 
      "inputs": []
    }, 
    {
      "op": "null", 
      "name": "conv_4b_double_3x3_reduce_bias_quantize_min", 
      "inputs": []
    }, 
    {
      "op": "null", 
      "name": "conv_4b_double_3x3_reduce_bias_quantize_max", 
      "inputs": []
    }, 
    {
      "op": "_contrib_quantized_conv", 
      "name": "quantized_conv_4b_double_3x3_reduce", 
      "attrs": {
        "cudnn_off": "False", 
        "cudnn_tune": "off", 
        "dilate": "(1,1)", 
        "kernel": "(1,1)", 
        "no_bias": "False", 
        "num_filter": "96", 
        "num_group": "1", 
        "pad": "(0,0)", 
        "stride": "(1,1)", 
        "workspace": "1024"
      }, 
      "inputs": [[497, 0, 0], [546, 0, 0], [547, 0, 0], [497, 1, 0], [497, 2, 0], [548, 0, 0], [549, 0, 0], [550, 0, 0], [551, 0, 0]]
    }, 
    {
      "op": "_contrib_requantize", 
      "name": "requantize_conv_4b_double_3x3_reduce", 
      "inputs": [[552, 0, 0], [552, 1, 0], [552, 2, 0]]
    }, 
    {
      "op": "_contrib_dequantize", 
      "name": "conv_4b_double_3x3_reduce_dequantize", 
      "inputs": [[553, 0, 0], [553, 1, 0], [553, 2, 0]]
    }, 
    {
      "op": "null", 
      "name": "bn_4b_double_3x3_reduce_gamma", 
      "inputs": []
    }, 
    {
      "op": "null", 
      "name": "bn_4b_double_3x3_reduce_beta", 
      "inputs": []
    }, 
    {
      "op": "null", 
      "name": "bn_4b_double_3x3_reduce_moving_mean", 
      "attrs": {
        "__init__": "[\"zero\", {}]", 
        "eps": "1.00001e-05", 
        "fix_gamma": "False", 
        "momentum": "0.9", 
        "use_global_stats": "False"
      }, 
      "inputs": []
    }, 
    {
      "op": "null", 
      "name": "bn_4b_double_3x3_reduce_moving_var", 
      "attrs": {
        "__init__": "[\"one\", {}]", 
        "eps": "1.00001e-05", 
        "fix_gamma": "False", 
        "momentum": "0.9", 
        "use_global_stats": "False"
      }, 
      "inputs": []
    }, 
    {
      "op": "BatchNorm", 
      "name": "bn_4b_double_3x3_reduce", 
      "attrs": {
        "eps": "1.00001e-05", 
        "fix_gamma": "False", 
        "momentum": "0.9", 
        "use_global_stats": "False"
      }, 
      "inputs": [[554, 0, 0], [555, 0, 0], [556, 0, 0], [557, 0, 0], [558, 0, 0]]
    }, 
    {
      "op": "Activation", 
      "name": "relu_4b_double_3x3_reduce", 
      "attrs": {"act_type": "relu"}, 
      "inputs": [[559, 0, 0]]
    }, 
    {
      "op": "min", 
      "name": "relu_4b_double_3x3_reduce_min", 
      "inputs": [[560, 0, 0]]
    }, 
    {
      "op": "max", 
      "name": "relu_4b_double_3x3_reduce_max", 
      "inputs": [[560, 0, 0]]
    }, 
    {
      "op": "_contrib_quantize", 
      "name": "relu_4b_double_3x3_reduce_quantize", 
      "attrs": {"out_type": "uint8"}, 
      "inputs": [[560, 0, 0], [561, 0, 0], [562, 0, 0]]
    }, 
    {
      "op": "null", 
      "name": "conv_4b_double_3x3_0_weight_quantize", 
      "inputs": []
    }, 
    {
      "op": "null", 
      "name": "conv_4b_double_3x3_0_bias_quantize", 
      "inputs": []
    }, 
    {
      "op": "null", 
      "name": "conv_4b_double_3x3_0_weight_quantize_min", 
      "inputs": []
    }, 
    {
      "op": "null", 
      "name": "conv_4b_double_3x3_0_weight_quantize_max", 
      "inputs": []
    }, 
    {
      "op": "null", 
      "name": "conv_4b_double_3x3_0_bias_quantize_min", 
      "inputs": []
    }, 
    {
      "op": "null", 
      "name": "conv_4b_double_3x3_0_bias_quantize_max", 
      "inputs": []
    }, 
    {
      "op": "_contrib_quantized_conv", 
      "name": "quantized_conv_4b_double_3x3_0", 
      "attrs": {
        "cudnn_off": "False", 
        "cudnn_tune": "off", 
        "dilate": "(1,1)", 
        "kernel": "(3,3)", 
        "no_bias": "False", 
        "num_filter": "128", 
        "num_group": "1", 
        "pad": "(1,1)", 
        "stride": "(1,1)", 
        "workspace": "1024"
      }, 
      "inputs": [[563, 0, 0], [564, 0, 0], [565, 0, 0], [563, 1, 0], [563, 2, 0], [566, 0, 0], [567, 0, 0], [568, 0, 0], [569, 0, 0]]
    }, 
    {
      "op": "_contrib_requantize", 
      "name": "requantize_conv_4b_double_3x3_0", 
      "inputs": [[570, 0, 0], [570, 1, 0], [570, 2, 0]]
    }, 
    {
      "op": "_contrib_dequantize", 
      "name": "conv_4b_double_3x3_0_dequantize", 
      "inputs": [[571, 0, 0], [571, 1, 0], [571, 2, 0]]
    }, 
    {
      "op": "null", 
      "name": "bn_4b_double_3x3_0_gamma", 
      "inputs": []
    }, 
    {
      "op": "null", 
      "name": "bn_4b_double_3x3_0_beta", 
      "inputs": []
    }, 
    {
      "op": "null", 
      "name": "bn_4b_double_3x3_0_moving_mean", 
      "attrs": {
        "__init__": "[\"zero\", {}]", 
        "eps": "1.00001e-05", 
        "fix_gamma": "False", 
        "momentum": "0.9", 
        "use_global_stats": "False"
      }, 
      "inputs": []
    }, 
    {
      "op": "null", 
      "name": "bn_4b_double_3x3_0_moving_var", 
      "attrs": {
        "__init__": "[\"one\", {}]", 
        "eps": "1.00001e-05", 
        "fix_gamma": "False", 
        "momentum": "0.9", 
        "use_global_stats": "False"
      }, 
      "inputs": []
    }, 
    {
      "op": "BatchNorm", 
      "name": "bn_4b_double_3x3_0", 
      "attrs": {
        "eps": "1.00001e-05", 
        "fix_gamma": "False", 
        "momentum": "0.9", 
        "use_global_stats": "False"
      }, 
      "inputs": [[572, 0, 0], [573, 0, 0], [574, 0, 0], [575, 0, 0], [576, 0, 0]]
    }, 
    {
      "op": "Activation", 
      "name": "relu_4b_double_3x3_0", 
      "attrs": {"act_type": "relu"}, 
      "inputs": [[577, 0, 0]]
    }, 
    {
      "op": "min", 
      "name": "relu_4b_double_3x3_0_min", 
      "inputs": [[578, 0, 0]]
    }, 
    {
      "op": "max", 
      "name": "relu_4b_double_3x3_0_max", 
      "inputs": [[578, 0, 0]]
    }, 
    {
      "op": "_contrib_quantize", 
      "name": "relu_4b_double_3x3_0_quantize", 
      "attrs": {"out_type": "uint8"}, 
      "inputs": [[578, 0, 0], [579, 0, 0], [580, 0, 0]]
    }, 
    {
      "op": "null", 
      "name": "conv_4b_double_3x3_1_weight_quantize", 
      "inputs": []
    }, 
    {
      "op": "null", 
      "name": "conv_4b_double_3x3_1_bias_quantize", 
      "inputs": []
    }, 
    {
      "op": "null", 
      "name": "conv_4b_double_3x3_1_weight_quantize_min", 
      "inputs": []
    }, 
    {
      "op": "null", 
      "name": "conv_4b_double_3x3_1_weight_quantize_max", 
      "inputs": []
    }, 
    {
      "op": "null", 
      "name": "conv_4b_double_3x3_1_bias_quantize_min", 
      "inputs": []
    }, 
    {
      "op": "null", 
      "name": "conv_4b_double_3x3_1_bias_quantize_max", 
      "inputs": []
    }, 
    {
      "op": "_contrib_quantized_conv", 
      "name": "quantized_conv_4b_double_3x3_1", 
      "attrs": {
        "cudnn_off": "False", 
        "cudnn_tune": "off", 
        "dilate": "(1,1)", 
        "kernel": "(3,3)", 
        "no_bias": "False", 
        "num_filter": "128", 
        "num_group": "1", 
        "pad": "(1,1)", 
        "stride": "(1,1)", 
        "workspace": "1024"
      }, 
      "inputs": [[581, 0, 0], [582, 0, 0], [583, 0, 0], [581, 1, 0], [581, 2, 0], [584, 0, 0], [585, 0, 0], [586, 0, 0], [587, 0, 0]]
    }, 
    {
      "op": "_contrib_requantize", 
      "name": "requantize_conv_4b_double_3x3_1", 
      "inputs": [[588, 0, 0], [588, 1, 0], [588, 2, 0]]
    }, 
    {
      "op": "_contrib_dequantize", 
      "name": "conv_4b_double_3x3_1_dequantize", 
      "inputs": [[589, 0, 0], [589, 1, 0], [589, 2, 0]]
    }, 
    {
      "op": "null", 
      "name": "bn_4b_double_3x3_1_gamma", 
      "inputs": []
    }, 
    {
      "op": "null", 
      "name": "bn_4b_double_3x3_1_beta", 
      "inputs": []
    }, 
    {
      "op": "null", 
      "name": "bn_4b_double_3x3_1_moving_mean", 
      "attrs": {
        "__init__": "[\"zero\", {}]", 
        "eps": "1.00001e-05", 
        "fix_gamma": "False", 
        "momentum": "0.9", 
        "use_global_stats": "False"
      }, 
      "inputs": []
    }, 
    {
      "op": "null", 
      "name": "bn_4b_double_3x3_1_moving_var", 
      "attrs": {
        "__init__": "[\"one\", {}]", 
        "eps": "1.00001e-05", 
        "fix_gamma": "False", 
        "momentum": "0.9", 
        "use_global_stats": "False"
      }, 
      "inputs": []
    }, 
    {
      "op": "BatchNorm", 
      "name": "bn_4b_double_3x3_1", 
      "attrs": {
        "eps": "1.00001e-05", 
        "fix_gamma": "False", 
        "momentum": "0.9", 
        "use_global_stats": "False"
      }, 
      "inputs": [[590, 0, 0], [591, 0, 0], [592, 0, 0], [593, 0, 0], [594, 0, 0]]
    }, 
    {
      "op": "Activation", 
      "name": "relu_4b_double_3x3_1", 
      "attrs": {"act_type": "relu"}, 
      "inputs": [[595, 0, 0]]
    }, 
    {
      "op": "_contrib_quantized_pooling", 
      "name": "quantized_avg_pool_4b_pool", 
      "attrs": {
        "global_pool": "False", 
        "kernel": "(3,3)", 
        "pad": "(1,1)", 
        "pool_type": "avg", 
        "pooling_convention": "valid", 
        "stride": "(1,1)"
      }, 
      "inputs": [[497, 0, 0], [497, 1, 0], [497, 2, 0]]
    }, 
    {
      "op": "null", 
      "name": "conv_4b_proj_weight_quantize", 
      "inputs": []
    }, 
    {
      "op": "null", 
      "name": "conv_4b_proj_bias_quantize", 
      "inputs": []
    }, 
    {
      "op": "null", 
      "name": "conv_4b_proj_weight_quantize_min", 
      "inputs": []
    }, 
    {
      "op": "null", 
      "name": "conv_4b_proj_weight_quantize_max", 
      "inputs": []
    }, 
    {
      "op": "null", 
      "name": "conv_4b_proj_bias_quantize_min", 
      "inputs": []
    }, 
    {
      "op": "null", 
      "name": "conv_4b_proj_bias_quantize_max", 
      "inputs": []
    }, 
    {
      "op": "_contrib_quantized_conv", 
      "name": "quantized_conv_4b_proj", 
      "attrs": {
        "cudnn_off": "False", 
        "cudnn_tune": "off", 
        "dilate": "(1,1)", 
        "kernel": "(1,1)", 
        "no_bias": "False", 
        "num_filter": "128", 
        "num_group": "1", 
        "pad": "(0,0)", 
        "stride": "(1,1)", 
        "workspace": "1024"
      }, 
      "inputs": [[597, 0, 0], [598, 0, 0], [599, 0, 0], [597, 1, 0], [597, 2, 0], [600, 0, 0], [601, 0, 0], [602, 0, 0], [603, 0, 0]]
    }, 
    {
      "op": "_contrib_requantize", 
      "name": "requantize_conv_4b_proj", 
      "inputs": [[604, 0, 0], [604, 1, 0], [604, 2, 0]]
    }, 
    {
      "op": "_contrib_dequantize", 
      "name": "conv_4b_proj_dequantize", 
      "inputs": [[605, 0, 0], [605, 1, 0], [605, 2, 0]]
    }, 
    {
      "op": "null", 
      "name": "bn_4b_proj_gamma", 
      "inputs": []
    }, 
    {
      "op": "null", 
      "name": "bn_4b_proj_beta", 
      "inputs": []
    }, 
    {
      "op": "null", 
      "name": "bn_4b_proj_moving_mean", 
      "attrs": {
        "__init__": "[\"zero\", {}]", 
        "eps": "1.00001e-05", 
        "fix_gamma": "False", 
        "momentum": "0.9", 
        "use_global_stats": "False"
      }, 
      "inputs": []
    }, 
    {
      "op": "null", 
      "name": "bn_4b_proj_moving_var", 
      "attrs": {
        "__init__": "[\"one\", {}]", 
        "eps": "1.00001e-05", 
        "fix_gamma": "False", 
        "momentum": "0.9", 
        "use_global_stats": "False"
      }, 
      "inputs": []
    }, 
    {
      "op": "BatchNorm", 
      "name": "bn_4b_proj", 
      "attrs": {
        "eps": "1.00001e-05", 
        "fix_gamma": "False", 
        "momentum": "0.9", 
        "use_global_stats": "False"
      }, 
      "inputs": [[606, 0, 0], [607, 0, 0], [608, 0, 0], [609, 0, 0], [610, 0, 0]]
    }, 
    {
      "op": "Activation", 
      "name": "relu_4b_proj", 
      "attrs": {"act_type": "relu"}, 
      "inputs": [[611, 0, 0]]
    }, 
    {
      "op": "Concat", 
      "name": "ch_concat_4b_chconcat", 
      "attrs": {
        "dim": "1", 
        "num_args": "4"
      }, 
      "inputs": [[512, 0, 0], [545, 0, 0], [596, 0, 0], [612, 0, 0]]
    }, 
    {
      "op": "min", 
      "name": "ch_concat_4b_chconcat_min", 
      "inputs": [[613, 0, 0]]
    }, 
    {
      "op": "max", 
      "name": "ch_concat_4b_chconcat_max", 
      "inputs": [[613, 0, 0]]
    }, 
    {
      "op": "_contrib_quantize", 
      "name": "ch_concat_4b_chconcat_quantize", 
      "attrs": {"out_type": "uint8"}, 
      "inputs": [[613, 0, 0], [614, 0, 0], [615, 0, 0]]
    }, 
    {
      "op": "null", 
      "name": "conv_4c_1x1_weight_quantize", 
      "inputs": []
    }, 
    {
      "op": "null", 
      "name": "conv_4c_1x1_bias_quantize", 
      "inputs": []
    }, 
    {
      "op": "null", 
      "name": "conv_4c_1x1_weight_quantize_min", 
      "inputs": []
    }, 
    {
      "op": "null", 
      "name": "conv_4c_1x1_weight_quantize_max", 
      "inputs": []
    }, 
    {
      "op": "null", 
      "name": "conv_4c_1x1_bias_quantize_min", 
      "inputs": []
    }, 
    {
      "op": "null", 
      "name": "conv_4c_1x1_bias_quantize_max", 
      "inputs": []
    }, 
    {
      "op": "_contrib_quantized_conv", 
      "name": "quantized_conv_4c_1x1", 
      "attrs": {
        "cudnn_off": "False", 
        "cudnn_tune": "off", 
        "dilate": "(1,1)", 
        "kernel": "(1,1)", 
        "no_bias": "False", 
        "num_filter": "160", 
        "num_group": "1", 
        "pad": "(0,0)", 
        "stride": "(1,1)", 
        "workspace": "1024"
      }, 
      "inputs": [[616, 0, 0], [617, 0, 0], [618, 0, 0], [616, 1, 0], [616, 2, 0], [619, 0, 0], [620, 0, 0], [621, 0, 0], [622, 0, 0]]
    }, 
    {
      "op": "_contrib_requantize", 
      "name": "requantize_conv_4c_1x1", 
      "inputs": [[623, 0, 0], [623, 1, 0], [623, 2, 0]]
    }, 
    {
      "op": "_contrib_dequantize", 
      "name": "conv_4c_1x1_dequantize", 
      "inputs": [[624, 0, 0], [624, 1, 0], [624, 2, 0]]
    }, 
    {
      "op": "null", 
      "name": "bn_4c_1x1_gamma", 
      "inputs": []
    }, 
    {
      "op": "null", 
      "name": "bn_4c_1x1_beta", 
      "inputs": []
    }, 
    {
      "op": "null", 
      "name": "bn_4c_1x1_moving_mean", 
      "attrs": {
        "__init__": "[\"zero\", {}]", 
        "eps": "1.00001e-05", 
        "fix_gamma": "False", 
        "momentum": "0.9", 
        "use_global_stats": "False"
      }, 
      "inputs": []
    }, 
    {
      "op": "null", 
      "name": "bn_4c_1x1_moving_var", 
      "attrs": {
        "__init__": "[\"one\", {}]", 
        "eps": "1.00001e-05", 
        "fix_gamma": "False", 
        "momentum": "0.9", 
        "use_global_stats": "False"
      }, 
      "inputs": []
    }, 
    {
      "op": "BatchNorm", 
      "name": "bn_4c_1x1", 
      "attrs": {
        "eps": "1.00001e-05", 
        "fix_gamma": "False", 
        "momentum": "0.9", 
        "use_global_stats": "False"
      }, 
      "inputs": [[625, 0, 0], [626, 0, 0], [627, 0, 0], [628, 0, 0], [629, 0, 0]]
    }, 
    {
      "op": "Activation", 
      "name": "relu_4c_1x1", 
      "attrs": {"act_type": "relu"}, 
      "inputs": [[630, 0, 0]]
    }, 
    {
      "op": "null", 
      "name": "conv_4c_3x3_reduce_weight_quantize", 
      "inputs": []
    }, 
    {
      "op": "null", 
      "name": "conv_4c_3x3_reduce_bias_quantize", 
      "inputs": []
    }, 
    {
      "op": "null", 
      "name": "conv_4c_3x3_reduce_weight_quantize_min", 
      "inputs": []
    }, 
    {
      "op": "null", 
      "name": "conv_4c_3x3_reduce_weight_quantize_max", 
      "inputs": []
    }, 
    {
      "op": "null", 
      "name": "conv_4c_3x3_reduce_bias_quantize_min", 
      "inputs": []
    }, 
    {
      "op": "null", 
      "name": "conv_4c_3x3_reduce_bias_quantize_max", 
      "inputs": []
    }, 
    {
      "op": "_contrib_quantized_conv", 
      "name": "quantized_conv_4c_3x3_reduce", 
      "attrs": {
        "cudnn_off": "False", 
        "cudnn_tune": "off", 
        "dilate": "(1,1)", 
        "kernel": "(1,1)", 
        "no_bias": "False", 
        "num_filter": "128", 
        "num_group": "1", 
        "pad": "(0,0)", 
        "stride": "(1,1)", 
        "workspace": "1024"
      }, 
      "inputs": [[616, 0, 0], [632, 0, 0], [633, 0, 0], [616, 1, 0], [616, 2, 0], [634, 0, 0], [635, 0, 0], [636, 0, 0], [637, 0, 0]]
    }, 
    {
      "op": "_contrib_requantize", 
      "name": "requantize_conv_4c_3x3_reduce", 
      "inputs": [[638, 0, 0], [638, 1, 0], [638, 2, 0]]
    }, 
    {
      "op": "_contrib_dequantize", 
      "name": "conv_4c_3x3_reduce_dequantize", 
      "inputs": [[639, 0, 0], [639, 1, 0], [639, 2, 0]]
    }, 
    {
      "op": "null", 
      "name": "bn_4c_3x3_reduce_gamma", 
      "inputs": []
    }, 
    {
      "op": "null", 
      "name": "bn_4c_3x3_reduce_beta", 
      "inputs": []
    }, 
    {
      "op": "null", 
      "name": "bn_4c_3x3_reduce_moving_mean", 
      "attrs": {
        "__init__": "[\"zero\", {}]", 
        "eps": "1.00001e-05", 
        "fix_gamma": "False", 
        "momentum": "0.9", 
        "use_global_stats": "False"
      }, 
      "inputs": []
    }, 
    {
      "op": "null", 
      "name": "bn_4c_3x3_reduce_moving_var", 
      "attrs": {
        "__init__": "[\"one\", {}]", 
        "eps": "1.00001e-05", 
        "fix_gamma": "False", 
        "momentum": "0.9", 
        "use_global_stats": "False"
      }, 
      "inputs": []
    }, 
    {
      "op": "BatchNorm", 
      "name": "bn_4c_3x3_reduce", 
      "attrs": {
        "eps": "1.00001e-05", 
        "fix_gamma": "False", 
        "momentum": "0.9", 
        "use_global_stats": "False"
      }, 
      "inputs": [[640, 0, 0], [641, 0, 0], [642, 0, 0], [643, 0, 0], [644, 0, 0]]
    }, 
    {
      "op": "Activation", 
      "name": "relu_4c_3x3_reduce", 
      "attrs": {"act_type": "relu"}, 
      "inputs": [[645, 0, 0]]
    }, 
    {
      "op": "min", 
      "name": "relu_4c_3x3_reduce_min", 
      "inputs": [[646, 0, 0]]
    }, 
    {
      "op": "max", 
      "name": "relu_4c_3x3_reduce_max", 
      "inputs": [[646, 0, 0]]
    }, 
    {
      "op": "_contrib_quantize", 
      "name": "relu_4c_3x3_reduce_quantize", 
      "attrs": {"out_type": "uint8"}, 
      "inputs": [[646, 0, 0], [647, 0, 0], [648, 0, 0]]
    }, 
    {
      "op": "null", 
      "name": "conv_4c_3x3_weight_quantize", 
      "inputs": []
    }, 
    {
      "op": "null", 
      "name": "conv_4c_3x3_bias_quantize", 
      "inputs": []
    }, 
    {
      "op": "null", 
      "name": "conv_4c_3x3_weight_quantize_min", 
      "inputs": []
    }, 
    {
      "op": "null", 
      "name": "conv_4c_3x3_weight_quantize_max", 
      "inputs": []
    }, 
    {
      "op": "null", 
      "name": "conv_4c_3x3_bias_quantize_min", 
      "inputs": []
    }, 
    {
      "op": "null", 
      "name": "conv_4c_3x3_bias_quantize_max", 
      "inputs": []
    }, 
    {
      "op": "_contrib_quantized_conv", 
      "name": "quantized_conv_4c_3x3", 
      "attrs": {
        "cudnn_off": "False", 
        "cudnn_tune": "off", 
        "dilate": "(1,1)", 
        "kernel": "(3,3)", 
        "no_bias": "False", 
        "num_filter": "160", 
        "num_group": "1", 
        "pad": "(1,1)", 
        "stride": "(1,1)", 
        "workspace": "1024"
      }, 
      "inputs": [[649, 0, 0], [650, 0, 0], [651, 0, 0], [649, 1, 0], [649, 2, 0], [652, 0, 0], [653, 0, 0], [654, 0, 0], [655, 0, 0]]
    }, 
    {
      "op": "_contrib_requantize", 
      "name": "requantize_conv_4c_3x3", 
      "inputs": [[656, 0, 0], [656, 1, 0], [656, 2, 0]]
    }, 
    {
      "op": "_contrib_dequantize", 
      "name": "conv_4c_3x3_dequantize", 
      "inputs": [[657, 0, 0], [657, 1, 0], [657, 2, 0]]
    }, 
    {
      "op": "null", 
      "name": "bn_4c_3x3_gamma", 
      "inputs": []
    }, 
    {
      "op": "null", 
      "name": "bn_4c_3x3_beta", 
      "inputs": []
    }, 
    {
      "op": "null", 
      "name": "bn_4c_3x3_moving_mean", 
      "attrs": {
        "__init__": "[\"zero\", {}]", 
        "eps": "1.00001e-05", 
        "fix_gamma": "False", 
        "momentum": "0.9", 
        "use_global_stats": "False"
      }, 
      "inputs": []
    }, 
    {
      "op": "null", 
      "name": "bn_4c_3x3_moving_var", 
      "attrs": {
        "__init__": "[\"one\", {}]", 
        "eps": "1.00001e-05", 
        "fix_gamma": "False", 
        "momentum": "0.9", 
        "use_global_stats": "False"
      }, 
      "inputs": []
    }, 
    {
      "op": "BatchNorm", 
      "name": "bn_4c_3x3", 
      "attrs": {
        "eps": "1.00001e-05", 
        "fix_gamma": "False", 
        "momentum": "0.9", 
        "use_global_stats": "False"
      }, 
      "inputs": [[658, 0, 0], [659, 0, 0], [660, 0, 0], [661, 0, 0], [662, 0, 0]]
    }, 
    {
      "op": "Activation", 
      "name": "relu_4c_3x3", 
      "attrs": {"act_type": "relu"}, 
      "inputs": [[663, 0, 0]]
    }, 
    {
      "op": "null", 
      "name": "conv_4c_double_3x3_reduce_weight_quantize", 
      "inputs": []
    }, 
    {
      "op": "null", 
      "name": "conv_4c_double_3x3_reduce_bias_quantize", 
      "inputs": []
    }, 
    {
      "op": "null", 
      "name": "conv_4c_double_3x3_reduce_weight_quantize_min", 
      "inputs": []
    }, 
    {
      "op": "null", 
      "name": "conv_4c_double_3x3_reduce_weight_quantize_max", 
      "inputs": []
    }, 
    {
      "op": "null", 
      "name": "conv_4c_double_3x3_reduce_bias_quantize_min", 
      "inputs": []
    }, 
    {
      "op": "null", 
      "name": "conv_4c_double_3x3_reduce_bias_quantize_max", 
      "inputs": []
    }, 
    {
      "op": "_contrib_quantized_conv", 
      "name": "quantized_conv_4c_double_3x3_reduce", 
      "attrs": {
        "cudnn_off": "False", 
        "cudnn_tune": "off", 
        "dilate": "(1,1)", 
        "kernel": "(1,1)", 
        "no_bias": "False", 
        "num_filter": "128", 
        "num_group": "1", 
        "pad": "(0,0)", 
        "stride": "(1,1)", 
        "workspace": "1024"
      }, 
      "inputs": [[616, 0, 0], [665, 0, 0], [666, 0, 0], [616, 1, 0], [616, 2, 0], [667, 0, 0], [668, 0, 0], [669, 0, 0], [670, 0, 0]]
    }, 
    {
      "op": "_contrib_requantize", 
      "name": "requantize_conv_4c_double_3x3_reduce", 
      "inputs": [[671, 0, 0], [671, 1, 0], [671, 2, 0]]
    }, 
    {
      "op": "_contrib_dequantize", 
      "name": "conv_4c_double_3x3_reduce_dequantize", 
      "inputs": [[672, 0, 0], [672, 1, 0], [672, 2, 0]]
    }, 
    {
      "op": "null", 
      "name": "bn_4c_double_3x3_reduce_gamma", 
      "inputs": []
    }, 
    {
      "op": "null", 
      "name": "bn_4c_double_3x3_reduce_beta", 
      "inputs": []
    }, 
    {
      "op": "null", 
      "name": "bn_4c_double_3x3_reduce_moving_mean", 
      "attrs": {
        "__init__": "[\"zero\", {}]", 
        "eps": "1.00001e-05", 
        "fix_gamma": "False", 
        "momentum": "0.9", 
        "use_global_stats": "False"
      }, 
      "inputs": []
    }, 
    {
      "op": "null", 
      "name": "bn_4c_double_3x3_reduce_moving_var", 
      "attrs": {
        "__init__": "[\"one\", {}]", 
        "eps": "1.00001e-05", 
        "fix_gamma": "False", 
        "momentum": "0.9", 
        "use_global_stats": "False"
      }, 
      "inputs": []
    }, 
    {
      "op": "BatchNorm", 
      "name": "bn_4c_double_3x3_reduce", 
      "attrs": {
        "eps": "1.00001e-05", 
        "fix_gamma": "False", 
        "momentum": "0.9", 
        "use_global_stats": "False"
      }, 
      "inputs": [[673, 0, 0], [674, 0, 0], [675, 0, 0], [676, 0, 0], [677, 0, 0]]
    }, 
    {
      "op": "Activation", 
      "name": "relu_4c_double_3x3_reduce", 
      "attrs": {"act_type": "relu"}, 
      "inputs": [[678, 0, 0]]
    }, 
    {
      "op": "min", 
      "name": "relu_4c_double_3x3_reduce_min", 
      "inputs": [[679, 0, 0]]
    }, 
    {
      "op": "max", 
      "name": "relu_4c_double_3x3_reduce_max", 
      "inputs": [[679, 0, 0]]
    }, 
    {
      "op": "_contrib_quantize", 
      "name": "relu_4c_double_3x3_reduce_quantize", 
      "attrs": {"out_type": "uint8"}, 
      "inputs": [[679, 0, 0], [680, 0, 0], [681, 0, 0]]
    }, 
    {
      "op": "null", 
      "name": "conv_4c_double_3x3_0_weight_quantize", 
      "inputs": []
    }, 
    {
      "op": "null", 
      "name": "conv_4c_double_3x3_0_bias_quantize", 
      "inputs": []
    }, 
    {
      "op": "null", 
      "name": "conv_4c_double_3x3_0_weight_quantize_min", 
      "inputs": []
    }, 
    {
      "op": "null", 
      "name": "conv_4c_double_3x3_0_weight_quantize_max", 
      "inputs": []
    }, 
    {
      "op": "null", 
      "name": "conv_4c_double_3x3_0_bias_quantize_min", 
      "inputs": []
    }, 
    {
      "op": "null", 
      "name": "conv_4c_double_3x3_0_bias_quantize_max", 
      "inputs": []
    }, 
    {
      "op": "_contrib_quantized_conv", 
      "name": "quantized_conv_4c_double_3x3_0", 
      "attrs": {
        "cudnn_off": "False", 
        "cudnn_tune": "off", 
        "dilate": "(1,1)", 
        "kernel": "(3,3)", 
        "no_bias": "False", 
        "num_filter": "160", 
        "num_group": "1", 
        "pad": "(1,1)", 
        "stride": "(1,1)", 
        "workspace": "1024"
      }, 
      "inputs": [[682, 0, 0], [683, 0, 0], [684, 0, 0], [682, 1, 0], [682, 2, 0], [685, 0, 0], [686, 0, 0], [687, 0, 0], [688, 0, 0]]
    }, 
    {
      "op": "_contrib_requantize", 
      "name": "requantize_conv_4c_double_3x3_0", 
      "inputs": [[689, 0, 0], [689, 1, 0], [689, 2, 0]]
    }, 
    {
      "op": "_contrib_dequantize", 
      "name": "conv_4c_double_3x3_0_dequantize", 
      "inputs": [[690, 0, 0], [690, 1, 0], [690, 2, 0]]
    }, 
    {
      "op": "null", 
      "name": "bn_4c_double_3x3_0_gamma", 
      "inputs": []
    }, 
    {
      "op": "null", 
      "name": "bn_4c_double_3x3_0_beta", 
      "inputs": []
    }, 
    {
      "op": "null", 
      "name": "bn_4c_double_3x3_0_moving_mean", 
      "attrs": {
        "__init__": "[\"zero\", {}]", 
        "eps": "1.00001e-05", 
        "fix_gamma": "False", 
        "momentum": "0.9", 
        "use_global_stats": "False"
      }, 
      "inputs": []
    }, 
    {
      "op": "null", 
      "name": "bn_4c_double_3x3_0_moving_var", 
      "attrs": {
        "__init__": "[\"one\", {}]", 
        "eps": "1.00001e-05", 
        "fix_gamma": "False", 
        "momentum": "0.9", 
        "use_global_stats": "False"
      }, 
      "inputs": []
    }, 
    {
      "op": "BatchNorm", 
      "name": "bn_4c_double_3x3_0", 
      "attrs": {
        "eps": "1.00001e-05", 
        "fix_gamma": "False", 
        "momentum": "0.9", 
        "use_global_stats": "False"
      }, 
      "inputs": [[691, 0, 0], [692, 0, 0], [693, 0, 0], [694, 0, 0], [695, 0, 0]]
    }, 
    {
      "op": "Activation", 
      "name": "relu_4c_double_3x3_0", 
      "attrs": {"act_type": "relu"}, 
      "inputs": [[696, 0, 0]]
    }, 
    {
      "op": "min", 
      "name": "relu_4c_double_3x3_0_min", 
      "inputs": [[697, 0, 0]]
    }, 
    {
      "op": "max", 
      "name": "relu_4c_double_3x3_0_max", 
      "inputs": [[697, 0, 0]]
    }, 
    {
      "op": "_contrib_quantize", 
      "name": "relu_4c_double_3x3_0_quantize", 
      "attrs": {"out_type": "uint8"}, 
      "inputs": [[697, 0, 0], [698, 0, 0], [699, 0, 0]]
    }, 
    {
      "op": "null", 
      "name": "conv_4c_double_3x3_1_weight_quantize", 
      "inputs": []
    }, 
    {
      "op": "null", 
      "name": "conv_4c_double_3x3_1_bias_quantize", 
      "inputs": []
    }, 
    {
      "op": "null", 
      "name": "conv_4c_double_3x3_1_weight_quantize_min", 
      "inputs": []
    }, 
    {
      "op": "null", 
      "name": "conv_4c_double_3x3_1_weight_quantize_max", 
      "inputs": []
    }, 
    {
      "op": "null", 
      "name": "conv_4c_double_3x3_1_bias_quantize_min", 
      "inputs": []
    }, 
    {
      "op": "null", 
      "name": "conv_4c_double_3x3_1_bias_quantize_max", 
      "inputs": []
    }, 
    {
      "op": "_contrib_quantized_conv", 
      "name": "quantized_conv_4c_double_3x3_1", 
      "attrs": {
        "cudnn_off": "False", 
        "cudnn_tune": "off", 
        "dilate": "(1,1)", 
        "kernel": "(3,3)", 
        "no_bias": "False", 
        "num_filter": "160", 
        "num_group": "1", 
        "pad": "(1,1)", 
        "stride": "(1,1)", 
        "workspace": "1024"
      }, 
      "inputs": [[700, 0, 0], [701, 0, 0], [702, 0, 0], [700, 1, 0], [700, 2, 0], [703, 0, 0], [704, 0, 0], [705, 0, 0], [706, 0, 0]]
    }, 
    {
      "op": "_contrib_requantize", 
      "name": "requantize_conv_4c_double_3x3_1", 
      "inputs": [[707, 0, 0], [707, 1, 0], [707, 2, 0]]
    }, 
    {
      "op": "_contrib_dequantize", 
      "name": "conv_4c_double_3x3_1_dequantize", 
      "inputs": [[708, 0, 0], [708, 1, 0], [708, 2, 0]]
    }, 
    {
      "op": "null", 
      "name": "bn_4c_double_3x3_1_gamma", 
      "inputs": []
    }, 
    {
      "op": "null", 
      "name": "bn_4c_double_3x3_1_beta", 
      "inputs": []
    }, 
    {
      "op": "null", 
      "name": "bn_4c_double_3x3_1_moving_mean", 
      "attrs": {
        "__init__": "[\"zero\", {}]", 
        "eps": "1.00001e-05", 
        "fix_gamma": "False", 
        "momentum": "0.9", 
        "use_global_stats": "False"
      }, 
      "inputs": []
    }, 
    {
      "op": "null", 
      "name": "bn_4c_double_3x3_1_moving_var", 
      "attrs": {
        "__init__": "[\"one\", {}]", 
        "eps": "1.00001e-05", 
        "fix_gamma": "False", 
        "momentum": "0.9", 
        "use_global_stats": "False"
      }, 
      "inputs": []
    }, 
    {
      "op": "BatchNorm", 
      "name": "bn_4c_double_3x3_1", 
      "attrs": {
        "eps": "1.00001e-05", 
        "fix_gamma": "False", 
        "momentum": "0.9", 
        "use_global_stats": "False"
      }, 
      "inputs": [[709, 0, 0], [710, 0, 0], [711, 0, 0], [712, 0, 0], [713, 0, 0]]
    }, 
    {
      "op": "Activation", 
      "name": "relu_4c_double_3x3_1", 
      "attrs": {"act_type": "relu"}, 
      "inputs": [[714, 0, 0]]
    }, 
    {
      "op": "_contrib_quantized_pooling", 
      "name": "quantized_avg_pool_4c_pool", 
      "attrs": {
        "global_pool": "False", 
        "kernel": "(3,3)", 
        "pad": "(1,1)", 
        "pool_type": "avg", 
        "pooling_convention": "valid", 
        "stride": "(1,1)"
      }, 
      "inputs": [[616, 0, 0], [616, 1, 0], [616, 2, 0]]
    }, 
    {
      "op": "null", 
      "name": "conv_4c_proj_weight_quantize", 
      "inputs": []
    }, 
    {
      "op": "null", 
      "name": "conv_4c_proj_bias_quantize", 
      "inputs": []
    }, 
    {
      "op": "null", 
      "name": "conv_4c_proj_weight_quantize_min", 
      "inputs": []
    }, 
    {
      "op": "null", 
      "name": "conv_4c_proj_weight_quantize_max", 
      "inputs": []
    }, 
    {
      "op": "null", 
      "name": "conv_4c_proj_bias_quantize_min", 
      "inputs": []
    }, 
    {
      "op": "null", 
      "name": "conv_4c_proj_bias_quantize_max", 
      "inputs": []
    }, 
    {
      "op": "_contrib_quantized_conv", 
      "name": "quantized_conv_4c_proj", 
      "attrs": {
        "cudnn_off": "False", 
        "cudnn_tune": "off", 
        "dilate": "(1,1)", 
        "kernel": "(1,1)", 
        "no_bias": "False", 
        "num_filter": "128", 
        "num_group": "1", 
        "pad": "(0,0)", 
        "stride": "(1,1)", 
        "workspace": "1024"
      }, 
      "inputs": [[716, 0, 0], [717, 0, 0], [718, 0, 0], [716, 1, 0], [716, 2, 0], [719, 0, 0], [720, 0, 0], [721, 0, 0], [722, 0, 0]]
    }, 
    {
      "op": "_contrib_requantize", 
      "name": "requantize_conv_4c_proj", 
      "inputs": [[723, 0, 0], [723, 1, 0], [723, 2, 0]]
    }, 
    {
      "op": "_contrib_dequantize", 
      "name": "conv_4c_proj_dequantize", 
      "inputs": [[724, 0, 0], [724, 1, 0], [724, 2, 0]]
    }, 
    {
      "op": "null", 
      "name": "bn_4c_proj_gamma", 
      "inputs": []
    }, 
    {
      "op": "null", 
      "name": "bn_4c_proj_beta", 
      "inputs": []
    }, 
    {
      "op": "null", 
      "name": "bn_4c_proj_moving_mean", 
      "attrs": {
        "__init__": "[\"zero\", {}]", 
        "eps": "1.00001e-05", 
        "fix_gamma": "False", 
        "momentum": "0.9", 
        "use_global_stats": "False"
      }, 
      "inputs": []
    }, 
    {
      "op": "null", 
      "name": "bn_4c_proj_moving_var", 
      "attrs": {
        "__init__": "[\"one\", {}]", 
        "eps": "1.00001e-05", 
        "fix_gamma": "False", 
        "momentum": "0.9", 
        "use_global_stats": "False"
      }, 
      "inputs": []
    }, 
    {
      "op": "BatchNorm", 
      "name": "bn_4c_proj", 
      "attrs": {
        "eps": "1.00001e-05", 
        "fix_gamma": "False", 
        "momentum": "0.9", 
        "use_global_stats": "False"
      }, 
      "inputs": [[725, 0, 0], [726, 0, 0], [727, 0, 0], [728, 0, 0], [729, 0, 0]]
    }, 
    {
      "op": "Activation", 
      "name": "relu_4c_proj", 
      "attrs": {"act_type": "relu"}, 
      "inputs": [[730, 0, 0]]
    }, 
    {
      "op": "Concat", 
      "name": "ch_concat_4c_chconcat", 
      "attrs": {
        "dim": "1", 
        "num_args": "4"
      }, 
      "inputs": [[631, 0, 0], [664, 0, 0], [715, 0, 0], [731, 0, 0]]
    }, 
    {
      "op": "min", 
      "name": "ch_concat_4c_chconcat_min", 
      "inputs": [[732, 0, 0]]
    }, 
    {
      "op": "max", 
      "name": "ch_concat_4c_chconcat_max", 
      "inputs": [[732, 0, 0]]
    }, 
    {
      "op": "_contrib_quantize", 
      "name": "ch_concat_4c_chconcat_quantize", 
      "attrs": {"out_type": "uint8"}, 
      "inputs": [[732, 0, 0], [733, 0, 0], [734, 0, 0]]
    }, 
    {
      "op": "null", 
      "name": "conv_4d_1x1_weight_quantize", 
      "inputs": []
    }, 
    {
      "op": "null", 
      "name": "conv_4d_1x1_bias_quantize", 
      "inputs": []
    }, 
    {
      "op": "null", 
      "name": "conv_4d_1x1_weight_quantize_min", 
      "inputs": []
    }, 
    {
      "op": "null", 
      "name": "conv_4d_1x1_weight_quantize_max", 
      "inputs": []
    }, 
    {
      "op": "null", 
      "name": "conv_4d_1x1_bias_quantize_min", 
      "inputs": []
    }, 
    {
      "op": "null", 
      "name": "conv_4d_1x1_bias_quantize_max", 
      "inputs": []
    }, 
    {
      "op": "_contrib_quantized_conv", 
      "name": "quantized_conv_4d_1x1", 
      "attrs": {
        "cudnn_off": "False", 
        "cudnn_tune": "off", 
        "dilate": "(1,1)", 
        "kernel": "(1,1)", 
        "no_bias": "False", 
        "num_filter": "96", 
        "num_group": "1", 
        "pad": "(0,0)", 
        "stride": "(1,1)", 
        "workspace": "1024"
      }, 
      "inputs": [[735, 0, 0], [736, 0, 0], [737, 0, 0], [735, 1, 0], [735, 2, 0], [738, 0, 0], [739, 0, 0], [740, 0, 0], [741, 0, 0]]
    }, 
    {
      "op": "_contrib_requantize", 
      "name": "requantize_conv_4d_1x1", 
      "inputs": [[742, 0, 0], [742, 1, 0], [742, 2, 0]]
    }, 
    {
      "op": "_contrib_dequantize", 
      "name": "conv_4d_1x1_dequantize", 
      "inputs": [[743, 0, 0], [743, 1, 0], [743, 2, 0]]
    }, 
    {
      "op": "null", 
      "name": "bn_4d_1x1_gamma", 
      "inputs": []
    }, 
    {
      "op": "null", 
      "name": "bn_4d_1x1_beta", 
      "inputs": []
    }, 
    {
      "op": "null", 
      "name": "bn_4d_1x1_moving_mean", 
      "attrs": {
        "__init__": "[\"zero\", {}]", 
        "eps": "1.00001e-05", 
        "fix_gamma": "False", 
        "momentum": "0.9", 
        "use_global_stats": "False"
      }, 
      "inputs": []
    }, 
    {
      "op": "null", 
      "name": "bn_4d_1x1_moving_var", 
      "attrs": {
        "__init__": "[\"one\", {}]", 
        "eps": "1.00001e-05", 
        "fix_gamma": "False", 
        "momentum": "0.9", 
        "use_global_stats": "False"
      }, 
      "inputs": []
    }, 
    {
      "op": "BatchNorm", 
      "name": "bn_4d_1x1", 
      "attrs": {
        "eps": "1.00001e-05", 
        "fix_gamma": "False", 
        "momentum": "0.9", 
        "use_global_stats": "False"
      }, 
      "inputs": [[744, 0, 0], [745, 0, 0], [746, 0, 0], [747, 0, 0], [748, 0, 0]]
    }, 
    {
      "op": "Activation", 
      "name": "relu_4d_1x1", 
      "attrs": {"act_type": "relu"}, 
      "inputs": [[749, 0, 0]]
    }, 
    {
      "op": "null", 
      "name": "conv_4d_3x3_reduce_weight_quantize", 
      "inputs": []
    }, 
    {
      "op": "null", 
      "name": "conv_4d_3x3_reduce_bias_quantize", 
      "inputs": []
    }, 
    {
      "op": "null", 
      "name": "conv_4d_3x3_reduce_weight_quantize_min", 
      "inputs": []
    }, 
    {
      "op": "null", 
      "name": "conv_4d_3x3_reduce_weight_quantize_max", 
      "inputs": []
    }, 
    {
      "op": "null", 
      "name": "conv_4d_3x3_reduce_bias_quantize_min", 
      "inputs": []
    }, 
    {
      "op": "null", 
      "name": "conv_4d_3x3_reduce_bias_quantize_max", 
      "inputs": []
    }, 
    {
      "op": "_contrib_quantized_conv", 
      "name": "quantized_conv_4d_3x3_reduce", 
      "attrs": {
        "cudnn_off": "False", 
        "cudnn_tune": "off", 
        "dilate": "(1,1)", 
        "kernel": "(1,1)", 
        "no_bias": "False", 
        "num_filter": "128", 
        "num_group": "1", 
        "pad": "(0,0)", 
        "stride": "(1,1)", 
        "workspace": "1024"
      }, 
      "inputs": [[735, 0, 0], [751, 0, 0], [752, 0, 0], [735, 1, 0], [735, 2, 0], [753, 0, 0], [754, 0, 0], [755, 0, 0], [756, 0, 0]]
    }, 
    {
      "op": "_contrib_requantize", 
      "name": "requantize_conv_4d_3x3_reduce", 
      "inputs": [[757, 0, 0], [757, 1, 0], [757, 2, 0]]
    }, 
    {
      "op": "_contrib_dequantize", 
      "name": "conv_4d_3x3_reduce_dequantize", 
      "inputs": [[758, 0, 0], [758, 1, 0], [758, 2, 0]]
    }, 
    {
      "op": "null", 
      "name": "bn_4d_3x3_reduce_gamma", 
      "inputs": []
    }, 
    {
      "op": "null", 
      "name": "bn_4d_3x3_reduce_beta", 
      "inputs": []
    }, 
    {
      "op": "null", 
      "name": "bn_4d_3x3_reduce_moving_mean", 
      "attrs": {
        "__init__": "[\"zero\", {}]", 
        "eps": "1.00001e-05", 
        "fix_gamma": "False", 
        "momentum": "0.9", 
        "use_global_stats": "False"
      }, 
      "inputs": []
    }, 
    {
      "op": "null", 
      "name": "bn_4d_3x3_reduce_moving_var", 
      "attrs": {
        "__init__": "[\"one\", {}]", 
        "eps": "1.00001e-05", 
        "fix_gamma": "False", 
        "momentum": "0.9", 
        "use_global_stats": "False"
      }, 
      "inputs": []
    }, 
    {
      "op": "BatchNorm", 
      "name": "bn_4d_3x3_reduce", 
      "attrs": {
        "eps": "1.00001e-05", 
        "fix_gamma": "False", 
        "momentum": "0.9", 
        "use_global_stats": "False"
      }, 
      "inputs": [[759, 0, 0], [760, 0, 0], [761, 0, 0], [762, 0, 0], [763, 0, 0]]
    }, 
    {
      "op": "Activation", 
      "name": "relu_4d_3x3_reduce", 
      "attrs": {"act_type": "relu"}, 
      "inputs": [[764, 0, 0]]
    }, 
    {
      "op": "min", 
      "name": "relu_4d_3x3_reduce_min", 
      "inputs": [[765, 0, 0]]
    }, 
    {
      "op": "max", 
      "name": "relu_4d_3x3_reduce_max", 
      "inputs": [[765, 0, 0]]
    }, 
    {
      "op": "_contrib_quantize", 
      "name": "relu_4d_3x3_reduce_quantize", 
      "attrs": {"out_type": "uint8"}, 
      "inputs": [[765, 0, 0], [766, 0, 0], [767, 0, 0]]
    }, 
    {
      "op": "null", 
      "name": "conv_4d_3x3_weight_quantize", 
      "inputs": []
    }, 
    {
      "op": "null", 
      "name": "conv_4d_3x3_bias_quantize", 
      "inputs": []
    }, 
    {
      "op": "null", 
      "name": "conv_4d_3x3_weight_quantize_min", 
      "inputs": []
    }, 
    {
      "op": "null", 
      "name": "conv_4d_3x3_weight_quantize_max", 
      "inputs": []
    }, 
    {
      "op": "null", 
      "name": "conv_4d_3x3_bias_quantize_min", 
      "inputs": []
    }, 
    {
      "op": "null", 
      "name": "conv_4d_3x3_bias_quantize_max", 
      "inputs": []
    }, 
    {
      "op": "_contrib_quantized_conv", 
      "name": "quantized_conv_4d_3x3", 
      "attrs": {
        "cudnn_off": "False", 
        "cudnn_tune": "off", 
        "dilate": "(1,1)", 
        "kernel": "(3,3)", 
        "no_bias": "False", 
        "num_filter": "192", 
        "num_group": "1", 
        "pad": "(1,1)", 
        "stride": "(1,1)", 
        "workspace": "1024"
      }, 
      "inputs": [[768, 0, 0], [769, 0, 0], [770, 0, 0], [768, 1, 0], [768, 2, 0], [771, 0, 0], [772, 0, 0], [773, 0, 0], [774, 0, 0]]
    }, 
    {
      "op": "_contrib_requantize", 
      "name": "requantize_conv_4d_3x3", 
      "inputs": [[775, 0, 0], [775, 1, 0], [775, 2, 0]]
    }, 
    {
      "op": "_contrib_dequantize", 
      "name": "conv_4d_3x3_dequantize", 
      "inputs": [[776, 0, 0], [776, 1, 0], [776, 2, 0]]
    }, 
    {
      "op": "null", 
      "name": "bn_4d_3x3_gamma", 
      "inputs": []
    }, 
    {
      "op": "null", 
      "name": "bn_4d_3x3_beta", 
      "inputs": []
    }, 
    {
      "op": "null", 
      "name": "bn_4d_3x3_moving_mean", 
      "attrs": {
        "__init__": "[\"zero\", {}]", 
        "eps": "1.00001e-05", 
        "fix_gamma": "False", 
        "momentum": "0.9", 
        "use_global_stats": "False"
      }, 
      "inputs": []
    }, 
    {
      "op": "null", 
      "name": "bn_4d_3x3_moving_var", 
      "attrs": {
        "__init__": "[\"one\", {}]", 
        "eps": "1.00001e-05", 
        "fix_gamma": "False", 
        "momentum": "0.9", 
        "use_global_stats": "False"
      }, 
      "inputs": []
    }, 
    {
      "op": "BatchNorm", 
      "name": "bn_4d_3x3", 
      "attrs": {
        "eps": "1.00001e-05", 
        "fix_gamma": "False", 
        "momentum": "0.9", 
        "use_global_stats": "False"
      }, 
      "inputs": [[777, 0, 0], [778, 0, 0], [779, 0, 0], [780, 0, 0], [781, 0, 0]]
    }, 
    {
      "op": "Activation", 
      "name": "relu_4d_3x3", 
      "attrs": {"act_type": "relu"}, 
      "inputs": [[782, 0, 0]]
    }, 
    {
      "op": "null", 
      "name": "conv_4d_double_3x3_reduce_weight_quantize", 
      "inputs": []
    }, 
    {
      "op": "null", 
      "name": "conv_4d_double_3x3_reduce_bias_quantize", 
      "inputs": []
    }, 
    {
      "op": "null", 
      "name": "conv_4d_double_3x3_reduce_weight_quantize_min", 
      "inputs": []
    }, 
    {
      "op": "null", 
      "name": "conv_4d_double_3x3_reduce_weight_quantize_max", 
      "inputs": []
    }, 
    {
      "op": "null", 
      "name": "conv_4d_double_3x3_reduce_bias_quantize_min", 
      "inputs": []
    }, 
    {
      "op": "null", 
      "name": "conv_4d_double_3x3_reduce_bias_quantize_max", 
      "inputs": []
    }, 
    {
      "op": "_contrib_quantized_conv", 
      "name": "quantized_conv_4d_double_3x3_reduce", 
      "attrs": {
        "cudnn_off": "False", 
        "cudnn_tune": "off", 
        "dilate": "(1,1)", 
        "kernel": "(1,1)", 
        "no_bias": "False", 
        "num_filter": "160", 
        "num_group": "1", 
        "pad": "(0,0)", 
        "stride": "(1,1)", 
        "workspace": "1024"
      }, 
      "inputs": [[735, 0, 0], [784, 0, 0], [785, 0, 0], [735, 1, 0], [735, 2, 0], [786, 0, 0], [787, 0, 0], [788, 0, 0], [789, 0, 0]]
    }, 
    {
      "op": "_contrib_requantize", 
      "name": "requantize_conv_4d_double_3x3_reduce", 
      "inputs": [[790, 0, 0], [790, 1, 0], [790, 2, 0]]
    }, 
    {
      "op": "_contrib_dequantize", 
      "name": "conv_4d_double_3x3_reduce_dequantize", 
      "inputs": [[791, 0, 0], [791, 1, 0], [791, 2, 0]]
    }, 
    {
      "op": "null", 
      "name": "bn_4d_double_3x3_reduce_gamma", 
      "inputs": []
    }, 
    {
      "op": "null", 
      "name": "bn_4d_double_3x3_reduce_beta", 
      "inputs": []
    }, 
    {
      "op": "null", 
      "name": "bn_4d_double_3x3_reduce_moving_mean", 
      "attrs": {
        "__init__": "[\"zero\", {}]", 
        "eps": "1.00001e-05", 
        "fix_gamma": "False", 
        "momentum": "0.9", 
        "use_global_stats": "False"
      }, 
      "inputs": []
    }, 
    {
      "op": "null", 
      "name": "bn_4d_double_3x3_reduce_moving_var", 
      "attrs": {
        "__init__": "[\"one\", {}]", 
        "eps": "1.00001e-05", 
        "fix_gamma": "False", 
        "momentum": "0.9", 
        "use_global_stats": "False"
      }, 
      "inputs": []
    }, 
    {
      "op": "BatchNorm", 
      "name": "bn_4d_double_3x3_reduce", 
      "attrs": {
        "eps": "1.00001e-05", 
        "fix_gamma": "False", 
        "momentum": "0.9", 
        "use_global_stats": "False"
      }, 
      "inputs": [[792, 0, 0], [793, 0, 0], [794, 0, 0], [795, 0, 0], [796, 0, 0]]
    }, 
    {
      "op": "Activation", 
      "name": "relu_4d_double_3x3_reduce", 
      "attrs": {"act_type": "relu"}, 
      "inputs": [[797, 0, 0]]
    }, 
    {
      "op": "min", 
      "name": "relu_4d_double_3x3_reduce_min", 
      "inputs": [[798, 0, 0]]
    }, 
    {
      "op": "max", 
      "name": "relu_4d_double_3x3_reduce_max", 
      "inputs": [[798, 0, 0]]
    }, 
    {
      "op": "_contrib_quantize", 
      "name": "relu_4d_double_3x3_reduce_quantize", 
      "attrs": {"out_type": "uint8"}, 
      "inputs": [[798, 0, 0], [799, 0, 0], [800, 0, 0]]
    }, 
    {
      "op": "null", 
      "name": "conv_4d_double_3x3_0_weight_quantize", 
      "inputs": []
    }, 
    {
      "op": "null", 
      "name": "conv_4d_double_3x3_0_bias_quantize", 
      "inputs": []
    }, 
    {
      "op": "null", 
      "name": "conv_4d_double_3x3_0_weight_quantize_min", 
      "inputs": []
    }, 
    {
      "op": "null", 
      "name": "conv_4d_double_3x3_0_weight_quantize_max", 
      "inputs": []
    }, 
    {
      "op": "null", 
      "name": "conv_4d_double_3x3_0_bias_quantize_min", 
      "inputs": []
    }, 
    {
      "op": "null", 
      "name": "conv_4d_double_3x3_0_bias_quantize_max", 
      "inputs": []
    }, 
    {
      "op": "_contrib_quantized_conv", 
      "name": "quantized_conv_4d_double_3x3_0", 
      "attrs": {
        "cudnn_off": "False", 
        "cudnn_tune": "off", 
        "dilate": "(1,1)", 
        "kernel": "(3,3)", 
        "no_bias": "False", 
        "num_filter": "192", 
        "num_group": "1", 
        "pad": "(1,1)", 
        "stride": "(1,1)", 
        "workspace": "1024"
      }, 
      "inputs": [[801, 0, 0], [802, 0, 0], [803, 0, 0], [801, 1, 0], [801, 2, 0], [804, 0, 0], [805, 0, 0], [806, 0, 0], [807, 0, 0]]
    }, 
    {
      "op": "_contrib_requantize", 
      "name": "requantize_conv_4d_double_3x3_0", 
      "inputs": [[808, 0, 0], [808, 1, 0], [808, 2, 0]]
    }, 
    {
      "op": "_contrib_dequantize", 
      "name": "conv_4d_double_3x3_0_dequantize", 
      "inputs": [[809, 0, 0], [809, 1, 0], [809, 2, 0]]
    }, 
    {
      "op": "null", 
      "name": "bn_4d_double_3x3_0_gamma", 
      "inputs": []
    }, 
    {
      "op": "null", 
      "name": "bn_4d_double_3x3_0_beta", 
      "inputs": []
    }, 
    {
      "op": "null", 
      "name": "bn_4d_double_3x3_0_moving_mean", 
      "attrs": {
        "__init__": "[\"zero\", {}]", 
        "eps": "1.00001e-05", 
        "fix_gamma": "False", 
        "momentum": "0.9", 
        "use_global_stats": "False"
      }, 
      "inputs": []
    }, 
    {
      "op": "null", 
      "name": "bn_4d_double_3x3_0_moving_var", 
      "attrs": {
        "__init__": "[\"one\", {}]", 
        "eps": "1.00001e-05", 
        "fix_gamma": "False", 
        "momentum": "0.9", 
        "use_global_stats": "False"
      }, 
      "inputs": []
    }, 
    {
      "op": "BatchNorm", 
      "name": "bn_4d_double_3x3_0", 
      "attrs": {
        "eps": "1.00001e-05", 
        "fix_gamma": "False", 
        "momentum": "0.9", 
        "use_global_stats": "False"
      }, 
      "inputs": [[810, 0, 0], [811, 0, 0], [812, 0, 0], [813, 0, 0], [814, 0, 0]]
    }, 
    {
      "op": "Activation", 
      "name": "relu_4d_double_3x3_0", 
      "attrs": {"act_type": "relu"}, 
      "inputs": [[815, 0, 0]]
    }, 
    {
      "op": "min", 
      "name": "relu_4d_double_3x3_0_min", 
      "inputs": [[816, 0, 0]]
    }, 
    {
      "op": "max", 
      "name": "relu_4d_double_3x3_0_max", 
      "inputs": [[816, 0, 0]]
    }, 
    {
      "op": "_contrib_quantize", 
      "name": "relu_4d_double_3x3_0_quantize", 
      "attrs": {"out_type": "uint8"}, 
      "inputs": [[816, 0, 0], [817, 0, 0], [818, 0, 0]]
    }, 
    {
      "op": "null", 
      "name": "conv_4d_double_3x3_1_weight_quantize", 
      "inputs": []
    }, 
    {
      "op": "null", 
      "name": "conv_4d_double_3x3_1_bias_quantize", 
      "inputs": []
    }, 
    {
      "op": "null", 
      "name": "conv_4d_double_3x3_1_weight_quantize_min", 
      "inputs": []
    }, 
    {
      "op": "null", 
      "name": "conv_4d_double_3x3_1_weight_quantize_max", 
      "inputs": []
    }, 
    {
      "op": "null", 
      "name": "conv_4d_double_3x3_1_bias_quantize_min", 
      "inputs": []
    }, 
    {
      "op": "null", 
      "name": "conv_4d_double_3x3_1_bias_quantize_max", 
      "inputs": []
    }, 
    {
      "op": "_contrib_quantized_conv", 
      "name": "quantized_conv_4d_double_3x3_1", 
      "attrs": {
        "cudnn_off": "False", 
        "cudnn_tune": "off", 
        "dilate": "(1,1)", 
        "kernel": "(3,3)", 
        "no_bias": "False", 
        "num_filter": "192", 
        "num_group": "1", 
        "pad": "(1,1)", 
        "stride": "(1,1)", 
        "workspace": "1024"
      }, 
      "inputs": [[819, 0, 0], [820, 0, 0], [821, 0, 0], [819, 1, 0], [819, 2, 0], [822, 0, 0], [823, 0, 0], [824, 0, 0], [825, 0, 0]]
    }, 
    {
      "op": "_contrib_requantize", 
      "name": "requantize_conv_4d_double_3x3_1", 
      "inputs": [[826, 0, 0], [826, 1, 0], [826, 2, 0]]
    }, 
    {
      "op": "_contrib_dequantize", 
      "name": "conv_4d_double_3x3_1_dequantize", 
      "inputs": [[827, 0, 0], [827, 1, 0], [827, 2, 0]]
    }, 
    {
      "op": "null", 
      "name": "bn_4d_double_3x3_1_gamma", 
      "inputs": []
    }, 
    {
      "op": "null", 
      "name": "bn_4d_double_3x3_1_beta", 
      "inputs": []
    }, 
    {
      "op": "null", 
      "name": "bn_4d_double_3x3_1_moving_mean", 
      "attrs": {
        "__init__": "[\"zero\", {}]", 
        "eps": "1.00001e-05", 
        "fix_gamma": "False", 
        "momentum": "0.9", 
        "use_global_stats": "False"
      }, 
      "inputs": []
    }, 
    {
      "op": "null", 
      "name": "bn_4d_double_3x3_1_moving_var", 
      "attrs": {
        "__init__": "[\"one\", {}]", 
        "eps": "1.00001e-05", 
        "fix_gamma": "False", 
        "momentum": "0.9", 
        "use_global_stats": "False"
      }, 
      "inputs": []
    }, 
    {
      "op": "BatchNorm", 
      "name": "bn_4d_double_3x3_1", 
      "attrs": {
        "eps": "1.00001e-05", 
        "fix_gamma": "False", 
        "momentum": "0.9", 
        "use_global_stats": "False"
      }, 
      "inputs": [[828, 0, 0], [829, 0, 0], [830, 0, 0], [831, 0, 0], [832, 0, 0]]
    }, 
    {
      "op": "Activation", 
      "name": "relu_4d_double_3x3_1", 
      "attrs": {"act_type": "relu"}, 
      "inputs": [[833, 0, 0]]
    }, 
    {
      "op": "_contrib_quantized_pooling", 
      "name": "quantized_avg_pool_4d_pool", 
      "attrs": {
        "global_pool": "False", 
        "kernel": "(3,3)", 
        "pad": "(1,1)", 
        "pool_type": "avg", 
        "pooling_convention": "valid", 
        "stride": "(1,1)"
      }, 
      "inputs": [[735, 0, 0], [735, 1, 0], [735, 2, 0]]
    }, 
    {
      "op": "null", 
      "name": "conv_4d_proj_weight_quantize", 
      "inputs": []
    }, 
    {
      "op": "null", 
      "name": "conv_4d_proj_bias_quantize", 
      "inputs": []
    }, 
    {
      "op": "null", 
      "name": "conv_4d_proj_weight_quantize_min", 
      "inputs": []
    }, 
    {
      "op": "null", 
      "name": "conv_4d_proj_weight_quantize_max", 
      "inputs": []
    }, 
    {
      "op": "null", 
      "name": "conv_4d_proj_bias_quantize_min", 
      "inputs": []
    }, 
    {
      "op": "null", 
      "name": "conv_4d_proj_bias_quantize_max", 
      "inputs": []
    }, 
    {
      "op": "_contrib_quantized_conv", 
      "name": "quantized_conv_4d_proj", 
      "attrs": {
        "cudnn_off": "False", 
        "cudnn_tune": "off", 
        "dilate": "(1,1)", 
        "kernel": "(1,1)", 
        "no_bias": "False", 
        "num_filter": "128", 
        "num_group": "1", 
        "pad": "(0,0)", 
        "stride": "(1,1)", 
        "workspace": "1024"
      }, 
      "inputs": [[835, 0, 0], [836, 0, 0], [837, 0, 0], [835, 1, 0], [835, 2, 0], [838, 0, 0], [839, 0, 0], [840, 0, 0], [841, 0, 0]]
    }, 
    {
…
        "fix_gamma": "False", 
        "momentum": "0.9", 
        "use_global_stats": "False"
      }, 
      "inputs": []
    }, 
    {
      "op": "null", 
      "name": "bn_5a_double_3x3_0_moving_var", 
      "attrs": {
        "__init__": "[\"one\", {}]", 
        "eps": "1.00001e-05", 
        "fix_gamma": "False", 
        "momentum": "0.9", 
        "use_global_stats": "False"
      }, 
      "inputs": []
    }, 
    {
      "op": "BatchNorm", 
      "name": "bn_5a_double_3x3_0", 
      "attrs": {
        "eps": "1.00001e-05", 
        "fix_gamma": "False", 
        "momentum": "0.9", 
        "use_global_stats": "False"
      }, 
      "inputs": [[1019, 0, 0], [1020, 0, 0], [1021, 0, 0], [1022, 0, 0], [1023, 0, 0]]
    }, 
    {
      "op": "Activation", 
      "name": "relu_5a_double_3x3_0", 
      "attrs": {"act_type": "relu"}, 
      "inputs": [[1024, 0, 0]]
    }, 
    {
      "op": "min", 
      "name": "relu_5a_double_3x3_0_min", 
      "inputs": [[1025, 0, 0]]
    }, 
    {
      "op": "max", 
      "name": "relu_5a_double_3x3_0_max", 
      "inputs": [[1025, 0, 0]]
    }, 
    {
      "op": "_contrib_quantize", 
      "name": "relu_5a_double_3x3_0_quantize", 
      "attrs": {"out_type": "uint8"}, 
      "inputs": [[1025, 0, 0], [1026, 0, 0], [1027, 0, 0]]
    }, 
    {
      "op": "null", 
      "name": "conv_5a_double_3x3_1_weight_quantize", 
      "inputs": []
    }, 
    {
      "op": "null", 
      "name": "conv_5a_double_3x3_1_bias_quantize", 
      "inputs": []
    }, 
    {
      "op": "null", 
      "name": "conv_5a_double_3x3_1_weight_quantize_min", 
      "inputs": []
    }, 
    {
      "op": "null", 
      "name": "conv_5a_double_3x3_1_weight_quantize_max", 
      "inputs": []
    }, 
    {
      "op": "null", 
      "name": "conv_5a_double_3x3_1_bias_quantize_min", 
      "inputs": []
    }, 
    {
      "op": "null", 
      "name": "conv_5a_double_3x3_1_bias_quantize_max", 
      "inputs": []
    }, 
    {
      "op": "_contrib_quantized_conv", 
      "name": "quantized_conv_5a_double_3x3_1", 
      "attrs": {
        "cudnn_off": "False", 
        "cudnn_tune": "off", 
        "dilate": "(1,1)", 
        "kernel": "(3,3)", 
        "no_bias": "False", 
        "num_filter": "224", 
        "num_group": "1", 
        "pad": "(1,1)", 
        "stride": "(1,1)", 
        "workspace": "1024"
      }, 
      "inputs": [[1028, 0, 0], [1029, 0, 0], [1030, 0, 0], [1028, 1, 0], [1028, 2, 0], [1031, 0, 0], [1032, 0, 0], [1033, 0, 0], [1034, 0, 0]]
    }, 
    {
      "op": "_contrib_requantize", 
      "name": "requantize_conv_5a_double_3x3_1", 
      "inputs": [[1035, 0, 0], [1035, 1, 0], [1035, 2, 0]]
    }, 
    {
      "op": "_contrib_dequantize", 
      "name": "conv_5a_double_3x3_1_dequantize", 
      "inputs": [[1036, 0, 0], [1036, 1, 0], [1036, 2, 0]]
    }, 
    {
      "op": "null", 
      "name": "bn_5a_double_3x3_1_gamma", 
      "inputs": []
    }, 
    {
      "op": "null", 
      "name": "bn_5a_double_3x3_1_beta", 
      "inputs": []
    }, 
    {
      "op": "null", 
      "name": "bn_5a_double_3x3_1_moving_mean", 
      "attrs": {
        "__init__": "[\"zero\", {}]", 
        "eps": "1.00001e-05", 
        "fix_gamma": "False", 
        "momentum": "0.9", 
        "use_global_stats": "False"
      }, 
      "inputs": []
    }, 
    {
      "op": "null", 
      "name": "bn_5a_double_3x3_1_moving_var", 
      "attrs": {
        "__init__": "[\"one\", {}]", 
        "eps": "1.00001e-05", 
        "fix_gamma": "False", 
        "momentum": "0.9", 
        "use_global_stats": "False"
      }, 
      "inputs": []
    }, 
    {
      "op": "BatchNorm", 
      "name": "bn_5a_double_3x3_1", 
      "attrs": {
        "eps": "1.00001e-05", 
        "fix_gamma": "False", 
        "momentum": "0.9", 
        "use_global_stats": "False"
      }, 
      "inputs": [[1037, 0, 0], [1038, 0, 0], [1039, 0, 0], [1040, 0, 0], [1041, 0, 0]]
    }, 
    {
      "op": "Activation", 
      "name": "relu_5a_double_3x3_1", 
      "attrs": {"act_type": "relu"}, 
      "inputs": [[1042, 0, 0]]
    }, 
    {
      "op": "_contrib_quantized_pooling", 
      "name": "quantized_avg_pool_5a_pool", 
      "attrs": {
        "global_pool": "False", 
        "kernel": "(3,3)", 
        "pad": "(1,1)", 
        "pool_type": "avg", 
        "pooling_convention": "valid", 
        "stride": "(1,1)"
      }, 
      "inputs": [[944, 0, 0], [944, 1, 0], [944, 2, 0]]
    }, 
    {
      "op": "null", 
      "name": "conv_5a_proj_weight_quantize", 
      "inputs": []
    }, 
    {
      "op": "null", 
      "name": "conv_5a_proj_bias_quantize", 
      "inputs": []
    }, 
    {
      "op": "null", 
      "name": "conv_5a_proj_weight_quantize_min", 
      "inputs": []
    }, 
    {
      "op": "null", 
      "name": "conv_5a_proj_weight_quantize_max", 
      "inputs": []
    }, 
    {
      "op": "null", 
      "name": "conv_5a_proj_bias_quantize_min", 
      "inputs": []
    }, 
    {
      "op": "null", 
      "name": "conv_5a_proj_bias_quantize_max", 
      "inputs": []
    }, 
    {
      "op": "_contrib_quantized_conv", 
      "name": "quantized_conv_5a_proj", 
      "attrs": {
        "cudnn_off": "False", 
        "cudnn_tune": "off", 
        "dilate": "(1,1)", 
        "kernel": "(1,1)", 
        "no_bias": "False", 
        "num_filter": "128", 
        "num_group": "1", 
        "pad": "(0,0)", 
        "stride": "(1,1)", 
        "workspace": "1024"
      }, 
      "inputs": [[1044, 0, 0], [1045, 0, 0], [1046, 0, 0], [1044, 1, 0], [1044, 2, 0], [1047, 0, 0], [1048, 0, 0], [1049, 0, 0], [1050, 0, 0]]
    }, 
    {
      "op": "_contrib_requantize", 
      "name": "requantize_conv_5a_proj", 
      "inputs": [[1051, 0, 0], [1051, 1, 0], [1051, 2, 0]]
    }, 
    {
      "op": "_contrib_dequantize", 
      "name": "conv_5a_proj_dequantize", 
      "inputs": [[1052, 0, 0], [1052, 1, 0], [1052, 2, 0]]
    }, 
    {
      "op": "null", 
      "name": "bn_5a_proj_gamma", 
      "inputs": []
    }, 
    {
      "op": "null", 
      "name": "bn_5a_proj_beta", 
      "inputs": []
    }, 
    {
      "op": "null", 
      "name": "bn_5a_proj_moving_mean", 
      "attrs": {
        "__init__": "[\"zero\", {}]", 
        "eps": "1.00001e-05", 
        "fix_gamma": "False", 
        "momentum": "0.9", 
        "use_global_stats": "False"
      }, 
      "inputs": []
    }, 
    {
      "op": "null", 
      "name": "bn_5a_proj_moving_var", 
      "attrs": {
        "__init__": "[\"one\", {}]", 
        "eps": "1.00001e-05", 
        "fix_gamma": "False", 
        "momentum": "0.9", 
        "use_global_stats": "False"
      }, 
      "inputs": []
    }, 
    {
      "op": "BatchNorm", 
      "name": "bn_5a_proj", 
      "attrs": {
        "eps": "1.00001e-05", 
        "fix_gamma": "False", 
        "momentum": "0.9", 
        "use_global_stats": "False"
      }, 
      "inputs": [[1053, 0, 0], [1054, 0, 0], [1055, 0, 0], [1056, 0, 0], [1057, 0, 0]]
    }, 
    {
      "op": "Activation", 
      "name": "relu_5a_proj", 
      "attrs": {"act_type": "relu"}, 
      "inputs": [[1058, 0, 0]]
    }, 
    {
      "op": "Concat", 
      "name": "ch_concat_5a_chconcat", 
      "attrs": {
        "dim": "1", 
        "num_args": "4"
      }, 
      "inputs": [[959, 0, 0], [992, 0, 0], [1043, 0, 0], [1059, 0, 0]]
    }, 
    {
      "op": "min", 
      "name": "ch_concat_5a_chconcat_min", 
      "inputs": [[1060, 0, 0]]
    }, 
    {
      "op": "max", 
      "name": "ch_concat_5a_chconcat_max", 
      "inputs": [[1060, 0, 0]]
    }, 
    {
      "op": "_contrib_quantize", 
      "name": "ch_concat_5a_chconcat_quantize", 
      "attrs": {"out_type": "uint8"}, 
      "inputs": [[1060, 0, 0], [1061, 0, 0], [1062, 0, 0]]
    }, 
    {
      "op": "null", 
      "name": "conv_5b_1x1_weight_quantize", 
      "inputs": []
    }, 
    {
      "op": "null", 
      "name": "conv_5b_1x1_bias_quantize", 
      "inputs": []
    }, 
    {
      "op": "null", 
      "name": "conv_5b_1x1_weight_quantize_min", 
      "inputs": []
    }, 
    {
      "op": "null", 
      "name": "conv_5b_1x1_weight_quantize_max", 
      "inputs": []
    }, 
    {
      "op": "null", 
      "name": "conv_5b_1x1_bias_quantize_min", 
      "inputs": []
    }, 
    {
      "op": "null", 
      "name": "conv_5b_1x1_bias_quantize_max", 
      "inputs": []
    }, 
    {
      "op": "_contrib_quantized_conv", 
      "name": "quantized_conv_5b_1x1", 
      "attrs": {
        "cudnn_off": "False", 
        "cudnn_tune": "off", 
        "dilate": "(1,1)", 
        "kernel": "(1,1)", 
        "no_bias": "False", 
        "num_filter": "352", 
        "num_group": "1", 
        "pad": "(0,0)", 
        "stride": "(1,1)", 
        "workspace": "1024"
      }, 
      "inputs": [[1063, 0, 0], [1064, 0, 0], [1065, 0, 0], [1063, 1, 0], [1063, 2, 0], [1066, 0, 0], [1067, 0, 0], [1068, 0, 0], [1069, 0, 0]]
    }, 
    {
      "op": "_contrib_requantize", 
      "name": "requantize_conv_5b_1x1", 
      "inputs": [[1070, 0, 0], [1070, 1, 0], [1070, 2, 0]]
    }, 
    {
      "op": "_contrib_dequantize", 
      "name": "conv_5b_1x1_dequantize", 
      "inputs": [[1071, 0, 0], [1071, 1, 0], [1071, 2, 0]]
    }, 
    {
      "op": "null", 
      "name": "bn_5b_1x1_gamma", 
      "inputs": []
    }, 
    {
      "op": "null", 
      "name": "bn_5b_1x1_beta", 
      "inputs": []
    }, 
    {
      "op": "null", 
      "name": "bn_5b_1x1_moving_mean", 
      "attrs": {
        "__init__": "[\"zero\", {}]", 
        "eps": "1.00001e-05", 
        "fix_gamma": "False", 
        "momentum": "0.9", 
        "use_global_stats": "False"
      }, 
      "inputs": []
    }, 
    {
      "op": "null", 
      "name": "bn_5b_1x1_moving_var", 
      "attrs": {
        "__init__": "[\"one\", {}]", 
        "eps": "1.00001e-05", 
        "fix_gamma": "False", 
        "momentum": "0.9", 
        "use_global_stats": "False"
      }, 
      "inputs": []
    }, 
    {
      "op": "BatchNorm", 
      "name": "bn_5b_1x1", 
      "attrs": {
        "eps": "1.00001e-05", 
        "fix_gamma": "False", 
        "momentum": "0.9", 
        "use_global_stats": "False"
      }, 
      "inputs": [[1072, 0, 0], [1073, 0, 0], [1074, 0, 0], [1075, 0, 0], [1076, 0, 0]]
    }, 
    {
      "op": "Activation", 
      "name": "relu_5b_1x1", 
      "attrs": {"act_type": "relu"}, 
      "inputs": [[1077, 0, 0]]
    }, 
    {
      "op": "null", 
      "name": "conv_5b_3x3_reduce_weight_quantize", 
      "inputs": []
    }, 
    {
      "op": "null", 
      "name": "conv_5b_3x3_reduce_bias_quantize", 
      "inputs": []
    }, 
    {
      "op": "null", 
      "name": "conv_5b_3x3_reduce_weight_quantize_min", 
      "inputs": []
    }, 
    {
      "op": "null", 
      "name": "conv_5b_3x3_reduce_weight_quantize_max", 
      "inputs": []
    }, 
    {
      "op": "null", 
      "name": "conv_5b_3x3_reduce_bias_quantize_min", 
      "inputs": []
    }, 
    {
      "op": "null", 
      "name": "conv_5b_3x3_reduce_bias_quantize_max", 
      "inputs": []
    }, 
    {
      "op": "_contrib_quantized_conv", 
      "name": "quantized_conv_5b_3x3_reduce", 
      "attrs": {
        "cudnn_off": "False", 
        "cudnn_tune": "off", 
        "dilate": "(1,1)", 
        "kernel": "(1,1)", 
        "no_bias": "False", 
        "num_filter": "192", 
        "num_group": "1", 
        "pad": "(0,0)", 
        "stride": "(1,1)", 
        "workspace": "1024"
      }, 
      "inputs": [[1063, 0, 0], [1079, 0, 0], [1080, 0, 0], [1063, 1, 0], [1063, 2, 0], [1081, 0, 0], [1082, 0, 0], [1083, 0, 0], [1084, 0, 0]]
    }, 
    {
      "op": "_contrib_requantize", 
      "name": "requantize_conv_5b_3x3_reduce", 
      "inputs": [[1085, 0, 0], [1085, 1, 0], [1085, 2, 0]]
    }, 
    {
      "op": "_contrib_dequantize", 
      "name": "conv_5b_3x3_reduce_dequantize", 
      "inputs": [[1086, 0, 0], [1086, 1, 0], [1086, 2, 0]]
    }, 
    {
      "op": "null", 
      "name": "bn_5b_3x3_reduce_gamma", 
      "inputs": []
    }, 
    {
      "op": "null", 
      "name": "bn_5b_3x3_reduce_beta", 
      "inputs": []
    }, 
    {
      "op": "null", 
      "name": "bn_5b_3x3_reduce_moving_mean", 
      "attrs": {
        "__init__": "[\"zero\", {}]", 
        "eps": "1.00001e-05", 
        "fix_gamma": "False", 
        "momentum": "0.9", 
        "use_global_stats": "False"
      }, 
      "inputs": []
    }, 
    {
      "op": "null", 
      "name": "bn_5b_3x3_reduce_moving_var", 
      "attrs": {
        "__init__": "[\"one\", {}]", 
        "eps": "1.00001e-05", 
        "fix_gamma": "False", 
        "momentum": "0.9", 
        "use_global_stats": "False"
      }, 
      "inputs": []
    }, 
    {
      "op": "BatchNorm", 
      "name": "bn_5b_3x3_reduce", 
      "attrs": {
        "eps": "1.00001e-05", 
        "fix_gamma": "False", 
        "momentum": "0.9", 
        "use_global_stats": "False"
      }, 
      "inputs": [[1087, 0, 0], [1088, 0, 0], [1089, 0, 0], [1090, 0, 0], [1091, 0, 0]]
    }, 
    {
      "op": "Activation", 
      "name": "relu_5b_3x3_reduce", 
      "attrs": {"act_type": "relu"}, 
      "inputs": [[1092, 0, 0]]
    }, 
    {
      "op": "min", 
      "name": "relu_5b_3x3_reduce_min", 
      "inputs": [[1093, 0, 0]]
    }, 
    {
      "op": "max", 
      "name": "relu_5b_3x3_reduce_max", 
      "inputs": [[1093, 0, 0]]
    }, 
    {
      "op": "_contrib_quantize", 
      "name": "relu_5b_3x3_reduce_quantize", 
      "attrs": {"out_type": "uint8"}, 
      "inputs": [[1093, 0, 0], [1094, 0, 0], [1095, 0, 0]]
    }, 
    {
      "op": "null", 
      "name": "conv_5b_3x3_weight_quantize", 
      "inputs": []
    }, 
    {
      "op": "null", 
      "name": "conv_5b_3x3_bias_quantize", 
      "inputs": []
    }, 
    {
      "op": "null", 
      "name": "conv_5b_3x3_weight_quantize_min", 
      "inputs": []
    }, 
    {
      "op": "null", 
      "name": "conv_5b_3x3_weight_quantize_max", 
      "inputs": []
    }, 
    {
      "op": "null", 
      "name": "conv_5b_3x3_bias_quantize_min", 
      "inputs": []
    }, 
    {
      "op": "null", 
      "name": "conv_5b_3x3_bias_quantize_max", 
      "inputs": []
    }, 
    {
      "op": "_contrib_quantized_conv", 
      "name": "quantized_conv_5b_3x3", 
      "attrs": {
        "cudnn_off": "False", 
        "cudnn_tune": "off", 
        "dilate": "(1,1)", 
        "kernel": "(3,3)", 
        "no_bias": "False", 
        "num_filter": "320", 
        "num_group": "1", 
        "pad": "(1,1)", 
        "stride": "(1,1)", 
        "workspace": "1024"
      }, 
      "inputs": [[1096, 0, 0], [1097, 0, 0], [1098, 0, 0], [1096, 1, 0], [1096, 2, 0], [1099, 0, 0], [1100, 0, 0], [1101, 0, 0], [1102, 0, 0]]
    }, 
    {
      "op": "_contrib_requantize", 
      "name": "requantize_conv_5b_3x3", 
      "inputs": [[1103, 0, 0], [1103, 1, 0], [1103, 2, 0]]
    }, 
    {
      "op": "_contrib_dequantize", 
      "name": "conv_5b_3x3_dequantize", 
      "inputs": [[1104, 0, 0], [1104, 1, 0], [1104, 2, 0]]
    }, 
    {
      "op": "null", 
      "name": "bn_5b_3x3_gamma", 
      "inputs": []
    }, 
    {
      "op": "null", 
      "name": "bn_5b_3x3_beta", 
      "inputs": []
    }, 
    {
      "op": "null", 
      "name": "bn_5b_3x3_moving_mean", 
      "attrs": {
        "__init__": "[\"zero\", {}]", 
        "eps": "1.00001e-05", 
        "fix_gamma": "False", 
        "momentum": "0.9", 
        "use_global_stats": "False"
      }, 
      "inputs": []
    }, 
    {
      "op": "null", 
      "name": "bn_5b_3x3_moving_var", 
      "attrs": {
        "__init__": "[\"one\", {}]", 
        "eps": "1.00001e-05", 
        "fix_gamma": "False", 
        "momentum": "0.9", 
        "use_global_stats": "False"
      }, 
      "inputs": []
    }, 
    {
      "op": "BatchNorm", 
      "name": "bn_5b_3x3", 
      "attrs": {
        "eps": "1.00001e-05", 
        "fix_gamma": "False", 
        "momentum": "0.9", 
        "use_global_stats": "False"
      }, 
      "inputs": [[1105, 0, 0], [1106, 0, 0], [1107, 0, 0], [1108, 0, 0], [1109, 0, 0]]
    }, 
    {
      "op": "Activation", 
      "name": "relu_5b_3x3", 
      "attrs": {"act_type": "relu"}, 
      "inputs": [[1110, 0, 0]]
    }, 
    {
      "op": "null", 
      "name": "conv_5b_double_3x3_reduce_weight_quantize", 
      "inputs": []
    }, 
    {
      "op": "null", 
      "name": "conv_5b_double_3x3_reduce_bias_quantize", 
      "inputs": []
    }, 
    {
      "op": "null", 
      "name": "conv_5b_double_3x3_reduce_weight_quantize_min", 
      "inputs": []
    }, 
    {
      "op": "null", 
      "name": "conv_5b_double_3x3_reduce_weight_quantize_max", 
      "inputs": []
    }, 
    {
      "op": "null", 
      "name": "conv_5b_double_3x3_reduce_bias_quantize_min", 
      "inputs": []
    }, 
    {
      "op": "null", 
      "name": "conv_5b_double_3x3_reduce_bias_quantize_max", 
      "inputs": []
    }, 
    {
      "op": "_contrib_quantized_conv", 
      "name": "quantized_conv_5b_double_3x3_reduce", 
      "attrs": {
        "cudnn_off": "False", 
        "cudnn_tune": "off", 
        "dilate": "(1,1)", 
        "kernel": "(1,1)", 
        "no_bias": "False", 
        "num_filter": "192", 
        "num_group": "1", 
        "pad": "(0,0)", 
        "stride": "(1,1)", 
        "workspace": "1024"
      }, 
      "inputs": [[1063, 0, 0], [1112, 0, 0], [1113, 0, 0], [1063, 1, 0], [1063, 2, 0], [1114, 0, 0], [1115, 0, 0], [1116, 0, 0], [1117, 0, 0]]
    }, 
    {
      "op": "_contrib_requantize", 
      "name": "requantize_conv_5b_double_3x3_reduce", 
      "inputs": [[1118, 0, 0], [1118, 1, 0], [1118, 2, 0]]
    }, 
    {
      "op": "_contrib_dequantize", 
      "name": "conv_5b_double_3x3_reduce_dequantize", 
      "inputs": [[1119, 0, 0], [1119, 1, 0], [1119, 2, 0]]
    }, 
    {
      "op": "null", 
      "name": "bn_5b_double_3x3_reduce_gamma", 
      "inputs": []
    }, 
    {
      "op": "null", 
      "name": "bn_5b_double_3x3_reduce_beta", 
      "inputs": []
    }, 
    {
      "op": "null", 
      "name": "bn_5b_double_3x3_reduce_moving_mean", 
      "attrs": {
        "__init__": "[\"zero\", {}]", 
        "eps": "1.00001e-05", 
        "fix_gamma": "False", 
        "momentum": "0.9", 
        "use_global_stats": "False"
      }, 
      "inputs": []
    }, 
    {
      "op": "null", 
      "name": "bn_5b_double_3x3_reduce_moving_var", 
      "attrs": {
        "__init__": "[\"one\", {}]", 
        "eps": "1.00001e-05", 
        "fix_gamma": "False", 
        "momentum": "0.9", 
        "use_global_stats": "False"
      }, 
      "inputs": []
    }, 
    {
      "op": "BatchNorm", 
      "name": "bn_5b_double_3x3_reduce", 
      "attrs": {
        "eps": "1.00001e-05", 
        "fix_gamma": "False", 
        "momentum": "0.9", 
        "use_global_stats": "False"
      }, 
      "inputs": [[1120, 0, 0], [1121, 0, 0], [1122, 0, 0], [1123, 0, 0], [1124, 0, 0]]
    }, 
    {
      "op": "Activation", 
      "name": "relu_5b_double_3x3_reduce", 
      "attrs": {"act_type": "relu"}, 
      "inputs": [[1125, 0, 0]]
    }, 
    {
      "op": "min", 
      "name": "relu_5b_double_3x3_reduce_min", 
      "inputs": [[1126, 0, 0]]
    }, 
    {
      "op": "max", 
      "name": "relu_5b_double_3x3_reduce_max", 
      "inputs": [[1126, 0, 0]]
    }, 
    {
      "op": "_contrib_quantize", 
      "name": "relu_5b_double_3x3_reduce_quantize", 
      "attrs": {"out_type": "uint8"}, 
      "inputs": [[1126, 0, 0], [1127, 0, 0], [1128, 0, 0]]
    }, 
    {
      "op": "null", 
      "name": "conv_5b_double_3x3_0_weight_quantize", 
      "inputs": []
    }, 
    {
      "op": "null", 
      "name": "conv_5b_double_3x3_0_bias_quantize", 
      "inputs": []
    }, 
    {
      "op": "null", 
      "name": "conv_5b_double_3x3_0_weight_quantize_min", 
      "inputs": []
    }, 
    {
      "op": "null", 
      "name": "conv_5b_double_3x3_0_weight_quantize_max", 
      "inputs": []
    }, 
    {
      "op": "null", 
      "name": "conv_5b_double_3x3_0_bias_quantize_min", 
      "inputs": []
    }, 
    {
      "op": "null", 
      "name": "conv_5b_double_3x3_0_bias_quantize_max", 
      "inputs": []
    }, 
    {
      "op": "_contrib_quantized_conv", 
      "name": "quantized_conv_5b_double_3x3_0", 
      "attrs": {
        "cudnn_off": "False", 
        "cudnn_tune": "off", 
        "dilate": "(1,1)", 
        "kernel": "(3,3)", 
        "no_bias": "False", 
        "num_filter": "224", 
        "num_group": "1", 
        "pad": "(1,1)", 
        "stride": "(1,1)", 
        "workspace": "1024"
      }, 
      "inputs": [[1129, 0, 0], [1130, 0, 0], [1131, 0, 0], [1129, 1, 0], [1129, 2, 0], [1132, 0, 0], [1133, 0, 0], [1134, 0, 0], [1135, 0, 0]]
    }, 
    {
      "op": "_contrib_requantize", 
      "name": "requantize_conv_5b_double_3x3_0", 
      "inputs": [[1136, 0, 0], [1136, 1, 0], [1136, 2, 0]]
    }, 
    {
      "op": "_contrib_dequantize", 
      "name": "conv_5b_double_3x3_0_dequantize", 
      "inputs": [[1137, 0, 0], [1137, 1, 0], [1137, 2, 0]]
    }, 
    {
      "op": "null", 
      "name": "bn_5b_double_3x3_0_gamma", 
      "inputs": []
    }, 
    {
      "op": "null", 
      "name": "bn_5b_double_3x3_0_beta", 
      "inputs": []
    }, 
    {
      "op": "null", 
      "name": "bn_5b_double_3x3_0_moving_mean", 
      "attrs": {
        "__init__": "[\"zero\", {}]", 
        "eps": "1.00001e-05", 
        "fix_gamma": "False", 
        "momentum": "0.9", 
        "use_global_stats": "False"
      }, 
      "inputs": []
    }, 
    {
      "op": "null", 
      "name": "bn_5b_double_3x3_0_moving_var", 
      "attrs": {
        "__init__": "[\"one\", {}]", 
        "eps": "1.00001e-05", 
        "fix_gamma": "False", 
        "momentum": "0.9", 
        "use_global_stats": "False"
      }, 
      "inputs": []
    }, 
    {
      "op": "BatchNorm", 
      "name": "bn_5b_double_3x3_0", 
      "attrs": {
        "eps": "1.00001e-05", 
        "fix_gamma": "False", 
        "momentum": "0.9", 
        "use_global_stats": "False"
      }, 
      "inputs": [[1138, 0, 0], [1139, 0, 0], [1140, 0, 0], [1141, 0, 0], [1142, 0, 0]]
    }, 
    {
      "op": "Activation", 
      "name": "relu_5b_double_3x3_0", 
      "attrs": {"act_type": "relu"}, 
      "inputs": [[1143, 0, 0]]
    }, 
    {
      "op": "min", 
      "name": "relu_5b_double_3x3_0_min", 
      "inputs": [[1144, 0, 0]]
    }, 
    {
      "op": "max", 
      "name": "relu_5b_double_3x3_0_max", 
      "inputs": [[1144, 0, 0]]
    }, 
    {
      "op": "_contrib_quantize", 
      "name": "relu_5b_double_3x3_0_quantize", 
      "attrs": {"out_type": "uint8"}, 
      "inputs": [[1144, 0, 0], [1145, 0, 0], [1146, 0, 0]]
    }, 
    {
      "op": "null", 
      "name": "conv_5b_double_3x3_1_weight_quantize", 
      "inputs": []
    }, 
    {
      "op": "null", 
      "name": "conv_5b_double_3x3_1_bias_quantize", 
      "inputs": []
    }, 
    {
      "op": "null", 
      "name": "conv_5b_double_3x3_1_weight_quantize_min", 
      "inputs": []
    }, 
    {
      "op": "null", 
      "name": "conv_5b_double_3x3_1_weight_quantize_max", 
      "inputs": []
    }, 
    {
      "op": "null", 
      "name": "conv_5b_double_3x3_1_bias_quantize_min", 
      "inputs": []
    }, 
    {
      "op": "null", 
      "name": "conv_5b_double_3x3_1_bias_quantize_max", 
      "inputs": []
    }, 
    {
      "op": "_contrib_quantized_conv", 
      "name": "quantized_conv_5b_double_3x3_1", 
      "attrs": {
        "cudnn_off": "False", 
        "cudnn_tune": "off", 
        "dilate": "(1,1)", 
        "kernel": "(3,3)", 
        "no_bias": "False", 
        "num_filter": "224", 
        "num_group": "1", 
        "pad": "(1,1)", 
        "stride": "(1,1)", 
        "workspace": "1024"
      }, 
      "inputs": [[1147, 0, 0], [1148, 0, 0], [1149, 0, 0], [1147, 1, 0], [1147, 2, 0], [1150, 0, 0], [1151, 0, 0], [1152, 0, 0], [1153, 0, 0]]
    }, 
    {
      "op": "_contrib_requantize", 
      "name": "requantize_conv_5b_double_3x3_1", 
      "inputs": [[1154, 0, 0], [1154, 1, 0], [1154, 2, 0]]
    }, 
    {
      "op": "_contrib_dequantize", 
      "name": "conv_5b_double_3x3_1_dequantize", 
      "inputs": [[1155, 0, 0], [1155, 1, 0], [1155, 2, 0]]
    }, 
    {
      "op": "null", 
      "name": "bn_5b_double_3x3_1_gamma", 
      "inputs": []
    }, 
    {
      "op": "null", 
      "name": "bn_5b_double_3x3_1_beta", 
      "inputs": []
    }, 
    {
      "op": "null", 
      "name": "bn_5b_double_3x3_1_moving_mean", 
      "attrs": {
        "__init__": "[\"zero\", {}]", 
        "eps": "1.00001e-05", 
        "fix_gamma": "False", 
        "momentum": "0.9", 
        "use_global_stats": "False"
      }, 
      "inputs": []
    }, 
    {
      "op": "null", 
      "name": "bn_5b_double_3x3_1_moving_var", 
      "attrs": {
        "__init__": "[\"one\", {}]", 
        "eps": "1.00001e-05", 
        "fix_gamma": "False", 
        "momentum": "0.9", 
        "use_global_stats": "False"
      }, 
      "inputs": []
    }, 
    {
      "op": "BatchNorm", 
      "name": "bn_5b_double_3x3_1", 
      "attrs": {
        "eps": "1.00001e-05", 
        "fix_gamma": "False", 
        "momentum": "0.9", 
        "use_global_stats": "False"
      }, 
      "inputs": [[1156, 0, 0], [1157, 0, 0], [1158, 0, 0], [1159, 0, 0], [1160, 0, 0]]
    }, 
    {
      "op": "Activation", 
      "name": "relu_5b_double_3x3_1", 
      "attrs": {"act_type": "relu"}, 
      "inputs": [[1161, 0, 0]]
    }, 
    {
      "op": "_contrib_quantized_pooling", 
      "name": "quantized_max_pool_5b_pool", 
      "attrs": {
        "global_pool": "False", 
        "kernel": "(3,3)", 
        "pad": "(1,1)", 
        "pool_type": "max", 
        "pooling_convention": "valid", 
        "stride": "(1,1)"
      }, 
      "inputs": [[1063, 0, 0], [1063, 1, 0], [1063, 2, 0]]
    }, 
    {
      "op": "null", 
      "name": "conv_5b_proj_weight_quantize", 
      "inputs": []
    }, 
    {
      "op": "null", 
      "name": "conv_5b_proj_bias_quantize", 
      "inputs": []
    }, 
    {
      "op": "null", 
      "name": "conv_5b_proj_weight_quantize_min", 
      "inputs": []
    }, 
    {
      "op": "null", 
      "name": "conv_5b_proj_weight_quantize_max", 
      "inputs": []
    }, 
    {
      "op": "null", 
      "name": "conv_5b_proj_bias_quantize_min", 
      "inputs": []
    }, 
    {
      "op": "null", 
      "name": "conv_5b_proj_bias_quantize_max", 
      "inputs": []
    }, 
    {
      "op": "_contrib_quantized_conv", 
      "name": "quantized_conv_5b_proj", 
      "attrs": {
        "cudnn_off": "False", 
        "cudnn_tune": "off", 
        "dilate": "(1,1)", 
        "kernel": "(1,1)", 
        "no_bias": "False", 
        "num_filter": "128", 
        "num_group": "1", 
        "pad": "(0,0)", 
        "stride": "(1,1)", 
        "workspace": "1024"
      }, 
      "inputs": [[1163, 0, 0], [1164, 0, 0], [1165, 0, 0], [1163, 1, 0], [1163, 2, 0], [1166, 0, 0], [1167, 0, 0], [1168, 0, 0], [1169, 0, 0]]
    }, 
    {
      "op": "_contrib_requantize", 
      "name": "requantize_conv_5b_proj", 
      "inputs": [[1170, 0, 0], [1170, 1, 0], [1170, 2, 0]]
    }, 
    {
      "op": "_contrib_dequantize", 
      "name": "conv_5b_proj_dequantize", 
      "inputs": [[1171, 0, 0], [1171, 1, 0], [1171, 2, 0]]
    }, 
    {
      "op": "null", 
      "name": "bn_5b_proj_gamma", 
      "inputs": []
    }, 
    {
      "op": "null", 
      "name": "bn_5b_proj_beta", 
      "inputs": []
    }, 
    {
      "op": "null", 
      "name": "bn_5b_proj_moving_mean", 
      "attrs": {
        "__init__": "[\"zero\", {}]", 
        "eps": "1.00001e-05", 
        "fix_gamma": "False", 
        "momentum": "0.9", 
        "use_global_stats": "False"
      }, 
      "inputs": []
    }, 
    {
      "op": "null", 
      "name": "bn_5b_proj_moving_var", 
      "attrs": {
        "__init__": "[\"one\", {}]", 
        "eps": "1.00001e-05", 
        "fix_gamma": "False", 
        "momentum": "0.9", 
        "use_global_stats": "False"
      }, 
      "inputs": []
    }, 
    {
      "op": "BatchNorm", 
      "name": "bn_5b_proj", 
      "attrs": {
        "eps": "1.00001e-05", 
        "fix_gamma": "False", 
        "momentum": "0.9", 
        "use_global_stats": "False"
      }, 
      "inputs": [[1172, 0, 0], [1173, 0, 0], [1174, 0, 0], [1175, 0, 0], [1176, 0, 0]]
    }, 
    {
      "op": "Activation", 
      "name": "relu_5b_proj", 
      "attrs": {"act_type": "relu"}, 
      "inputs": [[1177, 0, 0]]
    }, 
    {
      "op": "Concat", 
      "name": "ch_concat_5b_chconcat", 
      "attrs": {
        "dim": "1", 
        "num_args": "4"
      }, 
      "inputs": [[1078, 0, 0], [1111, 0, 0], [1162, 0, 0], [1178, 0, 0]]
    }, 
    {
      "op": "min", 
      "name": "ch_concat_5b_chconcat_min", 
      "inputs": [[1179, 0, 0]]
    }, 
    {
      "op": "max", 
      "name": "ch_concat_5b_chconcat_max", 
      "inputs": [[1179, 0, 0]]
    }, 
    {
      "op": "_contrib_quantize", 
      "name": "ch_concat_5b_chconcat_quantize", 
      "attrs": {"out_type": "uint8"}, 
      "inputs": [[1179, 0, 0], [1180, 0, 0], [1181, 0, 0]]
    }, 
    {
      "op": "_contrib_quantized_pooling", 
      "name": "quantized_global_pool", 
      "attrs": {
        "global_pool": "False", 
        "kernel": "(7,7)", 
        "pad": "(0,0)", 
        "pool_type": "avg", 
        "pooling_convention": "valid", 
        "stride": "(1,1)"
      }, 
      "inputs": [[1182, 0, 0], [1182, 1, 0], [1182, 2, 0]]
    }, 
    {
      "op": "_contrib_quantized_flatten", 
      "name": "quantized_flatten", 
      "inputs": [[1183, 0, 0], [1183, 1, 0], [1183, 2, 0]]
    }, 
    {
      "op": "_contrib_dequantize", 
      "name": "flatten_dequantize", 
      "inputs": [[1184, 0, 0], [1184, 1, 0], [1184, 2, 0]]
    }, 
    {
      "op": "null", 
      "name": "fc1_weight", 
      "inputs": []
    }, 
    {
      "op": "null", 
      "name": "fc1_bias", 
      "inputs": []
    }, 
    {
      "op": "FullyConnected", 
      "name": "fc1", 
      "attrs": {
        "no_bias": "False", 
        "num_hidden": "1000"
      }, 
      "inputs": [[1185, 0, 0], [1186, 0, 0], [1187, 0, 0]]
    }, 
    {
      "op": "null", 
      "name": "softmax_label", 
      "inputs": []
    }, 
    {
      "op": "SoftmaxOutput", 
      "name": "softmax", 
      "attrs": {
        "grad_scale": "1", 
        "ignore_label": "-1", 
        "multi_output": "False", 
        "normalization": "null", 
        "preserve_shape": "False", 
        "use_ignore": "False"
      }, 
      "inputs": [[1188, 0, 0], [1189, 0, 0]]
    }
  ], 
  "arg_nodes": [
    0, 
    1, 
    2, 
    4, 
    5, 
    6, 
    7, 
    14, 
    15, 
    16, 
    17, 
    18, 
    19, 
    23, 
    24, 
    25, 
    26, 
    32, 
    33, 
    34, 
    35, 
    36, 
    37, 
    41, 
    42, 
    43, 
    44, 
    51, 
    52, 
    53, 
    54, 
    55, 
    56, 
    60, 
    61, 
    62, 
    63, 
    66, 
    67, 
    68, 
    69, 
    70, 
    71, 
    75, 
    76, 
    77, 
    78, 
    84, 
    85, 
    86, 
    87, 
    88, 
    89, 
    93, 
    94, 
    95, 
    96, 
    99, 
    100, 
    101, 
    102, 
    103, 
    104, 
    108, 
    109, 
    110, 
    111, 
    117, 
    118, 
    119, 
    120, 
    121, 
    122, 
    126, 
    127, 
    128, 
    129, 
    135, 
    136, 
    137, 
    138, 
    139, 
    140, 
    144, 
    145, 
    146, 
    147, 
    151, 
    152, 
    153, 
    154, 
    155, 
    156, 
    160, 
    161, 
    162, 
    163, 
    170, 
    171, 
    172, 
    173, 
    174, 
    175, 
    179, 
    180, 
    181, 
    182, 
    185, 
    186, 
    187, 
    188, 
    189, 
    190, 
    194, 
    195, 
    196, 
    197, 
    203, 
    204, 
    205, 
    206, 
    207, 
    208, 
    212, 
    213, 
    214, 
    215, 
    218, 
    219, 
    220, 
    221, 
    222, 
    223, 
    227, 
    228, 
    229, 
    230, 
    236, 
    237, 
    238, 
    239, 
    240, 
    241, 
    245, 
    246, 
    247, 
    248, 
    254, 
    255, 
    256, 
    257, 
    258, 
    259, 
    263, 
    264, 
    265, 
    266, 
    270, 
    271, 
    272, 
    273, 
    274, 
    275, 
    279, 
    280, 
    281, 
    282, 
    289, 
    290, 
    291, 
    292, 
    293, 
    294, 
    298, 
    299, 
    300, 
    301, 
    307, 
    308, 
    309, 
    310, 
    311, 
    312, 
    316, 
    317, 
    318, 
    319, 
    322, 
    323, 
    324, 
    325, 
    326, 
    327, 
    331, 
    332, 
    333, 
    334, 
    340, 
    341, 
    342, 
    343, 
    344, 
    345, 
    349, 
    350, 
    351, 
    352, 
    358, 
    359, 
    360, 
    361, 
    362, 
    363, 
    367, 
    368, 
    369, 
    370, 
    379, 
    380, 
    381, 
    382, 
    383, 
    384, 
    388, 
    389, 
    390, 
    391, 
    394, 
    395, 
    396, 
    397, 
    398, 
    399, 
    403, 
    404, 
    405, 
    406, 
    412, 
    413, 
    414, 
    415, 
    416, 
    417, 
    421, 
    422, 
    423, 
    424, 
    427, 
    428, 
    429, 
    430, 
    431, 
    432, 
    436, 
    437, 
    438, 
    439, 
    445, 
    446, 
    447, 
    448, 
    449, 
    450, 
    454, 
    455, 
    456, 
    457, 
    463, 
    464, 
    465, 
    466, 
    467, 
    468, 
    472, 
    473, 
    474, 
    475, 
    479, 
    480, 
    481, 
    482, 
    483, 
    484, 
    488, 
    489, 
    490, 
    491, 
    498, 
    499, 
    500, 
    501, 
    502, 
    503, 
    507, 
    508, 
    509, 
    510, 
    513, 
    514, 
    515, 
    516, 
    517, 
    518, 
    522, 
    523, 
    524, 
    525, 
    531, 
    532, 
    533, 
    534, 
    535, 
    536, 
    540, 
    541, 
    542, 
    543, 
    546, 
    547, 
    548, 
    549, 
    550, 
    551, 
    555, 
    556, 
    557, 
    558, 
    564, 
    565, 
    566, 
    567, 
    568, 
    569, 
    573, 
    574, 
    575, 
    576, 
    582, 
    583, 
    584, 
    585, 
    586, 
    587, 
    591, 
    592, 
    593, 
    594, 
    598, 
    599, 
    600, 
    601, 
    602, 
    603, 
    607, 
    608, 
    609, 
    610, 
    617, 
    618, 
    619, 
    620, 
    621, 
    622, 
    626, 
    627, 
    628, 
    629, 
    632, 
    633, 
    634, 
    635, 
    636, 
    637, 
    641, 
    642, 
    643, 
    644, 
    650, 
    651, 
    652, 
    653, 
    654, 
    655, 
    659, 
    660, 
    661, 
    662, 
    665, 
    666, 
    667, 
    668, 
    669, 
    670, 
    674, 
    675, 
    676, 
    677, 
    683, 
    684, 
    685, 
    686, 
    687, 
    688, 
    692, 
    693, 
    694, 
    695, 
    701, 
    702, 
    703, 
    704, 
    705, 
    706, 
    710, 
    711, 
    712, 
    713, 
    717, 
    718, 
    719, 
    720, 
    721, 
    722, 
    726, 
    727, 
    728, 
    729, 
    736, 
    737, 
    738, 
    739, 
    740, 
    741, 
    745, 
    746, 
    747, 
    748, 
    751, 
    752, 
    753, 
    754, 
    755, 
    756, 
    760, 
    761, 
    762, 
    763, 
    769, 
    770, 
    771, 
    772, 
    773, 
    774, 
    778, 
    779, 
    780, 
    781, 
    784, 
    785, 
    786, 
    787, 
    788, 
    789, 
    793, 
    794, 
    795, 
    796, 
    802, 
    803, 
    804, 
    805, 
    806, 
    807, 
    811, 
    812, 
    813, 
    814, 
    820, 
    821, 
    822, 
    823, 
    824, 
    825, 
    829, 
    830, 
    831, 
    832, 
    836, 
    837, 
    838, 
    839, 
    840, 
    841, 
    845, 
    846, 
    847, 
    848, 
    855, 
    856, 
    857, 
    858, 
    859, 
    860, 
    864, 
    865, 
    866, 
    867, 
    873, 
    874, 
    875, 
    876, 
    877, 
    878, 
    882, 
    883, 
    884, 
    885, 
    888, 
    889, 
    890, 
    891, 
    892, 
    893, 
    897, 
    898, 
    899, 
    900, 
    906, 
    907, 
    908, 
    909, 
    910, 
    911, 
    915, 
    916, 
    917, 
    918, 
    924, 
    925, 
    926, 
    927, 
    928, 
    929, 
    933, 
    934, 
    935, 
    936, 
    945, 
    946, 
    947, 
    948, 
    949, 
    950, 
    954, 
    955, 
    956, 
    957, 
    960, 
    961, 
    962, 
    963, 
    964, 
    965, 
    969, 
    970, 
    971, 
    972, 
    978, 
    979, 
    980, 
    981, 
    982, 
    983, 
    987, 
    988, 
    989, 
    990, 
    993, 
    994, 
    995, 
    996, 
    997, 
    998, 
    1002, 
    1003, 
    1004, 
    1005, 
    1011, 
    1012, 
    1013, 
    1014, 
    1015, 
    1016, 
    1020, 
    1021, 
    1022, 
    1023, 
    1029, 
    1030, 
    1031, 
    1032, 
    1033, 
    1034, 
    1038, 
    1039, 
    1040, 
    1041, 
    1045, 
    1046, 
    1047, 
    1048, 
    1049, 
    1050, 
    1054, 
    1055, 
    1056, 
    1057, 
    1064, 
    1065, 
    1066, 
    1067, 
    1068, 
    1069, 
    1073, 
    1074, 
    1075, 
    1076, 
    1079, 
    1080, 
    1081, 
    1082, 
    1083, 
    1084, 
    1088, 
    1089, 
    1090, 
    1091, 
    1097, 
    1098, 
    1099, 
    1100, 
    1101, 
    1102, 
    1106, 
    1107, 
    1108, 
    1109, 
    1112, 
    1113, 
    1114, 
    1115, 
    1116, 
    1117, 
    1121, 
    1122, 
    1123, 
    1124, 
    1130, 
    1131, 
    1132, 
    1133, 
    1134, 
    1135, 
    1139, 
    1140, 
    1141, 
    1142, 
    1148, 
    1149, 
    1150, 
    1151, 
    1152, 
    1153, 
    1157, 
    1158, 
    1159, 
    1160, 
    1164, 
    1165, 
    1166, 
    1167, 
    1168, 
    1169, 
    1173, 
    1174, 
    1175, 
    1176, 
    1186, 
    1187, 
    1189
  ], 
  "node_row_ptr": [
    0, 
    1, 
    2, 
    3, 
    4, 
    5, 
    6, 
    7, 
    8, 
    11, 
    12, 
    13, 
    14, 
    17, 
    20, 
    21, 
    22, 
    23, 
    24, 
    25, 
    26, 
    29, 
    32, 
    33, 
    34, 
    35, 
    36, 
    37, 
    40, 
    41, 
    42, 
    43, 
    46, 
    47, 
    48, 
    49, 
    50, 
    51, 
    52, 
    55, 
    58, 
    59, 
    60, 
    61, 
    62, 
    63, 
    66, 
    67, 
    68, 
    69, 
    72, 
    75, 
    76, 
    77, 
    78, 
    79, 
    80, 
    81, 
    84, 
    87, 
    88, 
    89, 
    90, 
    91, 
    92, 
    95, 
    96, 
    97, 
    98, 
    99, 
    100, 
    101, 
    102, 
    105, 
    108, 
    109, 
    110, 
    111, 
    112, 
    113, 
    116, 
    117, 
    118, 
    119, 
    122, 
    123, 
    124, 
    125, 
    126, 
    127, 
    128, 
    131, 
    134, 
    135, 
    136, 
    137, 
    138, 
    139, 
    142, 
    143, 
    144, 
    145, 
    146, 
    147, 
    148, 
    149, 
    152, 
    155, 
    156, 
    157, 
    158, 
    159, 
    160, 
    163, 
    164, 
    165, 
    166, 
    169, 
    170, 
    171, 
    172, 
    173, 
    174, 
    175, 
    178, 
    181, 
    182, 
    183, 
    184, 
    185, 
    186, 
    189, 
    190, 
    191, 
    192, 
    195, 
    196, 
    197, 
    198, 
    199, 
    200, 
    201, 
    204, 
    207, 
    208, 
    209, 
    210, 
    211, 
    212, 
    215, 
    216, 
    219, 
    220, 
    221, 
    222, 
    223, 
    224, 
    225, 
    228, 
    231, 
    232, 
    233, 
    234, 
    235, 
    236, 
    239, 
    240, 
    241, 
    242, 
    243, 
    246, 
    247, 
    248, 
    249, 
    250, 
    251, 
    252, 
    255, 
    258, 
    259, 
    260, 
    261, 
    262, 
    263, 
    266, 
    267, 
    268, 
    269, 
    270, 
    271, 
    272, 
    273, 
    276, 
    279, 
    280, 
    281, 
    282, 
    283, 
    284, 
    287, 
    288, 
    289, 
    290, 
    293, 
    294, 
    295, 
    296, 
    297, 
    298, 
    299, 
    302, 
    305, 
    306, 
    307, 
    308, 
    309, 
    310, 
    313, 
    314, 
    315, 
    316, 
    317, 
    318, 
    319, 
    320, 
    323, 
    326, 
    327, 
    328, 
    329, 
    330, 
    331, 
    334, 
    335, 
    336, 
    337, 
    340, 
    341, 
    342, 
    343, 
    344, 
    345, 
    346, 
    349, 
    352, 
    353, 
    354, 
    355, 
    356, 
    357, 
    360, 
    361, 
    362, 
    363, 
    366, 
    367, 
    368, 
    369, 
    370, 
    371, 
    372, 
    375, 
    378, 
    379, 
    380, 
    381, 
    382, 
    383, 
    386, 
    387, 
    390, 
    391, 
    392, 
    393, 
    394, 
    395, 
    396, 
    399, 
    402, 
    403, 
    404, 
    405, 
    406, 
    407, 
    410, 
    411, 
    412, 
    413, 
    414, 
    417, 
    418, 
    419, 
    420, 
    421, 
    422, 
    423, 
    426, 
    429, 
    430, 
    431, 
    432, 
    433, 
    434, 
    437, 
    438, 
    439, 
    440, 
    443, 
    444, 
    445, 
    446, 
    447, 
    448, 
    449, 
    452, 
    455, 
    456, 
    457, 
    458, 
    459, 
    460, 
    463, 
    464, 
    465, 
    466, 
    467, 
    468, 
    469, 
    470, 
    473, 
    476, 
    477, 
    478, 
    479, 
    480, 
    481, 
    484, 
    485, 
    486, 
    487, 
    490, 
    491, 
    492, 
    493, 
    494, 
    495, 
    496, 
    499, 
    502, 
    503, 
    504, 
    505, 
    506, 
    507, 
    510, 
    511, 
    512, 
    513, 
    516, 
    517, 
    518, 
    519, 
    520, 
    521, 
    522, 
    525, 
    528, 
    529, 
    530, 
    531, 
    532, 
    533, 
    536, 
    537, 
    540, 
    541, 
    542, 
    543, 
    544, 
    547, 
    548, 
    549, 
    550, 
    551, 
    552, 
    553, 
    556, 
    559, 
    560, 
    561, 
    562, 
    563, 
    564, 
    567, 
    568, 
    569, 
    570, 
    571, 
    572, 
    573, 
    574, 
    577, 
    580, 
    581, 
    582, 
    583, 
    584, 
    585, 
    588, 
    589, 
    590, 
    591, 
    594, 
    595, 
    596, 
    597, 
    598, 
    599, 
    600, 
    603, 
    606, 
    607, 
    608, 
    609, 
    610, 
    611, 
    614, 
    615, 
    616, 
    617, 
    618, 
    619, 
    620, 
    621, 
    624, 
    627, 
    628, 
    629, 
    630, 
    631, 
    632, 
    635, 
    636, 
    637, 
    638, 
    641, 
    642, 
    643, 
    644, 
    645, 
    646, 
    647, 
    650, 
    653, 
    654, 
    655, 
    656, 
    657, 
    658, 
    661, 
    662, 
    663, 
    664, 
    667, 
    668, 
    669, 
    670, 
    671, 
    672, 
    673, 
    676, 
    679, 
    680, 
    681, 
    682, 
    683, 
    684, 
    687, 
    688, 
    691, 
    692, 
    693, 
    694, 
    695, 
    696, 
    697, 
    700, 
    703, 
    704, 
    705, 
    706, 
    707, 
    708, 
    711, 
    712, 
    713, 
    714, 
    715, 
    718, 
    719, 
    720, 
    721, 
    722, 
    723, 
    724, 
    727, 
    730, 
    731, 
    732, 
    733, 
    734, 
    735, 
    738, 
    739, 
    740, 
    741, 
    742, 
    743, 
    744, 
    745, 
    748, 
    751, 
    752, 
    753, 
    754, 
    755, 
    756, 
    759, 
    760, 
    761, 
    762, 
    765, 
    766, 
    767, 
    768, 
    769, 
    770, 
    771, 
    774, 
    777, 
    778, 
    779, 
    780, 
    781, 
    782, 
    785, 
    786, 
    787, 
    788, 
    789, 
    790, 
    791, 
    792, 
    795, 
    798, 
    799, 
    800, 
    801, 
    802, 
    803, 
    806, 
    807, 
    808, 
    809, 
    812, 
    813, 
    814, 
    815, 
    816, 
    817, 
    818, 
    821, 
    824, 
    825, 
    826, 
    827, 
    828, 
    829, 
    832, 
    833, 
    834, 
    835, 
    838, 
    839, 
    840, 
    841, 
    842, 
    843, 
    844, 
    847, 
    850, 
    851, 
    852, 
    853, 
    854, 
    855, 
    858, 
    859, 
    862, 
    863, 
    864, 
    865, 
    866, 
    867, 
    868, 
    871, 
    874, 
    875, 
    876, 
    877, 
    878, 
    879, 
    882, 
    883, 
    884, 
    885, 
    886, 
    889, 
    890, 
    891, 
    892, 
    893, 
    894, 
    895, 
    898, 
    901, 
    902, 
    903, 
    904, 
    905, 
    906, 
    909, 
    910, 
    911, 
    912, 
    913, 
    914, 
    915, 
    916, 
    919, 
    922, 
    923, 
    924, 
    925, 
    926, 
    927, 
    930, 
    931, 
    932, 
    933, 
    936, 
    937, 
    938, 
    939, 
    940, 
    941, 
    942, 
    945, 
    948, 
    949, 
    950, 
    951, 
    952, 
    953, 
    956, 
    957, 
    958, 
    959, 
    960, 
    961, 
    962, 
    963, 
    966, 
    969, 
    970, 
    971, 
    972, 
    973, 
    974, 
    977, 
    978, 
    979, 
    980, 
    983, 
    984, 
    985, 
    986, 
    987, 
    988, 
    989, 
    992, 
    995, 
    996, 
    997, 
    998, 
    999, 
    1000, 
    1003, 
    1004, 
    1005, 
    1006, 
    1009, 
    1010, 
    1011, 
    1012, 
    1013, 
    1014, 
    1015, 
    1018, 
    1021, 
    1022, 
    1023, 
    1024, 
    1025, 
    1026, 
    1029, 
    1030, 
    1033, 
    1034, 
    1035, 
    1036, 
    1037, 
    1038, 
    1039, 
    1042, 
    1045, 
    1046, 
    1047, 
    1048, 
    1049, 
    1050, 
    1053, 
    1054, 
    1055, 
    1056, 
    1057, 
    1060, 
    1061, 
    1062, 
    1063, 
    1064, 
    1065, 
    1066, 
    1069, 
    1072, 
    1073, 
    1074, 
    1075, 
    1076, 
    1077, 
    1080, 
    1081, 
    1082, 
    1083, 
    1084, 
    1085, 
    1086, 
    1087, 
    1090, 
    1093, 
    1094, 
    1095, 
    1096, 
    1097, 
    1098, 
    1101, 
    1102, 
    1103, 
    1104, 
    1107, 
    1108, 
    1109, 
    1110, 
    1111, 
    1112, 
    1113, 
    1116, 
    1119, 
    1120, 
    1121, 
    1122, 
    1123, 
    1124, 
    1127, 
    1128, 
    1129, 
    1130, 
    1131, 
    1132, 
    1133, 
    1134, 
    1137, 
    1140, 
    1141, 
    1142, 
    1143, 
    1144, 
    1145, 
    1148, 
    1149, 
    1150, 
    1151, 
    1154, 
    1155, 
    1156, 
    1157, 
    1158, 
    1159, 
    1160, 
    1163, 
    1166, 
    1167, 
    1168, 
    1169, 
    1170, 
    1171, 
    1174, 
    1175, 
    1176, 
    1177, 
    1180, 
    1181, 
    1182, 
    1183, 
    1184, 
    1185, 
    1186, 
    1189, 
    1192, 
    1193, 
    1194, 
    1195, 
    1196, 
    1197, 
    1200, 
    1201, 
    1204, 
    1205, 
    1206, 
    1207, 
    1208, 
    1209, 
    1210, 
    1213, 
    1216, 
    1217, 
    1218, 
    1219, 
    1220, 
    1221, 
    1224, 
    1225, 
    1226, 
    1227, 
    1228, 
    1231, 
    1232, 
    1233, 
    1234, 
    1235, 
    1236, 
    1237, 
    1240, 
    1243, 
    1244, 
    1245, 
    1246, 
    1247, 
    1248, 
    1251, 
    1252, 
    1253, 
    1254, 
    1257, 
    1258, 
    1259, 
    1260, 
    1261, 
    1262, 
    1263, 
    1266, 
    1269, 
    1270, 
    1271, 
    1272, 
    1273, 
    1274, 
    1277, 
    1278, 
    1279, 
    1280, 
    1281, 
    1282, 
    1283, 
    1284, 
    1287, 
    1290, 
    1291, 
    1292, 
    1293, 
    1294, 
    1295, 
    1298, 
    1299, 
    1300, 
    1301, 
    1304, 
    1305, 
    1306, 
    1307, 
    1308, 
    1309, 
    1310, 
    1313, 
    1316, 
    1317, 
    1318, 
    1319, 
    1320, 
    1321, 
    1324, 
    1325, 
    1326, 
    1327, 
    1330, 
    1331, 
    1332, 
    1333, 
    1334, 
    1335, 
    1336, 
    1339, 
    1342, 
    1343, 
    1344, 
    1345, 
    1346, 
    1347, 
    1350, 
    1351, 
    1354, 
    1355, 
    1356, 
    1357, 
    1358, 
    1361, 
    1362, 
    1363, 
    1364, 
    1365, 
    1366, 
    1367, 
    1370, 
    1373, 
    1374, 
    1375, 
    1376, 
    1377, 
    1378, 
    1381, 
    1382, 
    1383, 
    1384, 
    1385, 
    1386, 
    1387, 
    1388, 
    1391, 
    1394, 
    1395, 
    1396, 
    1397, 
    1398, 
    1399, 
    1402, 
    1403, 
    1404, 
    1405, 
    1408, 
    1409, 
    1410, 
    1411, 
    1412, 
    1413, 
    1414, 
    1417, 
    1420, 
    1421, 
    1422, 
    1423, 
    1424, 
    1425, 
    1428, 
    1429, 
    1430, 
    1431, 
    1432, 
    1433, 
    1434, 
    1435, 
    1438, 
    1441, 
    1442, 
    1443, 
    1444, 
    1445, 
    1446, 
    1449, 
    1450, 
    1451, 
    1452, 
    1455, 
    1456, 
    1457, 
    1458, 
    1459, 
    1460, 
    1461, 
    1464, 
    1467, 
    1468, 
    1469, 
    1470, 
    1471, 
    1472, 
    1475, 
    1476, 
    1477, 
    1478, 
    1481, 
    1482, 
    1483, 
    1484, 
    1485, 
    1486, 
    1487, 
    1490, 
    1493, 
    1494, 
    1495, 
    1496, 
    1497, 
    1498, 
    1501, 
    1502, 
    1505, 
    1506, 
    1507, 
    1508, 
    1509, 
    1510, 
    1511, 
    1514, 
    1517, 
    1518, 
    1519, 
    1520, 
    1521, 
    1522, 
    1525, 
    1526, 
    1527, 
    1528, 
    1529, 
    1532, 
    1533, 
    1534, 
    1535, 
    1536, 
    1537, 
    1538, 
    1541, 
    1544, 
    1545, 
    1546, 
    1547, 
    1548, 
    1549, 
    1552, 
    1553, 
    1554, 
    1555, 
    1556, 
    1557, 
    1558, 
    1559, 
    1562, 
    1565, 
    1566, 
    1567, 
    1568, 
    1569, 
    1570, 
    1573, 
    1574, 
    1575, 
    1576, 
    1579, 
    1580, 
    1581, 
    1582, 
    1583, 
    1584, 
    1585, 
    1588, 
    1591, 
    1592, 
    1593, 
    1594, 
    1595, 
    1596, 
    1599, 
    1600, 
    1601, 
    1602, 
    1603, 
    1604, 
    1605, 
    1606, 
    1609, 
    1612, 
    1613, 
    1614, 
    1615, 
    1616, 
    1617, 
    1620, 
    1621, 
    1622, 
    1623, 
    1626, 
    1627, 
    1628, 
    1629, 
    1630, 
    1631, 
    1632, 
    1635, 
    1638, 
    1639, 
    1640, 
    1641, 
    1642, 
    1643, 
    1646, 
    1647, 
    1648, 
    1649, 
    1652, 
    1653, 
    1654, 
    1655, 
    1656, 
    1657, 
    1658, 
    1661, 
    1664, 
    1665, 
    1666, 
    1667, 
    1668, 
    1669, 
    1672, 
    1673, 
    1676, 
    1677, 
    1678, 
    1679, 
    1680, 
    1681, 
    1682, 
    1685, 
    1688, 
    1689, 
    1690, 
    1691, 
    1692, 
    1693, 
    1696, 
    1697, 
    1698, 
    1699, 
    1700, 
    1703, 
    1706, 
    1709, 
    1710, 
    1711, 
    1712, 
    1713, 
    1714, 
    1715
  ], 
  "heads": [[1190, 0, 0]], 
  "attrs": {"mxnet_version": ["int", 10001]}
}